log/best_model_0.pt (torch, 798153 bytes, 9 tensors)

net.0.linear.weight f4 [256, 3]
000000 cd 75 64 be 88 f6 27 bd eb d6 bd bc 95 fb 0e 3d
       -0.22310562 -0.041006595 -0.02317377 0.034907896
000010 fa 67 1a be ef 3f 4d be 85 62 60 3e 83 6e 2a 3d
       -0.15078726 -0.2004392 0.21912582 0.0416093
000020 11 da 6e 3e 38 ab 95 3e 09 d0 57 3d 6c a4 3a bc
       0.23325373 0.29232192 0.052688632 -0.01139174
000030 f0 db a9 3e 0a 4f 52 be 04 18 06 3e f6 6e 9c 3e
       0.33175611 -0.20537964 0.13095099 0.30553406
000040 0b 5c 4c 3d 54 1f 05 3e 01 4a 58 be 3e a1 1b be
       0.049892467 0.13000232 -0.2112198 -0.15198228
000050 b7 b9 67 be 18 ee 28 3e 58 6e 03 3c 24 80 87 3e
       -0.22629438 0.16497076 0.0080219135 0.2646495
000060 87 27 3f be d3 fd 9b 3d 12 0c 83 3e ac ed c4 ba
       -0.18667422 0.076167725 0.25595146 -0.0015024445
000070 5d b9 4e bc c9 3a 48 be f1 4e 6e be c1 2e 72 be
       -0.012617436 -0.19553675 -0.23272301 -0.23650648
000080 dc 7e 6a 3e b1 ed 50 3e 28 68 a7 be b9 7e a6 3d
       0.22899956 0.20403172 -0.32696652 0.08129639
000090 98 af ac bd 97 63 7b be 1e b9 a0 3d c1 e0 2e 3e
       -0.08431929 -0.2454971 0.07847808 0.17077924
0000a0 f4 fc e6 3d 5d dd 58 3e 2b 3c 76 3d 48 cf a3 3e
       0.11278716 0.21178193 0.060115974 0.3199408
0000b0 92 f1 29 3e 0c 98 82 37 0c e8 70 bd 42 44 2b 3e
       0.16596058 1.556801e-05 -0.058815047 0.16725257
0000c0 a1 b8 8f 3e 5e c4 83 3e 0f c2 b9 3d 1b aa a6 3e
       0.28070548 0.25735754 0.09070217 0.32551655
0000d0 83 ed 0b 3d 51 da dd bc d4 95 69 3c 98 21 49 3e
       0.034162056 -0.02708164 0.014256913 0.19641721
0000e0 f1 85 c4 3c 4b 4e 4d 3e e8 3e c1 3d bb a0 2a 3e
       0.02398965 0.20049398 0.094358265 0.16662876
0000f0 3d 67 11 be cd 73 fb 3d 9c 97 01 3e ac 78 92 bd
       -0.14199539 0.122779466 0.1265549 -0.071519226
000100 43 ec c3 bd 8d af 5e 3d 54 b9 b8 3d 21 51 f7 3c
       -0.09566548 0.054366637 0.090197235 0.030190052
000110 e9 f3 84 3e 5e 0e 5c 3e fd 7b a5 3e d9 ab e5 3c
       0.2596734 0.21489856 0.32321158 0.028036045
000120 54 ef 8c 3e c6 9a 91 be 43 3d ef 3d ab 69 69 be
       0.27526343 -0.28438395 0.116816066 -0.22794215
000130 12 dc 81 3d a7 17 1d bd 0b 61 8a 3d 0e c6 1f 3d
       0.06340803 -0.038352635 0.06756791 0.03900724
000140 31 c9 93 3e 7d 47 25 3e 9e 75 65 be bf 62 a9 be
       0.28864434 0.16140552 -0.22408149 -0.3308315
000150 73 27 8c be 76 97 9b be 3b c6 9c 3c 4d 07 47 3e
       -0.27373847 -0.30388993 0.019137492 0.19436379
000160 0e 98 91 3e dc d4 b2 bd 5d 8c b3 bd 33 47 84 3e
       0.2843632 -0.08732006 -0.087670065 0.2583557
000170 4f 89 47 be 04 74 8b 3c 24 54 63 be 1e 4d c5 bd
       -0.19485973 0.017023094 -0.22200066 -0.096338496
000180 9b 1a 3a 3e 82 4d 05 be 06 38 aa be 6a 0a 6b be
       0.18174212 -0.13017848 -0.33245867 -0.22953191
000190 8a be 3b 3e 9a f6 82 3e ac 9f 8b 3e 4f 4f 86 3e
       0.18334404 0.25578767 0.27270257 0.26232383
0001a0 10 ff c6 bd f4 45 31 3c e4 ab 3b be 3e 8d 63 be
       -0.09716618 0.010819901 -0.1832729 -0.22221848
0001b0 75 ed 50 3d 95 a9 3a 3e dd 2b 90 bd 4f ed e1 bc
       0.051007707 0.18228753 -0.07039616 -0.027578978
0001c0 b3 30 3c be a8 66 95 bb 05 52 9e be 91 95 7a 3c
       -0.18377952 -0.0045593567 -0.3092195 0.0152944485
0001d0 87 d3 7a 3e f2 cc 8b be b6 36 a2 be 58 09 40 3d
       0.24494754 -0.27304798 -0.31682366 0.04688391
0001e0 98 81 a3 be 69 1c d2 3c c6 04 94 3e 83 d7 91 be
       -0.3193481 0.025648313 0.28909892 -0.28484735
0001f0 c7 08 60 be 72 d5 9f 3e ad 8f 37 3d 4b 8a 3a be
       -0.21878348 0.31217533 0.044814754 -0.18216817
000200 e7 93 1a 3d 05 04 a5 3e 3f 7c 8b 3d 43 06 77 be
       0.037738707 0.3222963 0.068108074 -0.24123482
000210 8a 63 7a be 8b ed 0c 3e 4c ee 36 3e fe 4e da 3d
       -0.24452034 0.1376249 0.1786434 0.10659598
000220 5c fb 43 be 3e 91 96 3d ca d0 a8 be a7 20 61 be
       -0.19138855 0.073519215 -0.32971793 -0.21985112
000230 86 36 0b 3e 34 cd af 3d d1 10 9c 3e c5 8a 13 3e
       0.13595018 0.08584061 0.3048158 0.14408405
000240 03 3d 46 3e 22 e4 3f be c9 16 67 bd db e3 44 3e
       0.19359212 -0.1873937 -0.056418214 0.19227545
000250 1e ef e7 bd 81 42 a3 be d8 9c 93 3d a1 7b a9 3e
       -0.11324905 -0.31886676 0.0720765 0.33102134
000260 f3 74 a7 be 18 b7 91 3e 85 47 75 be ef 7f 3d 3e
       -0.32706413 0.28460002 -0.23953064 0.18505834
000270 a8 9d 05 bd ff ab c3 bd 87 27 64 bc dc 23 0d be
       -0.032621056 -0.0955429 -0.01392544 -0.1378321
000280 f7 4f 49 be a2 82 89 3e 09 76 39 3e 8e a5 2f 3e
       -0.1965941 0.26857477 0.18111433 0.17152998
000290 12 e5 d1 3d 34 fe 6e 3e 0b 46 29 be 04 94 35 be
       0.1024877 0.23339158 -0.16530626 -0.17732245
0002a0 dd b7 85 be c3 d5 70 3e c3 52 85 3e fc 18 b3 bd
       -0.2611684 0.23519044 0.26039705 -0.08745
0002b0 90 3b 58 be 7b 43 99 3d 76 34 ee 3c 11 9c 0d be
       -0.21116471 0.07483574 0.02907775 -0.13829066
0002c0 ca 95 a3 39 dc 0a 27 be e7 f3 88 bc 47 08 93 be
       0.00031201384 -0.16312736 -0.016717864 -0.28717253
0002d0 4b e1 58 bd 5d f8 8e be 1f ed a0 be d6 83 33 3e
       -0.05294923 -0.2792386 -0.3143091 0.1753076
0002e0 76 bb 1d 3e e5 a2 29 3e 58 54 a2 be c6 b1 1a be
       0.15403542 0.16566046 -0.31704974 -0.15106878
0002f0 77 42 58 be 4c eb 89 be 27 c3 a4 3e 75 2d 8d bc
       -0.21119104 -0.2693733 0.3218014 -0.01723359
000300 e9 6a 24 3e 1e f0 85 be 2a 31 14 3e f2 c9 80 3c
       0.16056408 -0.26159757 0.1447188 0.015721295
000310 04 1d b7 bd 47 0f 90 be 69 f7 06 3e 03 a5 9d 3e
       -0.08941081 -0.28136656 0.13180317 0.30789956
000320 33 fb 8f 3c 7c a4 15 be 96 d3 9a bc 7a 59 09 be
       0.017575836 -0.14613527 -0.01889972 -0.13413039
000330 f1 72 a7 3e 0b 80 73 3e 67 cc 74 bd 64 f6 99 3e
       0.3270488 0.23779313 -0.059765246 0.30070794
000340 ad b4 6d 3d cb 1f a1 3e f0 9b 6e 3e 9f c1 a0 bd
       0.058033634 0.3146957 0.23301673 -0.0784943
000350 69 4a a1 3e d8 55 31 be 43 20 b7 bd 83 e4 23 3e
       0.31502083 -0.17317903 -0.089417 0.16005139
000360 be 0c 68 be ec bf f0 3d e2 40 2d 3e 26 95 4e bd
       -0.22661111 0.11755356 0.16919282 -0.050435208
000370 a2 37 19 3e 6c 4a e5 bd 81 8e 45 be 4f fc 8e 3d
       0.14962628 -0.111958355 -0.19292642 0.06981718
000380 a2 25 d7 bc c0 80 c3 bd e7 7a 6f 3d 6d 97 3f 3e
       -0.026263062 -0.095460415 0.05846682 0.18710108
000390 4b 11 1c 3e df fa a2 3e f1 3f 79 3e 45 4c 3d 3e
       0.15240972 0.31832024 0.24340798 0.18486126
0003a0 a3 4d 2d be 2c ec 8c 3e 27 74 a5 be 30 0e 05 3d
       -0.16924147 0.27523935 -0.3231518 0.032484233
0003b0 68 56 f5 3d b2 0e 18 3e bd f6 c4 3d 98 6b 9d 3e
       0.11979371 0.14849356 0.09617374 0.3074615
0003c0 f1 12 4f be 33 30 b6 3c 57 32 2a be b6 56 2b bd
       -0.2022207 0.02223978 -0.16620766 -0.04183074
0003d0 c8 b2 0d bd 44 b6 56 be 83 0d 84 3e 2f 79 ef bd
       -0.034594327 -0.20967966 0.2579156 -0.11693036
0003e0 7a f4 89 3e 69 81 9e 3e 76 8a b6 bd 40 b5 18 3d
       0.26944333 0.30958107 -0.08913128 0.03728223
0003f0 2d 88 9b 3e 1a 65 9a bd c4 36 61 3e 8a 9d 14 be
       0.3037733 -0.07538815 0.21993548 -0.14513221

net.0.linear.bias f4 [256]
000000 1a 49 d4 3e 2b b1 bf 3e 3f cb 51 be be 66 8e 3e
       0.41462022 0.37439856 -0.20487688 0.2781276
000010 05 8e 0c be 26 58 10 3f 6e a4 2a be 6d f8 e0 3e
       -0.13726051 0.56384504 -0.16664287 0.43939534
000020 17 f2 ad 3e ab c4 c9 3e 9f 7c bd 3d 3a db 65 3e
       0.33973762 0.39407858 0.09252285 0.2244691
000030 9a e4 cf 3e 77 ff cb be 02 bb d2 be c3 2c b5 bc
       0.40604097 -0.39843342 -0.411583 -0.02211607
000040 a7 0c 8a be c7 10 1d 3e 17 62 3b 3d 66 e2 95 3e
       -0.26962778 0.15338431 0.045747843 0.2927429
000050 fa 91 7c 3c bd a4 b6 3e 82 e4 a4 be e1 df 02 bf
       0.015415663 0.3567256 -0.32205588 -0.5112286
000060 63 41 01 3f 9b 61 c8 3e fb cf 0e bf e9 ea d4 3e
       0.504904 0.39136967 -0.55786103 0.41585472
000070 24 9d b3 be cd ce 8e 3e 79 27 03 3e ee 48 00 bf
       -0.35080826 0.2789215 0.12808026 -0.5011128
000080 ab 9d 0b 3e 79 1f 84 3d 9b 6b b6 3d bc 45 e0 be
       0.13634364 0.064513154 0.08907243 -0.43803203
000090 7f 89 ea be a9 b6 9d 3e 8d cd 81 3e 00 3d 54 3e
       -0.45808026 0.3080342 0.25352135 0.20726395
0000a0 08 32 0b 3f a7 4f 65 bd 57 cb fb be d8 f0 cc bd
       0.54373217 -0.055984166 -0.49178573 -0.10006875
0000b0 71 2b b3 be 1d 77 15 bd d4 18 b9 3e 55 79 9b be
       -0.3499408 -0.03649055 0.36151755 -0.30366006
0000c0 e3 c5 25 be a6 3d 14 3f 48 8c 0a bf 66 c7 51 be
       -0.16188769 0.5790657 -0.541203 -0.2048622
0000d0 73 59 90 be e2 c3 a2 bd 66 b4 f5 3e 3c a4 78 bd
       -0.28193244 -0.07947518 0.47989196 -0.0607035
0000e0 dd 54 b6 3d 05 8c 4a 3c 5d 15 ae 3e e0 2c 28 3e
       0.08902905 0.012362485 0.34000674 0.16423368
0000f0 0a d2 b5 3e 58 7d d5 3c 39 01 2f be 50 82 a0 3c
       0.3551181 0.026060745 -0.1709031 0.019593388
000100 c5 96 16 3e e0 b3 5d 3e 71 aa fd 3e 84 88 0d bf
       0.14705952 0.21650648 0.495441 -0.5528643
000110 4a d2 b7 be 6b b5 e2 bd da ec c1 be ed 1a 43 3e
       -0.35902625 -0.11069759 -0.37876016 0.1905324
000120 58 98 05 3f 23 c9 b1 bd e2 d6 0b 3e 6c 02 7e 3d
       0.52185583 -0.08680942 0.1365619 0.06201403
000130 7d d8 8b be 73 23 88 be ff 7f 88 bd 58 44 af 3d
       -0.27313605 -0.26589546 -0.06665038 0.085579574
000140 3d f2 a4 bc b1 2c 85 bd 58 4c 90 3e 2c 2c e2 be
       -0.02013504 -0.06502665 0.28183246 -0.44174325
000150 1a e7 93 3b 42 61 11 3e 92 d3 c0 bd df f9 c8 3e
       0.0045136334 0.14197257 -0.09415354 0.39253137
000160 02 bf ce 3e 6e 77 ea be 40 06 c2 bd 63 ff 5a 3d
       0.40380102 -0.45794243 -0.09473848 0.053466212
000170 b9 28 c6 3e dc 83 43 be 98 b3 88 3e 6f 05 9f 3c
       0.38702944 -0.19093269 0.2669952 0.01941177
000180 95 67 ba be 01 26 b6 be c1 3c 77 3e 61 b2 12 3f
       -0.36407152 -0.3557587 0.2414427 0.57303435
000190 7c 96 81 be 89 9c a0 be 0a f4 6d be 11 fd 95 3e
       -0.25310123 -0.31369427 -0.23237625 0.29294637
0001a0 e7 94 0a 3f 51 12 1f be 8f 76 c6 be c6 c7 03 bf
       0.54133457 -0.15534331 -0.38762328 -0.51476705
0001b0 2e 59 0a be e7 94 06 be bf 56 32 bd e7 39 0a bf
       -0.13510582 -0.13142739 -0.04353976 -0.539946
0001c0 db ce 0a bf 51 c0 b4 be 2a 2a 0d 3f 2b 63 b3 bc
       -0.54221886 -0.35302976 0.5514246 -0.021897873
0001d0 a1 4f ed 3d 4b 16 b5 3d 23 0e 38 3d 08 20 69 3d
       0.11587454 0.08842143 0.044935357 0.056915313
0001e0 94 71 7a be 26 dc 09 3f b1 ae 81 be 26 d0 c1 be
       -0.24457389 0.53851545 -0.2532859 -0.37854117
0001f0 df b4 56 3e 81 a0 c8 3e de 6b 11 3f 2c 8a a3 bd
       0.20967434 0.39184955 0.5680522 -0.079853386
000200 3d 42 c0 be 63 8f bd be b1 af 46 be 9f b8 76 3e
       -0.37550536 -0.37023458 -0.19402958 0.24093865
000210 44 c9 44 bc b3 e2 ba be a1 fd 7b 3e 67 24 43 be
       -0.012010876 -0.36501083 0.2460847 -0.19056855
000220 d1 74 08 bf d6 b4 b6 be 14 68 90 be d3 ab f7 3e
       -0.5330325 -0.35684842 -0.28204405 0.4837328
000230 7d 96 09 bf ce 3e c6 be 5c b2 81 bd c9 64 48 3c
       -0.5374525 -0.3871979 -0.063328475 0.01223106
000240 c0 46 ae be 26 c2 60 3c e4 08 08 bf a8 ee 8f be
       -0.34038353 0.013718164 -0.53138566 -0.28111768
000250 fa e8 b4 be 63 44 84 be 3f ca 0a bf b8 97 20 3d
       -0.35333997 -0.25833425 -0.54214853 0.03920719
000260 24 ce 43 3d 53 40 4d bc b5 78 b9 3e 16 3b 58 3e
       0.047804013 -0.012527543 0.36224905 0.2111629
000270 36 16 fd 3e 6d 79 67 be 87 e3 42 be 40 5f 82 3e
       0.49431008 -0.22604914 -0.19032107 0.25463295
000280 5f 49 d8 bc c5 24 2f bd 37 03 96 3d 01 83 d4 3e
       -0.026402174 -0.042759676 0.07324832 0.41506198
000290 4a 5e 77 be e2 09 49 3e 18 68 8c 3e df 21 00 be
       -0.24157062 0.19632676 0.27423167 -0.12512921
0002a0 29 90 0d bf 10 15 8b be 3e 2f 66 3e ee fe e4 3d
       -0.55298096 -0.27164507 0.22478959 0.111814365
0002b0 5f c6 36 3e a6 e5 26 3e 28 b4 98 3e 79 ec 76 3e
       0.1784911 0.16298541 0.29824948 0.24113645
0002c0 ce a7 f4 be 4f 8c 0f bf da bc 0f 3f 16 7d 04 3f
       -0.47784275 -0.5607347 0.5614754 0.51753366
0002d0 53 74 56 be 43 29 05 3f f9 a5 a7 bc 8f c2 98 bd
       -0.20942812 0.52016085 -0.020464884 -0.07458984
0002e0 fd 85 58 bc 83 f3 8f 3d 1c 95 95 3e 96 bc 4f be
       -0.013215539 0.07028868 0.29215324 -0.20286784
0002f0 88 f7 03 bf a5 73 62 3e 24 86 95 3e 0d cc 0b bf
       -0.5154958 0.22114427 0.29203904 -0.5460823
000300 0f 17 09 bd d2 40 75 3e a6 56 aa 3e ee b3 ab 3e
       -0.033469256 0.23950508 0.33269233 0.33535713
000310 fc 5f fd 3e 31 8a 10 3f 49 e1 04 bf f0 19 46 3e
       0.49487293 0.56460863 -0.5190626 0.19345832
000320 0f 38 b9 be 9e d4 e6 3e 15 14 83 3e 49 e8 58 be
       -0.36175582 0.4508409 0.2560126 -0.2118236
000330 18 2c e6 3d 84 bc 81 be 27 13 6f 3d 01 59 02 3f
       0.11238879 -0.25339139 0.058367874 0.5091706
000340 c6 52 61 be f6 bb c6 3e 96 b3 6c be 4c 87 cb bd
       -0.22004232 0.38815278 -0.23115382 -0.09937915
000350 1a d2 c1 3e fc 8e 05 3e ac 40 02 3f 73 03 3d be
       0.37855607 0.13042825 0.5087993 -0.18458347
000360 ec f7 c6 be 9e d4 96 be e5 1d 09 3f 32 de cf 3e
       -0.38861024 -0.2945909 0.5356124 0.4059921
000370 5f 6b f0 be bf e0 a5 3e 4a 8f 56 3e 00 55 15 3d
       -0.46956918 0.3239803 0.20953098 0.036458015
000380 7e aa d6 3e 0e 93 8d 3e c8 f7 c2 3e db a8 e5 3d
       0.4192695 0.27651256 0.38079667 0.11213847
000390 3a ec c3 be c3 77 8a be f2 62 f8 3e 30 8e aa be
       -0.38266164 -0.27044496 0.4851299 -0.33311605
0003a0 b3 c7 06 be b6 ad 10 bd c2 53 7a 3e 77 20 2b be
       -0.13162117 -0.035321914 0.24446014 -0.16711603
0003b0 74 47 3e 3e 71 1e 27 3e 4d fd ef 3d 85 fe c7 3e
       0.18581945 0.16320206 0.11718235 0.3906137
0003c0 d6 e3 89 3d ef c2 ba 3e b5 40 f9 3d 3b c9 27 3e
       0.067329094 0.36476848 0.12170545 0.16385357
0003d0 fb f2 fe be 53 6f e2 be 6f 3d a1 be 3d 77 e1 3e
       -0.49794754 -0.4422556 -0.31492183 0.44036284
0003e0 93 ea 12 bf 8e 6b 8a 3e bc 85 b5 be 0b bc 52 be
       -0.5738918 0.27035183 -0.35453594 -0.20579545
0003f0 a2 72 09 3f ba a5 48 be 53 51 89 3d af 7c 03 3e
       0.5369054 -0.1959447 0.067049645 0.12840532

net.1.linear.weight f4 [256, 256]
000000 1f b6 c1 bb 85 28 97 3a 07 07 ca bb d3 76 f0 b9
       -0.005911603 0.0011532462 -0.0061653885 -0.00045864898
000010 26 3a 0f 3b 49 1a db 3b e6 74 44 bb 6e 3c 97 3b
       0.0021854728 0.006686483 -0.0029976903 0.004615358
000020 9d 4a 4a b8 e6 31 b9 3a fb 60 83 3c 61 39 9c bb
       -4.8230042e-05 0.0014129251 0.016037455 -0.0047675823
000030 3d 98 e4 ba d5 4c ca 3a 46 e0 0f bc f7 f3 02 bb
       -0.001744039 0.0015434275 -0.008781498 -0.001998184
000040 69 73 48 bb 6c cf 83 3a f6 a4 29 bc c3 60 22 3b
       -0.0030586368 0.0010056323 -0.010354271 0.0024776913
000050 61 6e 20 3b e7 e7 56 bb a1 e8 b0 b9 ad 99 77 bb
       0.0024479853 -0.0032792033 -0.00033742658 -0.0037780807
000060 bb 1a 7e 3b 08 dd 05 3a 45 13 03 3c dd 8c 4c 3b
       0.0038773257 0.00051064836 0.0080002 0.003121189
000070 89 74 84 3c 11 f4 05 bb 4d 2a 0d 3c f5 bb 41 39
       0.01616885 -0.0020439664 0.008616042 0.00018475934
000080 2c a2 18 bc c2 48 e0 3a c5 16 3d bc 5b b9 49 bc
       -0.009316009 0.0017111527 -0.011541073 -0.012312259
000090 e1 ce 25 3c 1f 31 6b 3b f7 88 10 bb 7a 02 53 b7
       0.010120125 0.0035887433 -0.0022054294 -1.2577157e-05
0000a0 c8 24 ae bb 60 3a 07 bb b5 dc 0f 3c dd eb 62 3b
       -0.0053144433 -0.002063416 0.008780648 0.0034625449
0000b0 5c aa 1a bb f0 2e 93 b9 fb 4f dc bb d4 66 37 3c
       -0.0023600077 -0.00028072996 -0.0067234016 0.01119395
0000c0 04 e0 bf bb 2d 9d fc bb 52 47 b6 3b f4 7c f4 ba
       -0.005855562 -0.0077091665 0.0055627013 -0.0018652962
0000d0 27 ab 2a 3b dc 1f 7c ba b6 78 5c 3b 03 01 97 bb
       0.0026041956 -0.00096177845 0.0033641285 -0.004608275
0000e0 58 1a 11 bb a8 80 d9 ba c7 48 a6 bb 7b 24 8a ba
       -0.0022140946 -0.0016594129 -0.0050745937 -0.0010539436
0000f0 8d 33 3d 3c fd 73 e9 bb 30 61 fd 3b c6 51 ba 3b
       0.011547935 -0.0071244226 0.007732533 0.0056860177
000100 15 85 77 bb bf c9 b6 bb 7b af 0b 3b b7 86 c1 3a
       -0.0037768532 -0.005578249 0.0021314311 0.001476488
000110 19 2a 20 3c d9 9f 5e 3b e4 f0 f0 3a 32 d8 35 3a
       0.009775662 0.0033969788 0.0018382338 0.00069368177
000120 c7 c7 81 3b 0d 64 aa 3a 88 8b 02 3c 84 73 99 3b
       0.003960583 0.0012999788 0.007967837 0.00468296
000130 d4 d1 32 ba f3 19 8b 3a 16 33 b8 3b 95 e8 c1 39
       -0.0006821428 0.0010612592 0.0056213243 0.00036985116
000140 1a 0e 37 b8 60 e4 64 3c 3f 89 13 bb 41 f6 d4 38
       -4.3643733e-05 0.0139704645 -0.0022512225 0.00010154816
000150 63 f7 0a bb e3 d5 89 bb ea ce 29 3c e8 6b 75 bb
       -0.0021204583 -0.0042064055 0.010364274 -0.003744835
000160 3e 98 05 3b 3a fc f1 3b 52 9d f8 bb 82 04 c3 bb
       0.0020384933 0.007384804 -0.0075871134 -0.005951465
000170 ea 69 b0 3b da cd be 3b 66 fc 82 3b 98 b3 b6 bb
       0.0053837197 0.0058228793 0.0039973734 -0.0055756085
000180 e7 eb a4 bb ff a1 90 ba 5b b7 20 3a 38 97 8b ba
       -0.0050330046 -0.0011034607 0.0006130838 -0.0010649925
000190 57 28 70 bb 23 7f bd ba 89 e4 9e ba 46 cb a3 3b
       -0.0036645138 -0.0014457445 -0.0012122552 0.0049985973
0001a0 ff 33 61 3c 2e 09 df 3a 91 70 84 3a da 2b e2 3b
       0.013745307 0.0017016286 0.0010104348 0.0069022
0001b0 32 af ad ba 07 e5 93 3a 1c 14 ea 3b 6b 2b d8 bb
       -0.0013251065 0.0011283465 0.0071435105 -0.0065969727
0001c0 87 0c eb 3b 7f 24 df 39 59 0d dd ba 5f 0d 93 3b
       0.0071731242 0.00042561066 -0.001686494 0.004487678
0001d0 66 9d 85 3a 79 61 ea 3a cc d4 16 b7 aa 9c f3 3a
       0.0010194003 0.0017881832 -8.990242e-06 0.0018586118
0001e0 ae e5 57 bb d8 22 56 3b d7 e6 a3 3b 49 cb ae 3b
       -0.0032943296 0.0032674577 0.0050018835 0.005334292
0001f0 be 8f da 3a 2a ba 4d bc 73 fd 12 3c 6b d4 c6 3a
       0.0016674919 -0.012556592 0.00897156 0.0015169507
000200 01 fe d0 ba 0e 0a 7e bb b2 33 27 bb 80 b5 0d 3c
       -0.001594484 -0.0038763317 -0.002551299 0.00864923
000210 0a c5 91 ba a9 30 b9 bb 49 1f c2 39 33 5d 20 bb
       -0.0011121344 -0.0056515527 0.00037025873 -0.0024469614
000220 67 1a d4 3b 97 1d 9b bb d9 b8 06 3b 87 3b 5b 3b
       0.006472874 -0.004733752 0.0020556955 0.003345223
000230 bc 73 94 39 3e 15 c9 bb d8 f0 7f 3a 2a 26 af ba
       0.0002831499 -0.0061365655 0.00097633665 -0.0013362814
000240 5c 01 84 ba 34 74 a3 ba d1 c1 c6 ba 78 8f 88 3b
       -0.0010071206 -0.0012470544 -0.0015163963 0.0041674934
000250 1b b9 2e 3b ab 6e 90 bb a1 2f 45 3c 67 48 78 bb
       0.0026660624 -0.004407724 0.012035281 -0.0037884952
000260 e1 b8 40 bb bc 01 cc bb 51 3d 25 3b 18 37 04 3b
       -0.0029407071 -0.0062257927 0.002521355 0.002017444
000270 ff 31 01 3c 6c 55 c4 bb c1 bd 3a bb 4a 89 52 bb
       0.007885455 -0.0059916284 -0.002849445 -0.0032125288
000280 5c 6a f2 bb a4 91 cf 3b 6f 93 c7 3b 37 dd dc 39
       -0.007397933 0.0063345004 0.0060905735 0.00042126488
000290 0c f3 48 3b 7a e3 d9 3a 6c 91 88 bb 7d 86 11 bc
       0.0030662445 0.001662358 -0.0041677263 -0.008882162
0002a0 c7 b3 b3 3b 23 00 24 3b 92 dd 5e bc 92 cd d6 3b
       0.0054840776 0.0025024496 -0.013602631 0.0065552676
0002b0 7e d1 b0 ba f3 b2 a4 3b 31 6c 6c bb 7d 6b ff 3a
       -0.0013490168 0.005026215 -0.003607523 0.001948699
0002c0 81 21 88 3b 67 e0 c2 ba 7e 7c f9 bb 72 35 f0 ba
       0.0041543846 -0.0014867903 -0.0076137176 -0.0018326475
0002d0 66 f2 c9 ba 86 f7 a3 b9 e2 2c 8b bb 11 f1 17 3b
       -0.0015407323 -0.00031274202 -0.004247294 0.0023184458
0002e0 54 73 a5 3a 48 f2 d3 bb 72 5c 19 bc 28 38 d2 39
       0.0012622871 -0.006468091 -0.00936042 0.0004009616
0002f0 6f d6 fd 3a 93 43 82 3b ea 92 5a ba 36 b4 7e 3b
       0.0019366274 0.0039753406 -0.0008337932 0.0038864738
000300 87 3b 63 bb 0a 82 0e 39 50 85 2f 3c 79 f2 ba ba
       -0.0034672932 0.00013590619 0.0107129365 -0.0014262936
000310 bc 74 d6 bb 31 d8 1e 3c f3 8a c9 3a 87 40 39 bb
       -0.0065446775 0.009695099 0.0015376493 -0.002826722
000320 40 5a 75 bb a9 c7 af ba 90 94 02 b9 32 03 2d 3b
       -0.0037437826 -0.0013410944 -0.0001245311 0.002639961
000330 00 a6 d9 3b 59 13 c5 bb 14 02 1d 3c 63 df 41 3a
       0.006642103 -0.0060142693 0.009583015 0.0007395653
000340 4b 56 44 bb 24 ef e7 3b 53 7e f2 3b fe 1e ae b8
       -0.0029958661 0.0070780683 0.007400313 -8.302739e-05
000350 c9 a3 32 3c 57 cc 2d 3c ab 04 f5 3b 01 87 01 bb
       0.010903307 0.0106078 0.007477363 -0.0019764306
000360 e3 93 c3 ba ba 92 98 3a 5e 00 df ba 5f ca 14 bb
       -0.0014921393 0.0011640408 -0.0017013659 -0.002270363
000370 c6 5c a8 bb d3 82 17 bc 35 cc 29 b9 f2 bc 1a 3b
       -0.0051380126 -0.0092474995 -0.00016193169 0.0023611155
000380 00 e8 53 bb e6 72 a6 bb 0a f8 bc bb 32 f3 16 bc
       -0.0032334328 -0.005079615 -0.0057668732 -0.009213256
000390 7f 39 77 3b 32 72 2d b8 39 01 b1 bb 6b 17 27 b7
       0.003772348 -4.1352767e-05 -0.005401757 -9.959428e-06
0003a0 32 21 38 3c 7f 19 7d b9 49 39 b9 bb 8d 23 29 bb
       0.011238383 -0.00024137458 -0.005652581 -0.0025808543
0003b0 66 d3 9f 3a f7 5b 2a bc 33 10 26 bc 68 02 e1 bb
       0.0012193739 -0.010397903 -0.010135698 -0.006866742
0003c0 87 de 2e bb 50 90 23 ba 1d 70 55 b6 78 be 48 3b
       -0.002668293 -0.0006239461 -3.1804732e-06 0.0030631106
0003d0 bd ff 15 3a e5 73 fb 3b e1 2b 52 3b e2 36 6c ba
       0.0005722007 0.007673728 0.003206961 -0.0009010864
0003e0 fe 2d 02 3b 21 bb 3c bc de 50 e1 bb 02 d7 57 bb
       0.001986384 -0.011519224 -0.006876095 -0.003293455
0003f0 cc f3 49 3c 82 65 0d bc 4a 14 55 3a 52 d5 14 bc
       0.012326192 -0.008630158 0.00081283285 -0.009084063

net.1.linear.bias f4 [256]
000000 8f cc 05 bc 28 d4 50 3c 46 f2 48 bd d7 71 9a 3b
       -0.008166446 0.0127458945 -0.049059175 0.004713278
000010 a9 c4 b7 bb 06 16 f2 3c fe 98 fc bc c7 4f 59 bd
       -0.0056081605 0.029551517 -0.030834671 -0.053054597
000020 be f6 fd 3c 39 f5 39 bd a9 59 38 bd dd 1c d1 3c
       0.031001445 -0.04539988 -0.04500738 0.025526458
000030 0e 3b 5c 3d 39 60 13 bd 3d ab f7 3c 21 f9 62 3d
       0.053767256 -0.035980437 0.03023302 0.05541337
000040 d4 f7 6e 3d 31 2a 7f bc dd 22 4c 3a f3 42 a8 bc
       0.058341816 -0.015574024 0.00077871775 -0.020539736
000050 e3 93 18 3d e5 77 78 bd d8 71 33 bd cc 66 38 bd
       0.03725041 -0.060661215 -0.04380974 -0.04501991
000060 a8 14 d8 3c dc bf 82 bd 86 1d 8b 3c a8 17 5d 3b
       0.026377037 -0.063842505 0.016981851 0.0033736024
000070 1a 33 2a bd d0 19 38 3d 9c a4 4f 3c 61 73 98 bc
       -0.04155264 0.04494649 0.012673523 -0.018609704
000080 aa 4c 36 bd 8b 75 5c 3d 76 80 c9 3c d9 89 4f 3d
       -0.044506706 0.053823035 0.024597388 0.05066857
000090 5f 5c cc b9 8c a2 07 3d 3d 9c 00 3a 0e f1 eb 3c
       -0.00038978734 0.033114 0.0004906094 0.028801467
0000a0 4f ff 66 bb 70 e0 cf bc 9d 9c a3 3c 97 b6 7e 3d
       -0.003524739 -0.025375575 0.01997214 0.06218585
0000b0 43 aa 5b bd 60 89 ed 3c 82 67 b7 bc 75 6e 04 bd
       -0.05362917 0.02899617 -0.022388224 -0.032331903
0000c0 5d e8 2e 3d c7 44 11 bd d2 f1 79 3c ed df 44 3d
       0.042702068 -0.03546598 0.015255408 0.048065115
0000d0 f1 c9 4e 3d da c7 4c 3d 4e ee 62 bd 7e 2c e6 3b
       0.050485555 0.04999528 -0.055403046 0.007024347
0000e0 80 09 dd bc 6a 49 5a 3c c9 2c 4e 3d 76 a1 64 3c
       -0.026982069 0.013323167 0.05033568 0.013954511
0000f0 50 58 ba 3c 46 38 b6 bc fe 36 67 3d 03 be c4 3c
       0.022747189 -0.02224363 0.05644893 0.024016386
000100 0b db 68 bd 96 c0 40 3c 1d dc 61 3d 20 58 1e 3d
       -0.05684952 0.011764666 0.055141557 0.03865826
000110 4d cc 7b 3d 42 4a 31 bd d2 09 13 3d d5 89 12 3c
       0.061474133 -0.04328371 0.035898037 0.0089439945
000120 ee a4 8c 3c ed f5 e5 3c 2c c6 87 3c dd 8f 61 bd
       0.017168488 0.028071368 0.016573988 -0.05506884
000130 a9 9d 24 3d 6a 52 1c bd fd ba 1c bd 3d 99 37 bd
       0.04018942 -0.038164534 -0.038264263 -0.044823874
000140 82 24 1b bd f0 6f a1 bc 96 d7 a3 3c ff db 79 bc
       -0.037876613 -0.019706696 0.02000026 -0.015250205
000150 0e 3c 17 3c eb b0 24 3c 2d 95 59 3d 28 df cc bc
       0.009230627 0.010051946 0.05312078 -0.025008753
000160 4e 05 47 3d 6f 40 42 bd 9e d6 af bb 78 c6 d2 bb
       0.048589043 -0.04742473 -0.0053661605 -0.0064323507
000170 dc 67 7e 3c 44 a5 1f bd ea 74 0a bd f4 6c e5 3c
       0.015527692 -0.03897597 -0.033802904 0.028006054
000180 f2 32 20 bd 77 b6 1b 3d cc fe 5c bd bc fa 97 3c
       -0.039111085 0.03801581 -0.05395393 0.018552177
000190 24 2c d3 bc fb c0 60 bd e6 2d 89 3c e2 fd 56 bd
       -0.025777884 -0.05487154 0.016745519 -0.052488215
0001a0 1f c9 29 bd 35 02 a4 bc c2 d4 5c bd 5e c9 95 bc
       -0.04145157 -0.020020584 -0.05391384 -0.018284496
0001b0 59 87 7d bd f5 11 15 bc 8a 10 b1 bc 1e 97 56 3d
       -0.061896656 -0.00909852 -0.021614332 0.05239021
0001c0 f0 3b d0 bc c4 63 a5 bc fa 1e 1e bd 92 a0 de 3c
       -0.025419205 -0.020189174 -0.03860376 0.027176175
0001d0 23 12 d4 bc 1b 74 3b bd ac ec 40 bc 4d db 0a bd
       -0.025887555 -0.045765024 -0.011775177 -0.033900548
0001e0 7c 1a 69 bd 52 dd 80 bc 43 cd 0d bd 59 40 56 bb
       -0.056910023 -0.015730534 -0.03461958 -0.0032692163
0001f0 53 b6 9f bc 69 c1 b7 bc 87 b3 81 bd b2 5e 2c bd
       -0.019496119 -0.022431092 -0.0633307 -0.042082496
000200 de da e0 bc b3 fa a5 3c d7 9c 48 3d c6 5f 11 3d
       -0.027448114 0.020261144 0.0489777 0.035491727
000210 52 19 0a bd 70 a1 2a 3d ce cb d9 bb c3 38 5d bd
       -0.033715554 0.041657865 -0.00664661 -0.05400921
000220 f2 6b 6f 3d 44 fa 08 bd b9 4b a0 3c 28 8e 19 3d
       0.058452554 -0.033441797 0.019567357 0.037489086
000230 2f 9c 8a bc a9 b6 6e 3d c7 20 61 3d a5 47 67 bd
       -0.016920177 0.058279667 0.0549629 -0.05646481
000240 f5 7a 54 3d 43 74 d8 bb 43 d6 06 3d fb cb f6 3c
       0.051875073 -0.0066056564 0.03291918 0.030126562
000250 92 44 33 3d 0d d4 82 3d bd 74 9c 3a 20 d6 38 bd
       0.043766566 0.06388102 0.0011936646 -0.04512608
000260 99 7d 28 3c 1b a4 9a 3c b3 15 d1 bc f3 39 a2 3c
       0.010283851 0.01887708 -0.025523042 0.019803023
000270 c0 21 29 3d 7a 5c 20 bd c6 c4 bb bc 94 18 1a 3c
       0.041291952 -0.039150693 -0.022920977 0.009405274
000280 35 b7 1b bd 27 bc 26 bd ff 70 55 3d c4 3e cb bb
       -0.038016517 -0.04070678 0.052109715 -0.0062025506
000290 33 94 41 bc aa fb 2d 3b cb dd 4e bd 34 11 fc bc
       -0.011815119 0.0026547709 -0.050504487 -0.030769922
0002a0 60 2a e2 3c 26 25 a6 bc e9 57 3c bd 9a 38 f4 3c
       0.027608097 -0.020281386 -0.045982275 0.029812146
0002b0 fa cf 67 3d 57 03 99 3c 55 7d 72 3c 1c 51 73 3d
       0.056594826 0.01867835 0.014800389 0.059403524
0002c0 6f a3 62 3c b5 b1 61 3d 27 6e 77 bd c4 00 6b bd
       0.013832911 0.055101115 -0.060407784 -0.057373777
0002d0 22 ea 52 3d ce 28 bf 3c c7 d3 36 bd d1 73 54 bc
       0.051492818 0.023334887 -0.04463556 -0.012967066
0002e0 68 68 9a 3c 82 81 07 bd 35 a3 d1 bc 5b b3 24 3c
       0.018848613 -0.033082493 -0.025590518 0.010052527
0002f0 f3 b7 76 bd 71 15 41 bb 73 ef 46 bd f7 c4 ab 3c
       -0.06023402 -0.0029462243 -0.0485682 0.020967944
000300 c2 34 3d bd 30 17 df bc cf c7 63 bc b8 ac 0b bd
       -0.046192892 -0.027232736 -0.013902619 -0.034100264
000310 1a a0 17 bd de 07 40 bc aa 7f 7e bb df 79 f8 bc
       -0.03701792 -0.011720626 -0.0038833418 -0.03033155
000320 57 f1 65 bc c5 50 a1 3c ff d9 8a bb 02 b3 73 bc
       -0.014034591 0.019691834 -0.004237413 -0.014874222
000330 1a 98 78 bc 31 5d 3d 3d f1 a5 41 3d 09 05 69 3d
       -0.015172983 0.046231452 0.047277395 0.056889568
000340 7b d0 ab 3c d8 e0 38 bc 0a db 6b bd 6f 6c 2a 3d
       0.020973435 -0.011284076 -0.05758194 0.041607317
000350 36 84 a2 3b 6b ad d1 bc f0 86 83 3c 2c 17 28 bd
       0.0049596084 -0.025595387 0.016055554 -0.041037723
000360 d2 71 0c bd 60 9d 5f bc d5 0d b5 bc 36 54 9a bc
       -0.034288235 -0.013648361 -0.022101322 -0.018838983
000370 c6 86 09 bb 2e 6d bb bc 83 22 7d 3d 44 dd 39 bd
       -0.0020984872 -0.02287921 0.06180049 -0.04537703
000380 d8 04 4e 3d 49 2b 58 3d 30 ac 5c bd 11 af 4f 3d
       0.050297588 0.052775655 -0.05387515 0.050704066
000390 19 2a e3 3c 6e 9c 9d 3b 8b 29 d0 bc f9 55 db bc
       0.027730035 0.0048099076 -0.025410434 -0.026774393
0003a0 17 ba 81 3d a5 6b 58 bd 54 9c e2 bc 41 e1 a8 3b
       0.06334322 -0.052837033 -0.027662434 0.0051538055
0003b0 54 7a 69 bd fe f8 7b 3a 63 52 aa 3c 6d 24 02 bd
       -0.057001427 0.0009611993 0.020791238 -0.03177302
0003c0 d3 19 7d 3c 72 19 3e bc b1 68 6f 3d 6a 2b 51 bc
       0.0154480515 -0.011602746 0.05844945 -0.012766698
0003d0 e3 bc 28 3c 9c 9f e7 bc 86 ce 3d 3c 00 79 86 bd
       0.01029894 -0.02827435 0.011584884 -0.06566048
0003e0 77 2c 37 bd 93 e6 8a 3c 1b c3 0c bd f4 ec 00 bd
       -0.04472014 0.01695565 -0.034365755 -0.031475976
0003f0 85 32 05 bd 0a 51 2a bd 2e 86 6d 3d a7 cf 7d bd
       -0.032518882 -0.04158119 0.05798929 -0.06196561

net.2.linear.weight f4 [256, 256]
000000 fa 90 4a ba ae 70 75 bb 3b 0c 01 3b c0 36 2d 3b
       -0.00077272917 -0.0037451196 0.0019691128 0.0026430339
000010 13 4d 90 bb 67 63 45 3b 87 14 3f bb 40 2a 25 3b
       -0.004403719 0.0030119063 -0.0029156522 0.0025202185
000020 46 d7 a8 ba 30 2c f4 3a 59 33 6d 3a 91 cc 28 bb
       -0.0012881539 0.0018628892 0.0009048484 -0.0025756697
000030 ef eb 3b bb 36 7a 1a bb f0 1c aa bb 1e 63 b3 3a
       -0.0028674563 -0.0023571379 -0.005191438 0.0013686155
000040 97 29 31 bb 92 36 31 bb ef 1a 72 ba 6e 38 4f 3a
       -0.0027032846 -0.0027040583 -0.0009235581 0.0007904832
000050 92 b2 ff ba 4a a6 77 bb 90 6e 7f ba 1e 01 0b 3b
       -0.0019508174 -0.0037788325 -0.0009743953 0.0021210383
000060 97 18 94 ba 6e bf 1b 3b 8d 01 c3 3a aa 3a f9 3b
       -0.0011298832 0.0023765224 0.0014877782 0.0076058703
000070 ff d0 be 39 b2 61 6a bb 45 32 0f bc 38 ab b0 ba
       0.00036395338 -0.0035763797 -0.0087400125 -0.0013478762
000080 67 ff 9c ba 3e 00 a1 3b b1 03 0a 3b 66 d3 cb bb
       -0.0011977971 0.004913359 0.002105933 -0.006220269
000090 c3 be 8b ba 13 47 9b bb 34 4b 32 3a 00 59 b2 ba
       -0.001066171 -0.0047386973 0.0006801367 -0.0013606846
0000a0 ff c4 09 bb 58 28 e9 ba b0 a5 a5 b9 10 0b 6e bb
       -0.002102196 -0.0017788513 -0.000315947 -0.0036322512
0000b0 7a 02 9d 3b 49 2c 4a bb af ba 33 bb 34 d4 29 3b
       0.004791555 -0.003084915 -0.0027424505 0.0025913836
0000c0 f6 a1 f8 3a 1c fc 3f 39 76 61 28 bb 79 4b 89 b9
       0.0018969167 0.00018309098 -0.0025692857 -0.00026186908
0000d0 30 8c 0b 3b 4a c6 9c ba fc 7b 3c bb cc 67 fb ba
       0.0021293275 -0.001196095 -0.0028760424 -0.0019180714
0000e0 eb 8c d0 3b 7a b5 89 3b bb cf 91 bb 82 43 4a 3b
       0.006364455 0.004202542 -0.004449812 0.0030862992
0000f0 40 42 a5 bb 77 63 ad b8 59 ac 19 3b 66 95 77 3b
       -0.005043298 -8.2678096e-05 0.0023448674 0.0037778257
000100 b8 26 b7 3a a4 38 1a bb 8e b0 aa 38 f8 30 07 bc
       0.0013973331 -0.0023532296 8.1391176e-05 -0.008251421
000110 f0 8d 68 3a f3 03 f0 ba 7f 94 ae bb 3d 5a 3a bb
       0.0008871248 -0.0018311724 -0.0053277607 -0.0028435134
000120 38 52 b5 b9 bc 28 ec bb 42 d4 68 bb 2e 93 03 3b
       -0.00034584268 -0.0072070044 -0.0035526906 0.002007674
000130 d7 98 fc 3a ca b4 83 ba 0b 41 78 3b 23 69 bf 3a
       0.0019271624 -0.0010048386 0.0037880566 0.0014603477
000140 25 3a ba bb c1 c4 3c 3b ed 7c 67 bb 3c ac cc 3b
       -0.005683201 0.0028803798 -0.0035322264 0.006246118
000150 a9 4b 2c 3b d5 fd 74 3b b1 09 ae ba 02 19 d5 3b
       0.0026290214 0.003738274 -0.0013278035 0.0065032253
000160 29 d8 44 3b 70 0c e5 ba 6a 2c e7 bb f3 4b 3c ba
       0.0030036068 -0.001747502 -0.007054855 -0.0007182948
000170 48 33 76 bb 4e 80 5f 3b 1a a2 af bb 0a 87 b5 bb
       -0.0037567187 0.0034103575 -0.0053599 -0.0055397796
000180 04 44 0d bb a0 0e 58 bb 71 2a b3 ba f8 64 0d b9
       -0.0021555433 -0.0032967702 -0.0013669265 -0.00013484422
000190 dc 6a 86 3a 07 f7 1f 3b d3 8d 98 bb 85 ec a5 3b
       0.0010255235 0.0024408714 -0.0046555786 0.0050635957
0001a0 41 ba ab 3a e2 14 93 3b 44 d8 12 ba e0 47 ee ba
       0.0013101773 0.0044885734 -0.0005601684 -0.0018179379
0001b0 60 9b 38 3b 5d 63 85 b8 f2 58 49 3b 4e c5 84 bb
       0.0028168783 -6.360442e-05 0.0030723182 -0.004051841
0001c0 26 cb da 3a 31 5e 0c 3b 89 56 e0 3b 65 db 11 bb
       0.0016692623 0.0021418447 0.0068462533 -0.0022256013
0001d0 34 22 0b 3c fe 17 ea 3a c5 8e b5 3b 03 e4 91 ba
       0.008492041 0.0017859933 0.005540701 -0.0011130575
0001e0 28 36 95 ba 17 1c 9b bb ea e6 59 3b 9a 52 bf ba
       -0.0011383938 -0.004733573 0.0033249208 -0.0014596761
0001f0 e8 b8 8d ba 6e 71 ba ba ce 01 aa 3b 3a 7d 8f bb
       -0.0010812553 -0.0014224479 0.0051882034 -0.004378942
000200 15 b6 57 ba 40 f1 90 3a c1 8a 84 3b 16 8f 38 3b
       -0.00082287315 0.0011058226 0.004044861 0.0028161458
000210 9b 22 43 3b e6 09 eb 3a 80 b0 e1 3a ec 2c 56 3b
       0.0029775265 0.0017932027 0.0017218739 0.0032680584
000220 b3 ae 36 3b 2c 3b 0f 3c 49 83 9b 3b ae d3 e6 ba
       0.0027875125 0.008742135 0.004745875 -0.0017610693
000230 4f dc 56 bb 3e c3 74 39 3d 27 a1 3b 69 b9 d2 3b
       -0.0032785123 0.00023342387 0.0049180076 0.006430794
000240 70 1b 57 3b 4f 49 02 3b 7f 74 d7 39 f6 d0 da bb
       0.003282275 0.001988012 0.00041094792 -0.006677742
000250 64 e5 91 3a 27 90 2b 3b 59 32 d7 bb 0d d5 0b 3b
       0.0011130986 0.002617845 -0.006567281 0.0021336705
000260 1d 1f 0f 3b 1c c7 a0 bb 96 77 6c 3b e9 b2 f9 3a
       0.0021838613 -0.004906548 0.003608202 0.0019050512
000270 a2 b9 39 3b f3 e1 65 3a 85 6c 5a bb d0 47 11 bb
       0.0028339406 0.0008769326 -0.0033328843 -0.0022168048
000280 7f 98 47 3b 2b e3 50 bb 2c cf 32 3b 62 19 b5 ba
       0.0030455885 -0.0031873684 0.0027284129 -0.0013816769
000290 39 80 8e 3b 7b f3 2d 3b b4 7c 95 3b 9c ba aa 3b
       0.0043487814 0.002654283 0.004561985 0.005210234
0002a0 27 95 5a bb c7 72 c4 ba cf 13 ce 3a be ec c0 bb
       -0.0033353062 -0.001498782 0.0015722456 -0.005887597
0002b0 f9 bb 71 3b 36 0d da bb c3 30 6f b9 e0 6b 03 3b
       0.0036885722 -0.006654407 -0.00022810981 0.0020053312
0002c0 23 21 b7 bb a4 db 0f bb dc dc 2e bb 2f c5 13 3b
       -0.005588667 -0.0021950984 -0.0026681935 0.002254795
0002d0 ec 38 b0 37 c2 79 d0 3a 64 c7 c5 3a a1 82 4c 3b
       2.1007341e-05 0.0015905427 0.001508933 0.003120579
0002e0 12 1b b6 bb 75 f8 6d 3b ab 3c 7a b9 cd 97 71 3b
       -0.0055574263 0.0036311422 -0.00023864458 0.0036864162
0002f0 2f 48 41 3b 8e 09 ab bb 00 43 11 3b 24 d8 ae 3b
       0.0029492488 -0.005219645 0.002216518 0.0053358246
000300 e7 4a a5 3b 56 72 8d bb 5e 02 94 bb fe 91 5c bb
       0.0050443294 -0.0043166084 -0.0045168838 -0.0033656354
000310 92 f5 49 bb 87 8b cd 3b 07 7c 85 bb 6b 71 27 3a
       -0.0030816537 0.0062727365 -0.004073623 0.0006387445
000320 a5 df 59 3b 00 f6 f1 bb cc 15 33 bb ab c1 14 3b
       0.0033244875 -0.007384062 -0.0027326224 0.0022698443
000330 28 0a 8b bb e0 fe 32 bb 4b bf f8 bb 47 b5 05 3b
       -0.004243154 -0.0027312562 -0.0075911633 0.002040224
000340 0c b2 c8 bb ed 73 dd 3b 86 c5 4a 3b 3f d0 ce bb
       -0.0061247405 0.006758204 0.0030940487 -0.006311446
000350 4d 40 21 bb e1 48 76 3b 0b 9b 25 39 e1 1c 8d bb
       -0.0024604977 0.003758006 0.00015793384 -0.004306421
000360 70 ca 43 bb 50 6c 49 3b c2 af da 3a c3 85 42 3a
       -0.00298753 0.0030734725 0.001668446 0.0007420445
000370 69 0a 87 ba a5 d4 14 3b 37 8b 32 bb 35 30 3b 3b
       -0.0010302785 0.0022709754 -0.0027243623 0.002856267
000380 af 71 dc bb e1 cf a3 bb 2f d7 8a 3b c7 84 96 3a
       -0.0067274193 -0.0049991463 0.0042370777 0.0011483663
000390 9b 67 b2 3b 65 1d 80 bb 3a 1d 88 3b 83 4e ba bb
       0.0054444796 -0.003909754 0.0041538747 -0.005685629
0003a0 0b 0b ce bb 7c 8d 00 39 aa b5 53 3b 82 8a 1b 3b
       -0.0062879375 0.00012259738 0.0032304325 0.002373368
0003b0 10 62 91 bb 72 5f 05 bb 1e 9b 0c bb 73 cd 8b 3b
       -0.004436739 -0.002035108 -0.0021454762 0.004266435
0003c0 96 a5 2f bb 24 67 39 bb 5a b9 9c bb f0 9d 9e 3b
       -0.0026801578 -0.0028290236 -0.004782838 0.004840605
0003d0 50 00 08 bc 15 7c 6d b9 ad 3f 15 3b 65 fd fb ba
       -0.008300856 -0.00022648305 0.002277355 -0.0019225298
0003e0 4d 54 f5 b8 89 24 07 3b 7f 1e 2b 3b b7 69 7c 3b
       -0.000116982126 0.0020621142 0.0026110706 0.003851516
0003f0 3c 70 49 bb 46 69 66 3b e4 14 4f bb 29 d9 0b 3b
       -0.0030737063 0.0035157963 -0.0031598145 0.0021339154

net.2.linear.bias f4 [256]
000000 ae 64 97 3c 3b e7 9b bc 7a 5f 01 bd 88 3a ce 3c
       0.018480625 -0.019031158 -0.031585194 0.025174394
000010 b5 45 84 bc 3f 54 15 3d 1d e8 34 3d c7 99 05 bd
       -0.01614652 0.036457296 0.044166673 -0.032617357
000020 3e 80 c7 3c 25 ab 13 3c 20 88 ed 3c cc 2e 60 3d
       0.024353143 0.009012972 0.028995574 0.05473213
000030 b0 9b 2c bc 93 6f 42 3c 2e c9 7e 3c 5a ed e0 3b
       -0.010535166 0.011867422 0.015550895 0.006864232
000040 2b 71 21 3c d1 8f 57 3d 2c cc c5 3b 4f 33 59 3d
       0.0098536415 0.05262739 0.006036302 0.053027447
000050 d4 b6 7e bd 7b a6 3a 3b 1c 0e 16 3d f2 1b 60 bd
       -0.062186077 0.0028480578 0.03663455 -0.05471415
000060 c6 bb fa 3c c6 cf 65 bd cd 09 7d 3b d8 66 96 bc
       0.030607115 -0.05610635 0.0038610578 -0.018359587
000070 86 fc e7 3c 71 1a 10 3d 85 39 57 bd 24 dc 70 3c
       0.028318655 0.035181466 -0.05254509 0.014700923
000080 82 4b 70 bd 9c 9e 1b 3d 93 09 2b bd 63 ca 66 3d
       -0.05866576 0.03799306 -0.041757178 0.056345355
000090 ca 17 1f 3d 94 34 67 bd 60 f7 14 bd 43 0d 32 3d
       0.038841046 -0.056446627 -0.036368728 0.04346968
0000a0 1b a6 c0 3c 87 2c 95 bc 8e 71 d0 3c aa f9 19 3b
       0.023516705 -0.018209709 0.025444772 0.0023494759
0000b0 5c f1 58 3c 49 bc df 3c 94 e9 d5 bb b8 03 45 bd
       0.013241138 0.027311461 -0.006528089 -0.04809925
0000c0 d2 e3 1a 3d 60 e7 7a bd 13 65 1f bd ea f6 23 bd
       0.037814923 -0.061255813 -0.03891475 -0.040030397
0000d0 0f cc 54 bd f9 cd 00 bd 26 55 36 3d 5d 69 07 3d
       -0.051952418 -0.03144643 0.044514798 0.033059467
0000e0 a5 a6 28 3c e4 4f 20 3d 76 2d 45 3d 3e 30 17 3d
       0.010293637 0.03913869 0.048139058 0.03691124
0000f0 d9 e2 53 bd c2 59 8f 3c 8b f6 43 3d 78 5f 50 3d
       -0.05173001 0.017498855 0.047842544 0.050872296
000100 83 38 ef bb 27 b6 0a bd 33 8d de 3c da 1b f8 bc
       -0.007300438 -0.03386512 0.027166938 -0.030286718
000110 02 76 ad 3c 86 08 22 bd 06 23 69 bd 6f 73 1f 3d
       0.021174435 -0.03955891 -0.056918167 0.038928445
000120 87 e8 e1 bc 79 4f f7 bc a7 ec 69 bd 8f 89 0c 3d
       -0.027576698 -0.030189263 -0.057110455 0.034310874
000130 f1 29 bf bc 4e 0a be 3c 74 3c 21 3b cd 12 ac bc
       -0.023335429 0.023198273 0.0024602683 -0.021005059
000140 bd 2c d2 bc 2f 02 5b bd d1 2e 4a 3d 92 15 88 bb
       -0.025656098 -0.05346888 0.049361054 -0.004152962
000150 63 41 85 bb ef 02 44 3d f0 51 c2 bc 4d e3 63 bd
       -0.0040666326 0.04785436 -0.023720711 -0.055636693
000160 21 d4 33 3d 31 13 68 3d 43 98 3a bd 1e ec be 3c
       0.043903474 0.056658927 -0.045555364 0.023305949
000170 41 20 13 bc 7c 0a 57 3d cd 5a 89 bc f1 8a 17 bd
       -0.008979858 0.052500233 -0.01676693 -0.03699774
000180 4d c3 51 bc 94 b3 21 3d 9b d3 d3 bb 6b 84 13 3d
       -0.012802911 0.0394779 -0.0064644343 0.036014955
000190 28 de 54 bd 8d 73 56 3d b4 b3 c6 bb d7 83 ee bc
       -0.051969677 0.05235629 -0.0060639028 -0.0291156
0001a0 ae a9 68 3d 60 b1 51 bd 85 9b 50 3d 83 67 67 3d
       0.056802444 -0.05119455 0.050929565 0.0564952
0001b0 b2 45 52 3d eb 58 94 3c b9 8e 2f 3d 7d 79 0c 3d
       0.051335998 0.018108806 0.04286072 0.034295548
0001c0 f8 41 98 3b 45 81 ae 3b cb 8a 01 3d 75 2f 1b bd
       0.004646536 0.0053254687 0.031626504 -0.037887055
0001d0 f8 c0 15 bb fc 74 4a 3d f0 af c2 3c b8 76 65 bd
       -0.0022850614 0.04942797 0.023765534 -0.056021422
0001e0 34 5b 02 bd 14 5a 6d 3d 5f 50 c9 bc 30 01 cf 3c
       -0.03182526 0.057947233 -0.024574457 0.025269121
0001f0 61 ab 76 3d 40 b1 c7 3c 62 c1 25 3b ae c4 ca 3c
       0.060222033 0.024376512 0.0025292267 0.024751987
000200 97 db e3 ba 46 6e 11 bd e3 87 69 3d 53 86 c3 bc
       -0.0017384168 -0.035505556 0.057014357 -0.023867762
000210 99 cb 58 3d d7 50 87 3d b8 a0 17 bb 54 1a 5b bd
       0.05292854 0.06607216 -0.0023136567 -0.053491905
000220 d3 ba 5f 3d ed 7e de 3c 12 76 06 bd 03 92 72 3c
       0.05462153 0.027160132 -0.032827444 0.01480532
000230 5f 63 10 bc 92 87 95 bb df 90 99 3c cd 22 f9 3c
       -0.008812754 -0.0045632804 0.018745838 0.030412102
000240 17 0c 93 3c bb bf ca 3c 98 33 d1 bc 71 ec 34 3d
       0.0179501 0.024749627 -0.025537297 0.0441708
000250 ec 09 25 bc 7d e0 30 3d 7e d0 54 3d 3c ee 47 bd
       -0.010073166 0.04318284 0.051956646 -0.048811182
000260 e4 e7 39 3d bd bc 38 bd 1a 2a 31 bd 9e d0 88 bc
       0.045387164 -0.04510187 -0.04325304 -0.016701039
000270 f5 fe 69 bd 93 10 00 3d 3f 98 c0 3c d2 72 40 3d
       -0.05712791 0.031265806 0.023510097 0.0469845
000280 52 6a 7b 3c a8 ef 4c 3d 77 b2 38 bd ea 95 35 3d
       0.015345173 0.05003324 -0.045092072 0.044332422
000290 0e 53 9d bc 6e ad 53 3d 98 ff 01 bd e8 58 4f bd
       -0.019204643 0.051679067 -0.031737894 -0.050621897
0002a0 69 0d da bc b2 52 70 bc e7 68 4d bc 85 ab 07 3d
       -0.026617723 -0.014668154 -0.012537218 0.03312256
0002b0 b0 b1 5a 3d b9 f0 5d bd 92 76 c5 3c f0 2c fb bc
       0.053392112 -0.05418465 0.02410439 -0.030661076
0002c0 ad 16 2a bd cb 49 53 3d b3 3c 12 bc d5 47 cd 3c
       -0.04152553 0.051584046 -0.008925605 0.025058666
0002d0 af f8 51 bc ec ca f2 bc 86 1e 83 3c 0c 78 0e bd
       -0.012815638 -0.029637776 0.016005766 -0.034782454
0002e0 52 c1 79 bd b3 5b 71 3d 4f 99 43 bd c2 3f 2b bb
       -0.06097538 0.05892534 -0.04775363 -0.0026130532
0002f0 da 86 5e 3d bf 89 4d 3d 29 eb 58 bd 18 d8 16 bd
       0.054327823 0.050180193 -0.05295864 -0.036827177
000300 65 29 1c bd c2 be 2e 3d 7b 3d 28 bd 6a 75 3e 3c
       -0.038125414 0.04266239 -0.041074257 0.011624673
000310 c2 3b a7 3c 4d aa ea bc 0e 70 68 bd 48 78 f5 bc
       0.020414237 -0.028645659 -0.05674749 -0.029964581
000320 6e 24 1c bd 49 f7 78 3d 68 af 3e bd 14 ad ac bc
       -0.03812068 0.060782705 -0.046554 -0.021078624
000330 12 e4 3c 3d 4a cd a1 bc a9 b5 50 bd b5 be 42 3d
       0.046115942 -0.01975121 -0.050954495 0.047545154
000340 c6 29 29 3d 8a 08 55 bd 63 73 fa 3a 28 62 e0 bc
       0.041299604 -0.052010097 0.0019107874 -0.027390555
000350 ad ab ed 3c 47 58 ae 3c 35 5e be bc d0 9d 1a bb
       0.029012525 0.021282328 -0.02323828 -0.0023592599
000360 0b 0e 30 3c 36 55 73 3d 71 15 73 3c 8d bf 92 bc
       0.010745536 0.059407435 0.014836655 -0.017913604
000370 1f e5 1d 3d b3 d0 ff 3b 1f 4d a8 3c 65 ed e5 bc
       0.038548585 0.0078068613 0.020544587 -0.0280673
000380 a2 11 66 bc 7f 0c 3c 3d 77 3d 59 3b 85 67 81 3c
       -0.01404229 0.045910355 0.0033148208 0.015796432
000390 72 59 89 3a 9f 1e 27 bc 0d 5c 25 3d ec 83 1d bd
       0.0010478927 -0.010200172 0.04037099 -0.03845589
0003a0 d5 90 7d bd 8d 50 39 3d 3f c3 86 3b e4 54 ea bc
       -0.0619057 0.045242835 0.0041126306 -0.028604932
0003b0 f7 ad 48 3c 1b ae b8 3c 83 45 60 bd c3 c5 92 ba
       0.012248508 0.022543957 -0.05475379 -0.0011197854
0003c0 f6 30 3b 3d 6d 17 70 3c 0b b6 16 bd 40 c3 ef 3c
       0.04570099 0.014654023 -0.036794703 0.029267907
0003d0 8e ce c0 3a 64 4a 93 3c 85 fa 6e bd ee b7 7a 3c
       0.0014709996 0.017979808 -0.058344383 0.015302641
0003e0 06 41 b9 bc eb dd 0d 3d 85 b6 05 bc 32 ba cc 3c
       -0.022614013 0.034635466 -0.008161192 0.024991129
0003f0 26 ee 72 bc 36 9c 19 3c c2 7c e5 bc b3 7f cd 3c
       -0.014827287 0.0093756225 -0.02801359 0.025085306
