log1/rrrbest_model_64999.pt (torch, 802249 bytes, 9 tensors)

net.0.linear.weight f4 [256, 7]
00000000: 7a77 2ebd cd91 0d3e aadc 1b3e fbdf bd3d
00000010: 3691 3cbd ea47 b1bc 032a 73bd 4a1f 343b
00000020: 6984 da3c 77c1 1db9 757f 3dbc cbc4 903d
00000030: 246e 0fbc bd8c cebd f34e d53d 20b1 a13c
00000040: 850d 913d 6345 8ebc 733d 06bd 4ad4 6abd
00000050: cf94 4abd ec73 89bc b962 753d d1a1 1bbc
00000060: 4c91 0c3d 397f 01be 1fb6 c43c bb08 913d
00000070: 4a83 c3bd 21da 8a3d 0111 1b3e ce5b 07bc
00000080: 5f5f 5e3c 444a b73c 9a6d 32bd e0a1 2c3d
00000090: 9cda 7b3d 974d df3d 920e 003e 6353 443d
000000a0: 89c2 7fbd 0258 dbbd c9c8 01be 9dc2 023e
000000b0: 2dec 3bbc cc5e b43c 9487 863c 0b2d 8d3d
000000c0: 605c 3dbd a500 183d 3f25 003d f8ca 4ebd
000000d0: 82ce b7bd 02ff 7fbd 481e bf3d 46ad 05be
000000e0: 6a43 a2bd edbb 603c 23bc aa3b 4527 0a3e
000000f0: 979f 29bd f126 bdbc e05e 453b c255 89bb
00000100: af64 b8bd 7f2a 85bd 83d9 dbbd 4dd0 b93d
00000110: ae41 3d3d 9f47 5abd e13f ad3d 6e00 af3d
00000120: 79e2 2dbe ea20 3c3d de25 193d 9cc6 143e
00000130: 086c 813c 9b36 773b 66ac 92bb 5ec4 a8bc
00000140: 0908 fa3b e607 cd3c f08f 753d fbf1 e9bd
00000150: eba4 ad3d 7413 a43d dc9a 24bb 1128 563d
00000160: acac b9bd a2de 33bd 1db7 70bd 7b99 b43d
00000170: b9ba f2bc fc80 073e efba 8cbd 54c8 19bd
00000180: 8428 913d 8dde 0a3d 1687 f23d 8348 413e
00000190: d09f 073e a447 8a3b 6dda 843d 41f5 3b3d
000001a0: c77e b2bc bec5 bf3d 3500 95bd 9156 293d
000001b0: af95 37bc 3b8d 043c a33e ccbd 11f6 f1b9
000001c0: d54b 123d 11c5 093e a47c 15be 31a2 abbd
000001d0: a4f9 a73d eb80 f4bd e4d2 03be 81c0 eabd
000001e0: 11dc 0b3e 4f61 adbc a2b9 0d3e 8a27 c83d
000001f0: be27 9f3d ad16 eabd 660e 263b 2edf 0c3e
00000200: b523 92bc 9574 8fbd 6279 ab3d ff35 0fbc
00000210: c61b 003e 2851 e43d 1666 1b3e 2a29 e6bd
00000220: 3032 8c3d 4ce3 c0bd 2d5d ddbc 0c47 3bbd
00000230: ef47 193d 16eb 52be 2010 be3d 58d3 a63a
00000240: 7f12 1fbd 6b3e c63d 82bd efbd 87ec 08be
00000250: a327 3e3d 3701 873b 0f6c 71bd c289 da3d
00000260: d316 6e3d 373d 553d 0ee1 30bd 4d2a 06bd
00000270: 439e 61bc fd52 de3d 25db 9d3d 146e 273d
00000280: e1cd a93d 2c90 eb3d dbd9 b83d 3dd9 f6bd
00000290: 3887 3cbd f9c4 0ebe c5f0 3bbd bcf4 e03c
000002a0: 933e 823d 3f56 24bc 0833 413d 41d0 fcbd
000002b0: 9726 0b3d 101d b1bd d756 c5bd bb03 c5bc
000002c0: ebb5 94bc b6a7 733d 9c10 fc3c 09d9 b33c
000002d0: 0fd6 99bd a4f2 003e 5866 823d 24ba 24bd
000002e0: 4818 94bc bf91 f4bd 22ae c33d dd32 453d
000002f0: 5ebb 90bd b8ab 973c 389b 52bd b26a f4bc
00000300: 99b8 46bd 75e1 d43d 1e00 913d 8dd3 f33c
00000310: 006e 1e3e fb3b e5bc c3ac 01be b4e5 29bc
00000320: da14 2bbd 5f7c 2e3d defc 04bd b056 d1bb
00000330: 062f efbb 54a0 e93b 476b 31bc f7d8 1e3b
00000340: 08d7 d23c 15c7 babd b818 47bd d4cc 4dbd
00000350: 4b21 6cbd 16e0 bb3d 5820 c63d 6998 ee3d
00000360: 955a edbd eb95 16bd 75a9 a23b 532a 8abd
00000370: d105 813d 14aa 55bd 8476 023e afbd 1cbd
00000380: d13a ea3d d715 48bd f2e6 6d3a 90b0 17be
00000390: 5182 4fbd 7688 8fbd 8f35 513d 785f 3e3d
000003a0: 40cb adbc 17a7 b2bd 8720 d5bd 30a7 a13d
000003b0: 2a8a 253d 3b14 78bd 971a d6bd a87c 1dbe
000003c0: cbef 283e 963a e0bc 081f da3c 3fd3 ef3b
000003d0: 5a46 6fbd a502 0d3d 381e 49bd 0005 f5bb
000003e0: 7041 8a3b a065 093e 9169 223d 73c5 5abd
000003f0: 768b c93d 7300 ad3d 99c4 eabd 2f74 f7bc
-0.04259441 0.1382515 0.15220895 0.092712365 -0.04603692 -0.021640737 -0.059366237 0.002748447
0.026674466 -0.00015044758 -0.011566033 0.07068785 -0.008754287 -0.100854374 0.10415449 0.01973778
0.07082657 -0.01736707 -0.032773446 -0.05733136 -0.04945832 -0.016778909 0.059908602 -0.009499029
0.034318253 -0.12646188 0.024012623 0.07081743 -0.09546526 0.06779886 0.15143205 -0.008261634
0.013572543 0.02237428 -0.043561555 0.042146564 0.06148778 0.10903471 0.12505558 0.047931086
-0.062441383 -0.107101455 -0.1267425 0.12769552 -0.011469883 0.022017859 0.01642207 0.06893357
-0.046230674 0.03710999 0.03128552 -0.050486535 -0.08974935 -0.062499054 0.093319476 -0.1305438
-0.079230145 0.01371668 0.005210416 0.13491543 -0.041411962 -0.023089858 0.0030116364 -0.0041911313
-0.09003579 -0.06502246 -0.107348464 0.09072933 0.046205215 -0.05329096 0.084594496 0.08545004
-0.16980924 0.045929827 0.03738963 0.14528888 0.015798584 0.0037721756 -0.004476118 -0.020601448
0.0076303524 0.02502818 0.059951723 -0.11423107 0.08478721 0.08011523 -0.0025116717 0.052284304
-0.09066138 -0.04391349 -0.05876838 0.088183366 -0.029630052 0.13232797 -0.06871592 -0.037544563
0.07087806 0.033903647 0.11842172 0.18875317 0.13244557 0.004219966 0.06486974 0.04588819
-0.021788968 0.09363888 -0.0727543 0.04134232 -0.011205121 0.008090313 -0.099728845 -0.00046150436
0.03571685 0.13454081 -0.14598328 -0.08380545 0.08201912 -0.11938652 -0.12873417 -0.114624985
0.13658167 -0.021164564 0.13840345 0.097731665 0.07771252 -0.11430106 0.0025338172 0.13757011
-0.017839292 -0.07004658 0.08372761 -0.008740901 0.12510595 0.11148292 0.15175661 -0.1123832
0.0684551 -0.094183534 -0.027021969 -0.045722052 0.037422117 -0.2059749 0.09280419 0.001272778
-0.038836 0.09679874 -0.117060676 -0.13371478 0.04642452 0.004120018 -0.058940943 0.106708065
0.058127236 0.052060332 -0.04318338 -0.032755185 -0.013770643 0.108556725 0.07707814 0.040876463
0.082912214 0.11502108 0.09025928 -0.12053154 -0.046027392 -0.13942327 -0.045883913 0.027460448
0.06359591 -0.010030328 0.047167808 -0.12344409 0.03397235 -0.08648121 -0.09635704 -0.02404963
-0.018153151 0.059486113 0.030769639 0.021954076 -0.075115316 0.1259256 0.06367177 -0.04021658
-0.018077984 -0.11941861 0.095546976 0.04814421 -0.070669875 0.018514499 -0.05141756 -0.029836033
-0.04851589 0.10394565 0.070801005 0.029763961 0.15471649 -0.027982702 -0.1266356 -0.010369707
-0.041767932 0.04259908 -0.032467715 -0.006388508 -0.007299307 0.0071297083 -0.0108288 0.0024238208
0.0257373 -0.09120003 -0.048607558 -0.050244167 -0.05764894 0.091736004 0.09674138 0.11650164
-0.11589543 -0.036764067 0.0049640485 -0.06746354 0.062999375 -0.052164152 0.12740523 -0.038266834
0.114369996 -0.048848953 0.0009075246 -0.14813447 -0.05066139 -0.0700845 0.051076468 0.046477765
-0.021215081 -0.08723276 -0.10406595 0.078932166 0.040414967 -0.06056617 -0.1045429 -0.15379584
0.16497724 -0.027371686 0.026626125 0.0073188837 -0.0584167 0.03442635 -0.049101084 -0.0074774027
0.0042192265 0.13417673 0.039651457 -0.05341096 0.09841053 0.08447351 -0.11463279 -0.030206768

net.0.linear.bias f4 [256]
00000000: 1523 afbe 351e 2c3e b82e a33e d0e9 b13e
00000010: 3ae6 b3bc ef73 983e 60a1 6f3e ba45 8d3d
00000020: a71a 923e bc37 1d3e a905 af3d f032 0b3e
00000030: 07fc 29be f650 b0be 1b20 4a3e 7af3 07bd
00000040: c444 c0be 846c 963c 2862 783d d823 43be
00000050: 5edf 0fbe 7d12 753e f0cb 75be 4044 c9bd
00000060: 591c 00be 570c b5be 4212 373e 869e b0be
00000070: 31c8 1b3e 2bfb c63e 25a4 bebe 5015 aabe
00000080: e1e6 5bbe d378 81be aa18 b53c f5c1 ec3d
00000090: cf8d cf3d 0e4b 9a3e 8cd0 3d3e 0f77 843d
000000a0: f28e 2cbc f142 9f3e dbb3 61be b312 9bbe
000000b0: 149f b43e 4b82 24be 82c8 51bd 0448 1cbe
000000c0: ce41 ce3d 6cd9 aabe 5fcb 713e d998 bebe
000000d0: 3523 8fbe 4d03 563e a81a 10be 8ca6 6ebd
000000e0: 1f56 28ba ce37 c9bd b9cb 07be e5c4 3a3e
000000f0: 1c36 5bbd fbe0 843e 5d4e 2c3e 564e 5e3e
00000100: 9351 a4be 696e c63e 5110 983e b716 c6be
00000110: 0146 c13e bc6a 9c3d 6b47 bdbb 96dc a0be
00000120: 1b42 95be 2f77 a73e 7650 ea3d 939a 093e
00000130: 2a37 a7bd 767e b1be 98e5 3c3e 5c93 993e
00000140: f378 87be acf9 923e 9126 50bd bf37 92be
00000150: c94c 1ebe 30ea a23e 3525 8dbd d4f9 81be
00000160: 4b8f a4bd d077 a3be fe3e 8fbe b8a5 debc
00000170: e225 60be 2932 b53d 0be8 1f3e 3fe6 d0bd
00000180: 3329 66bd 7ef7 00be 31e9 903e c2a4 963e
00000190: eedf 8a3e 6f5f dd3d c5c3 26bd ae17 8a3d
000001a0: acaa 80be 2a56 893e b0ca e2bd 3884 843e
000001b0: 1049 0c3e 33a5 c1be 7650 893e d4a5 0abe
000001c0: 2149 873e 1225 c9bd f02e fd3c 521b 313d
000001d0: 8f6a 0fbd 1333 133e a2f2 1cbe c5c1 1d3d
000001e0: 6b21 17be 89ed ce3d 083d 2bbe bada 533e
000001f0: f2a6 ef3d 3a82 25be 3645 9d3c 0490 b5bd
00000200: 8d79 02be 245f 9e3e 639e 1dbd a106 9c3e
00000210: c331 5e3e 1f47 b13e 78fd 3f3e 21dc 5dbd
00000220: f2c3 e53d 8724 fa3d e3c9 383e 57ac c9bd
00000230: b484 7b3e 5491 a63d 64d2 b83e 9ab9 a4be
00000240: 04b9 8c3e b101 233e d019 863e c120 b1be
00000250: 77b8 e93d 85c8 5bbe b862 b1bd a7eb a6be
00000260: de74 05bd 59b8 54be 5de9 43be 09c4 1b3e
00000270: 9bcc e33c 0f38 96be 9f44 0bbc 02d6 82be
00000280: 0640 37bd d5e8 043d 3baf b83c 7877 adbe
00000290: ca4f 23be 5db9 763e 157f a13d 0ebc 593d
000002a0: c0b9 4b3e c003 21be b9c3 96be 82b8 8b3e
000002b0: 4e83 b13e 1b89 323e ed59 89be 7886 5dbe
000002c0: dad8 acbe ff83 be3e e323 21bc 0e67 c9bd
000002d0: fe1c 87be 0e32 5b3e 9d8f 3b3e cd4c 16be
000002e0: e903 24bd 963a 9e3e 07a5 ae3e 1dd3 a6be
000002f0: 91e4 7f3e ff7a 6f3e a361 81bd f2e5 bdbe
00000300: 20fc 403e ff1e 353e e808 4ebe 14d8 cd3d
00000310: 7bfb 36be 5816 033e 978f bc3e ad9e dbbd
00000320: 6a28 53be 79c8 7cbe 812a 843e 0f8b 8e3e
00000330: 1e2c 61be 52c9 79be 1d45 163d c452 913d
00000340: 3fa0 be3e 3647 783e 925b ae3e a17a 82be
00000350: 1223 8c3e 2851 9c3e 4edf 743e 6946 92be
00000360: 54a4 9b3e fafb 05be a8e3 743d 4c0a f8bd
00000370: 7fe1 a03e c309 953e abf2 133e 33e1 8fbe
00000380: 8341 2cbe 42bc 57be af4e 10be 1c1b c2bd
00000390: d5d2 483c 191c cebd f049 edbd 825d 72bd
000003a0: acab 903e 3240 653d a921 553e a42e ec3b
000003b0: fae8 bfbd c28e 773e d219 93be 25a3 37be
000003c0: c368 693e 05e3 b5be 15df 09be 4435 5f3e
000003d0: e32d 92bb 9056 26bc eaf0 afbd 7f46 65be
000003e0: 7938 543e 0ef1 2cbe 297c 023c 8902 94be
000003f0: efb3 643e ce65 493e 8578 a3be 36bc 883e
-0.34206453 0.16808398 0.3187158 0.34748697 -0.021960367 0.2977595 0.23401403 0.06898065
0.2853596 0.15353292 0.085460015 0.1359365 -0.16600047 -0.34436768 0.1973881 -0.03319118
-0.37552464 0.018362291 0.060640484 -0.19056642 -0.14050052 0.23932834 -0.24003577 -0.09827471
-0.12510814 -0.35360977 0.17878059 -0.34495944 0.15213086 0.388635 -0.37234607 -0.33219385
-0.21474792 -0.25287494 0.022106487 0.11560432 0.1013447 0.30135387 0.18536586 0.06468021
-0.010532128 0.3110576 -0.22041266 -0.30287704 0.35277617 -0.16065328 -0.05121661 -0.15261847
0.10071145 -0.33369005 0.23612736 -0.37225989 -0.27956548 0.20899697 -0.14072669 -0.0582643
-0.00064215244 -0.09825097 -0.13261308 0.18239172 -0.0535184 0.25952896 0.16826768 0.2170957
-0.32093486 0.3875611 0.29699948 -0.38689205 0.3774872 0.076375455 -0.005776336 -0.31418294
-0.29151997 0.32708117 0.11441128 0.13437872 -0.081648186 -0.34666795 0.18446958 0.2999524
-0.26459464 0.2870611 -0.05081803 -0.28558156 -0.15458979 0.31819296 -0.06891862 -0.25385916
-0.080351435 -0.31927347 -0.27977747 -0.02717863 -0.21889451 0.08847458 0.15615861 -0.10200166
-0.056191634 -0.12594411 0.2830291 0.29422575 0.2712397 0.10809218 -0.040714044 0.06742798
-0.25130212 0.2682355 -0.11073816 0.25882125 0.13699746 -0.3782135 0.268192 -0.13539821
0.2642298 -0.09821524 0.03090617 0.043238945 -0.03501373 0.14374952 -0.15326932 0.03851487
-0.14758842 0.101039 -0.167225 0.20688906 0.11701764 -0.16162959 0.019198041 -0.088653594
-0.1274168 0.30931962 -0.038481127 0.30473807 0.2169867 0.34624574 0.18749034 -0.05416501
0.11219014 0.12213998 0.18045764 -0.09847324 0.24562341 0.08133188 0.36098015 -0.32172853
0.27484906 0.15918614 0.26191568 -0.34595302 0.11412137 -0.21463211 -0.08661407 -0.32601663
-0.032582156 -0.20773448 -0.1913199 0.152115 0.027807524 -0.29339644 -0.008500247 -0.255539
-0.044738792 0.03244861 0.022544494 -0.3388021 -0.15948406 0.24094148 0.07885567 0.05315786
0.19895077 -0.15724087 -0.294462 0.27289206 0.3467049 0.17435114 -0.2682642 -0.21633327
-0.33759195 0.3721008 -0.009835216 -0.09834109 -0.26389307 0.21405813 0.18316503 -0.14677735
-0.04004279 0.30904073 0.3411028 -0.32582942 0.24989535 0.23386763 -0.06317451 -0.37089497
0.18846178 0.17687605 -0.20120585 0.10050979 -0.1786937 0.12801492 0.368283 -0.107236244
-0.20620885 -0.24685849 0.25813678 0.27840468 -0.21989486 -0.24393204 0.036687005 0.070958644
0.37231633 0.24245915 0.34054238 -0.25484183 0.27370507 0.30530667 0.23913309 -0.28569344
0.3039881 -0.13084403 0.059787422 -0.12111339 0.3142204 0.2910901 0.14448039 -0.281015
-0.16821866 -0.21067908 -0.14092515 -0.09477827 0.0122572975 -0.10063953 -0.11586368 -0.059171207
0.28255975 0.055969425 0.20813622 0.0072077084 -0.09370609 0.24175552 -0.28730637 -0.17933328
0.2279387 -0.35524765 -0.13464005 0.21797663 -0.0044610365 -0.010152474 -0.085908726 -0.22390173
0.20724668 -0.1688883 0.007964172 -0.28908184 0.22334264 0.19667742 -0.31927887 0.26706094

net.1.linear.weight f4 [256, 256]
00000000: aa76 bfbb bb07 e93b 3293 c2bc e0e9 a33c
00000010: b175 d33c e4fb 52bc 864b b6b9 ae9d 06bd
00000020: b9bd 773c f373 0e3d 4dfe a93c a4b1 253c
00000030: fc79 bc3b 8b26 183c 0e08 ecbb b6b8 fe3b
00000040: 9858 93bb 996e 283c 85ae 593c 9699 533c
00000050: c1b8 aabc cac8 373b f13e c5bb 3bd3 793b
00000060: cde3 bc3b 7aa1 ccbc 077f 5dbc d2f1 adbc
00000070: eb13 a43c 6d27 05ba fa36 2a3a 04d0 443c
00000080: 10c4 1d3b 6546 a2bb 2a32 ea3c 5afe 74ba
00000090: 13be 7fbc d599 9cbc 3acc 32bc da00 693c
000000a0: 293a dabb c31f e5bc 92ee 923a 70b8 9bbb
000000b0: f739 58bc 14fe 873a a3f2 92bb 5e87 b6bb
000000c0: 7149 013c b4e4 443c ecb9 8538 3ef5 d0bb
000000d0: 67b7 57bb 853e 023d 76a5 b23b ec9f 21bd
000000e0: d7ba 683c d0f5 1e3c 60a8 0e3c b183 fc3b
000000f0: cf57 acbb 3751 1b3c d8a4 f3bb 8dad 9abc
00000100: 4f1c f9bb 1162 0e3b d40c 90bc 853f 0d3c
00000110: 5152 033d 7fe0 563b 76d5 cbbc 811c c33c
00000120: 1a10 6cbc 9523 e13c 3e99 503c 58db de3c
00000130: 7048 b6bc 1097 f33c 6f5b 7cbc 1b92 883b
00000140: c3fa 503c 76db 98bc 2bdf 603c 96eb d83a
00000150: a723 abbb 9e62 fc3c 79b3 1aba a7ff 0cbc
00000160: 0b1c d73b 175c c9ba 5185 983c 8c16 223d
00000170: cf4c 873b a485 febc a71d 39bc b86d c8bc
00000180: e871 72bb 59fc 903b 540f a83c d8aa 1ebc
00000190: 8c94 d7bc 1e2e cabc 76ce ae3c 5841 06bc
000001a0: a75a 413d d43d f13c 3fca 873c 291c d43c
000001b0: 7627 143c d4e3 09bd fae7 be3a d86b d1bc
000001c0: 48a6 2abc e1e9 abbc 59b1 193c 849f 21bc
000001d0: 8d1d a6bb 0135 76bc 1ef2 c5b9 8bc6 0ab8
000001e0: 6aa7 12bc 8a01 0b3c 206c e2bb 2753 a0b9
000001f0: adb4 0b3c d091 e8bc fa67 703c 76ce dabc
00000200: 07ec f23b b72b 203c aa6e c6bb 5082 5cbc
00000210: 4e42 a83c dfeb 83bc 49a9 88bc 7253 993c
00000220: 27e1 e3bc 8b48 24bd dc7a 95bb f51f 25bc
00000230: ebf6 09bc 1bc6 13bc afc6 2e3d fbab d9bc
00000240: 107d f8bb 0b8e 62bc 767f 6ebb ed36 813c
00000250: 106c 9e3c a3e1 543a 357c 023c 9e0f 3bba
00000260: 1b13 ebbc 84c4 d7bb c8c9 9abc ca2f 91bc
00000270: 02b8 0e3c 878c fc3a 98a0 3fbc 8525 9d3c
00000280: 542c 0b3b 126f 19bc f1f0 a3bb f7ab 043d
00000290: 1a40 87bc 4d92 bf3c 273b ea3c 8c0b ec3c
000002a0: 3f87 cc3b f50e e93a b6b0 793c 695f 873b
000002b0: b430 6bbc 803c a03c 29ae d63c 415b f23c
000002c0: 45d0 27bb 6b27 f1bc 9f33 f53b 7dee 11bd
000002d0: 255c f6bc 2ccc dbbc ecb8 733a 3231 e83c
000002e0: 460c 4c3b fd28 953c e88e 8fbc 9f04 c7bc
000002f0: e2a4 9a3c 41e8 16bc b14c 9ebb 684a a93c
00000300: 3bf8 8fbc 703e c6bb af3f d53b 3a67 de3c
00000310: c3c8 64bc 945a 31bc 8932 363d 5597 36bb
00000320: fdea 243d 7916 1ebb 874f 9aba 1c32 a03b
00000330: 92a1 ec3b 909a fc3c 24fe 873b e6ee 473b
00000340: 8f10 dcbb 59d9 293c 1fbf 31bc d9b1 23bd
00000350: dde1 093b 3321 c83c a014 b33c 70fc abbb
00000360: 45cc 013b 37f1 61ba d767 b9bc ce39 663b
00000370: 4e09 8c3c d7c1 c2bc 858a aa3c 07a3 a73b
00000380: 6cf9 bdba bc71 2dbb 7734 d5bc c056 2b3b
00000390: 96bf 363c 4a90 d73c b45c 033c 2000 193c
000003a0: 4d87 653c 3702 acba 6c0d 90bc 5f3c 243c
000003b0: fbf8 5d3c a460 0f3c d82c f13b 4731 19bd
000003c0: 35ea a1bb e71e ad3c 1c3f 9e3b 026e 19bd
000003d0: b8d5 073b fa64 a1bb 7f96 a0bc 9ed3 d1bb
000003e0: e61a edbc 5ff0 97bc 23cc 453c 9d52 fcbc
000003f0: ee0e 0dbd be6d 94ba d7cd c63b c722 703c
-0.0058430033 0.0071115172 -0.023751829 0.020008981 0.025812956 -0.012877438 -0.00034770014 -0.03286522
0.015120917 0.034778547 0.020751143 0.010113154 0.0057518464 0.009286533 -0.0072031086 0.007773484
-0.004496645 0.010280275 0.013286238 0.012915036 -0.02084005 0.0028043264 -0.006019466 0.0038120288
0.0057644607 -0.024979342 -0.013519055 -0.021233473 0.020029029 -0.0005079422 0.00064931775 0.012012485
0.0024073161 -0.0049522393 0.028588373 -0.00093457627 -0.015609282 -0.019116322 -0.010912949 0.014221394
-0.0066597653 -0.027969247 0.0011210016 -0.0047522113 -0.013197414 0.0010375404 -0.004484491 -0.0055703362
0.007891045 0.012017418 6.376565e-05 -0.0063768914 -0.0032915713 0.031797905 0.0054518534 -0.039459154
0.014204702 0.009702161 0.008707136 0.0077061285 -0.005259491 0.009479812 -0.0074354224 -0.018881584
-0.0076022516 0.0021725933 -0.017584242 0.008621101 0.032060925 0.0032787619 -0.02488206 0.023817303
-0.014408136 0.027482787 0.012731848 0.0272042 -0.022251338 0.029735118 -0.015402659 0.0041678078
0.012755099 -0.018659335 0.013725082 0.0016549702 -0.005222756 0.030808743 -0.00059013773 -0.008605874
0.0065646223 -0.0015362528 0.018618258 0.039572284 0.0041290293 -0.031069584 -0.011298574 -0.02446638
-0.0036994163 0.0044246134 0.020515122 -0.009684287 -0.02631595 -0.024680194 0.021338683 -0.00819429
0.047205593 0.029448427 0.01657593 0.025892334 0.009042611 -0.03366454 0.0014564984 -0.02556412
-0.010415621 -0.020985546 0.009380662 -0.009864692 -0.0050694407 -0.015027286 -0.0003775516 -3.308667e-05
-0.008951047 0.008484254 -0.006909862 -0.0003057953 0.008526963 -0.028389841 0.014673227 -0.026709776
0.0074133906 0.009776047 -0.0060556727 -0.013458803 0.020539429 -0.016103683 -0.016682284 0.018716548
-0.027817322 -0.040108245 -0.004561765 -0.01007842 -0.008420686 -0.0090194 0.04266995 -0.026571264
-0.007583268 -0.013827811 -0.003639189 0.015773261 0.019338638 0.00081207807 0.007964184 -0.0007135811
-0.028695634 -0.006584706 -0.018895045 -0.017722983 0.008710863 0.0019267955 -0.011696003 0.01918293
0.0021236138 -0.00936486 -0.0050030877 0.03239056 -0.016510058 0.023385191 0.02859266 0.0288141
0.0062417085 0.0017780947 0.015239885 0.004131247 -0.014354873 0.019560099 0.026206093 0.029584529
-0.0025606316 -0.029437741 0.0074829604 -0.03562783 -0.030073235 -0.026830755 0.000929727 0.02834377
0.0031135245 0.018208021 -0.017524198 -0.024294196 0.01887745 -0.009210647 -0.0048309197 0.020665362
-0.01757442 -0.0060499236 0.006507836 0.027148832 -0.013963881 -0.010824818 0.044481788 -0.0027861197
0.040263165 -0.0024122281 -0.0011772969 0.004888786 0.007221409 0.03083542 0.004150169 0.0030507385
-0.006715841 0.010366761 -0.0108487895 -0.03996453 0.0021039166 0.024429893 0.02186042 -0.0052485988
0.0019805592 -0.00086190127 -0.022632523 0.003512967 0.01709428 -0.02377407 0.020818004 0.00511587
-0.0014493889 -0.0026465496 -0.026025994 0.0026144236 0.011154076 0.02631392 0.008017708 0.009338409
0.014009309 -0.0013123219 -0.017584525 0.010024159 0.013548131 0.008751068 0.007360082 -0.03740051
-0.0049412497 0.0211329 0.0048293006 -0.037458427 0.0020726752 -0.0049253674 -0.019603012 -0.0064034006
-0.02894349 -0.018547235 0.012072596 -0.030801112 -0.034438066 -0.001132421 0.0060670185 0.014656729

net.1.linear.bias f4 [256]
00000000: e4e4 2d3d dd3f 9d3d 5b67 9b3a 6864 12bb
00000010: b35a a63d 76bc eabc c14c 003b 9a88 16bc
00000020: 10bb 123d 991d c7bc 0fbf 70bd ce55 613d
00000030: 9299 973c ddea d73d a47a 283d efc4 80bd
00000040: 954f bd3d 45e6 793d 9683 a33d 8a10 d2bc
00000050: 4362 aebc 8cdf 38bd 8c07 7a3d a1b6 4d3d
00000060: 45a3 3ebd 120a 5abd b513 2f3d e469 b7bc
00000070: 41cc 1ebd 5572 f83c c9c2 41bc f5bb 1a3d
00000080: 714c 64bc d012 7e3c a53c d03c 5418 4e3d
00000090: 10eb 803a 03f9 963d 995f 9e3c 2bb0 343d
000000a0: 21a0 04bd 0b1c 04bd 9847 8dbd e0f4 0abd
000000b0: 7fd0 223d f5f6 4bbc 710f 063d e5fe 0dbd
000000c0: 82a4 98bd 8fa8 933c 351e 58ba 21f8 a33c
000000d0: bd32 20bd ff21 8e3d 1cf8 143d 7221 a9bb
000000e0: a596 233d c1c9 3b3c 5ce2 62bd 97fb 183d
000000f0: 291b 35bc 99a2 88bd 9516 5abd c6fc 753c
00000100: 822e 5a3d 1e23 7a3c 8403 3239 41be 50bd
00000110: 0573 38bd 89da 873d 8438 f0bc 99a7 71bd
00000120: 8cb8 413d b19f bcbd 6c5f 5b3d f1fa 13bd
00000130: 3deb 70bd 8e76 813d b221 533d f955 3fbd
00000140: 79ba b2bd de87 15bc 5399 893c edf6 133d
00000150: e844 573d c5e0 3cbd cb6d 0c3c b70a b6bc
00000160: 99a3 03bd 39cf 2b3d b724 2ebd 0c99 863d
00000170: ea61 9fbc c00e 623d 748f 643d 537e 853c
00000180: df88 b9bc cf6e aa3b 8843 21bd fbec 65bd
00000190: 564e d83c aa14 2bbd 31f7 843d 9fef 0fbd
000001a0: 99a1 f03c 75e4 9d3d 5895 babd d096 433d
000001b0: 1f5f 1bbd fef0 be3c dc03 08bc 2645 9e3c
000001c0: f638 3b3d 0825 a73c 28fa d6bc 09d0 a83c
000001d0: 937a 8ebd 7864 fbbc 0482 6dbd 68af 063b
000001e0: b7f6 803d 4028 3c3d 7308 863c 5f02 a8bd
000001f0: 05d0 a8bd 7f5b a3bd 5cc3 503c 4b9e f5bc
00000200: 3067 a5bd 79c5 1cbd 6fc2 943d ea1f 26b9
00000210: 24bd 513d 8eda 813c ca6d 29bd 0783 44bd
00000220: 8428 2c3d 8855 9e3c aa8a 0b3c 4efa e6bc
00000230: 6d35 633c 65b3 dfbc df5b 42bd d179 70bd
00000240: cb14 54bd 8fb8 bb3b 24b4 ba3c 65ab 883d
00000250: 919d bc3d 9196 96bc df60 8d3d 5dfa 1a3d
00000260: e470 d03b c7a7 c43d 4a92 9cbc 7000 4ebd
00000270: 3ab3 c33c d428 a2bd c30c 89bd 0bad a1bc
00000280: 3e91 5f3d 785d 443b d823 513d b7ba 683d
00000290: f4fb 68bd 5c26 4a3d 22b4 28bd ee7c 873d
000002a0: 436b 8fbd 9a9f 87bd 8796 8dbd bdf4 9abd
000002b0: 612e 133d 9a5e 34bc fa91 f2bc 28e2 0c3d
000002c0: 405a 9cbd 1b02 8e3c f720 29bd 406d 27bd
000002d0: a035 273d 58fb 2e3d 1488 523d f64b 14bd
000002e0: 760e 873d 2ec4 7f3d c792 2dbd 9cb1 27bc
000002f0: 6a36 663c 105d 143c e08e 4fbd a607 9c3d
00000300: e511 7b3d ad7f c2bc 6556 a33d 3473 863d
00000310: 8adf 2e3b 6f08 453c f2ad 08bd b5fd f33b
00000320: 6fad 5dbc ac34 b4bc f356 cdbc da2a 97bd
00000330: 3423 83bd 7a4c 7bbb fd70 893c 9650 6abd
00000340: 211a 23bd a9ce f43a 7105 61bd 4ab1 2dbd
00000350: e2cd ac3d 54a5 243d 546e 2fbd 3f82 35bd
00000360: 4df2 a4bc f714 56bd 1887 1dbd 8212 fdbc
00000370: c0b0 53bd 5ee4 47bd 7ada 20bd aea7 4fbd
00000380: 1727 bb3d 4a58 00bd 0175 053b 4d85 3c3d
00000390: ac9b 3bbc c043 c839 e8e5 ea3c b846 51bc
000003a0: 755a fe3c 38e7 7abd c259 a53d 0426 873d
000003b0: 863c b43d 87ea aabd 0fb1 543d 4d38 dbbc
000003c0: 2d0b 2e3d c6f4 db3c 5e3c 563d db86 afbc
000003d0: 5af1 a83c 2e2f 0a3d 5f4c 313d 1b56 09bd
000003e0: 6715 53bd b115 38bd 0371 d83b 2fb4 c4bc
000003f0: 702c 843d ed56 123d 1555 3abd 8a8c aa3d
0.042454615 0.076781966 0.0011856364 -0.0022337679 0.08122768 -0.028654318 0.0019577 -0.009187842
0.035822928 -0.024306105 -0.058775958 0.05501347 0.018505845 0.105428435 0.041132584 -0.06287562
0.09243695 0.061010618 0.079840824 -0.025642652 -0.02128709 -0.045135066 0.061042354 0.050222997
-0.046542425 -0.05323226 0.042743403 -0.02238936 -0.03876901 0.030327955 -0.011826226 0.037776906
-0.013934241 0.015507415 0.025419543 0.05031617 0.0009835679 0.07371714 0.019332694 0.04411332
-0.032379273 -0.032253306 -0.06898421 -0.033924937 0.03974962 -0.012449016 0.03272957 -0.034666914
-0.074532524 0.018024711 -0.00082442473 0.020015778 -0.039110888 0.06940078 0.036369428 -0.0051614577
0.039938588 0.011461676 -0.055391654 0.03734931 -0.011053839 -0.06671638 -0.053244192 0.015013879
0.05326701 0.015267162 0.00016976713 -0.05096269 -0.045031566 0.06633479 -0.029323824 -0.058997724
0.04729514 -0.09210146 0.0535578 -0.03612799 -0.05881809 0.06321441 0.051545806 -0.04671285
-0.08726973 -0.009126632 0.016796743 0.03612416 0.05255595 -0.046112794 0.008571099 -0.022221906
-0.03213844 0.04194567 -0.042515483 0.0657216 -0.019455869 0.055189848 0.05580087 0.016295588
-0.022648273 0.0052011977 -0.039371043 -0.056134205 0.026404541 -0.041767754 0.064924605 -0.03514063
0.02937393 0.0770959 -0.09110516 0.047751248 -0.03793251 0.023308273 -0.008301701 0.019320082
0.04570862 0.0204034 -0.02624233 0.020607011 -0.06956973 -0.030687556 -0.05798532 0.0020551328
0.06297057 0.045936823 0.01636145 -0.08203577 -0.082428016 -0.07976436 0.01274189 -0.029982707
-0.08076322 -0.038274262 0.07263648 -0.00015842883 0.05120577 0.015851285 -0.04136447 -0.04797652
0.042030826 0.019327894 0.008516947 -0.028195526 0.013867718 -0.027307222 -0.047450896 -0.058709923
-0.051777642 0.005728788 0.022790976 0.06673316 0.09209741 -0.018382343 0.06903242 0.03783642
0.006361114 0.096023135 -0.019112725 -0.050293386 0.023889173 -0.079179436 -0.06691887 -0.019735834
0.054581873 0.0029962938 0.051059574 0.05681869 -0.056880906 0.04935299 -0.041187413 0.06615625
-0.070028804 -0.066222385 -0.069134764 -0.075662114 0.035932902 -0.011008883 -0.029610623 0.034395367
-0.07634401 0.017334988 -0.041291203 -0.040875673 0.040822625 0.04272017 0.051399305 -0.036205254
0.06594555 0.06244295 -0.042376306 -0.0102352165 0.014051059 0.009055391 -0.050673366 0.07618646
0.061296362 -0.023742521 0.07975463 0.06564942 0.0026683533 0.0120259365 -0.033369012 0.0074460157
-0.013530119 -0.021997772 -0.025065875 -0.0738122 -0.06403199 -0.0038345144 0.01677751 -0.05720576
-0.03981984 0.0018677312 -0.05493683 -0.042405404 0.084377065 0.04019673 -0.042829826 -0.044313665
-0.02013507 -0.052266087 -0.038458914 -0.030892614 -0.051682234 -0.048801772 -0.039270855 -0.05069702
0.09138315 -0.0313342 0.002036393 0.046025563 -0.011450689 0.0003819745 0.028674081 -0.012773208
0.031048993 -0.061255664 0.080737606 0.06599048 0.088006064 -0.08345514 0.05192667 -0.026760245
0.042491127 0.026850116 0.052303664 -0.021426609 0.020622898 0.0337364 0.043285724 -0.033529382
-0.051534083 -0.04494256 0.006605269 -0.0240117 0.06453788 0.03572743 -0.045491297 0.08327587

net.2.linear.weight f4 [256, 256]
00000000: 4f04 6eba 9371 3db9 f041 00bb c42b b439
00000010: 6e7d 22bb 8cce 993a 442a 1fba d9ee babb
00000020: 0a26 28bb 0c6f faba f0cf 263b 93e7 9bba
00000030: 66b3 22bb d20b fdbb e792 5bbb 3816 36ba
00000040: bdf2 e4ba db13 aa39 0f4e d439 d0e8 19bb
00000050: db66 93ba e8c2 4a3b dea6 babb a972 ddba
00000060: c071 1039 d056 bdbb fb03 d33a 03aa 983b
00000070: 96c3 cdba 5fba 143b 31aa a6bb 0a9a 453a
00000080: dcc0 693b a844 823a 2978 41ba 20dd a4ba
00000090: f358 abba 0ad5 15bb 52ac 98bb f4fc 58ba
000000a0: 7a35 6cb9 ccf6 a23a 77be 6b3b a9b7 203a
000000b0: b70e 2abb 272a b13a d9a0 c53a d810 0d3a
000000c0: ea22 9b39 e068 6eba 6c17 ea3a 1a02 db3a
000000d0: 1f54 53bb 39b7 da3b 1486 d33a e750 91bb
000000e0: f08a 833a 4c5d aebb 58e4 0c3b cd41 87b9
000000f0: 888d f03b fa53 4239 1f75 41bb bb49 e53a
00000100: ce43 07bb 6cb8 85bc 52ea 683b 7ae7 6bbb
00000110: ef54 bfba 2221 9fba 94c3 843b f94e 2d3a
00000120: 507d 9a3a 676b d9ba fb1c 3ebb 20c6 f839
00000130: c92c e23a 21b0 a53a 49e3 cbbb 4750 cbba
00000140: 1555 80bb 17be e03a 736f 08bb a492 6139
00000150: 061a de3a ce09 4dba 36ce 843b 6e1c e93a
00000160: e9bc 463a a5d4 7c3a 8967 2bbb e5fd aa3b
00000170: 3707 c1ba 2fb9 f33a 86e4 2c3a 3838 36bb
00000180: 70f6 183b 922a 933a dbd7 e6b9 d06b f53a
00000190: 6e22 1bbb a969 893b e046 0ebb 3b03 3f3b
000001a0: 98f2 fbb9 8ed8 1a3b 1b0a db39 d783 78ba
000001b0: b921 1cba 1865 413b 6dd8 293a 5c3f 34bb
000001c0: 7979 b2ba 736f d3b9 751b 6c3a ecbf 34ba
000001d0: 8559 093b 67dd 6dbb 2aaa 3cba 83da 243a
000001e0: 8bd5 af3b a72a 22bb b316 4abb 29c8 0b3a
000001f0: 9360 023c e548 433a 9de7 c9ba 301a 2d3b
00000200: ac9d cfb8 08cf c13a 0490 0f3b f4d7 1a39
00000210: 26ce f7b9 755f 323b 9564 fcb9 2013 70b9
00000220: 6e46 903a 9e98 c43a eb44 9f3b a534 a4bb
00000230: 8ae5 f03a 1f60 4c3a 5854 6d3b 31f8 133b
00000240: e12d 49bb b4b7 5a3b 7597 24bc 0f68 87bb
00000250: 5f75 07bc 0465 63ba 0107 a9bb d0ac 46ba
00000260: c411 5abc 808b a3bb d00a 0c3b 6d8f 88bb
00000270: f2eb f6ba d157 a3ba 8ca6 60bb 9f8e b2b9
00000280: ca97 853a 31f4 89ba 1f31 2fbb 38ea 5ab9
00000290: 00b3 2cbb 58e9 953a 026f 933a 0823 403a
000002a0: 8e6f f1b8 9738 633b d971 023b 5cbd b53b
000002b0: f0fb e0b9 da3a b93b 9c49 03ba 48f2 2bbb
000002c0: e8a1 743a 1cf9 793b ad59 2aba 4ea7 ebba
000002d0: 14fc b239 c9af cd3a a7dd f93a f18f 663a
000002e0: 9004 f4ba 3261 603a 3e39 8dbb 1b5d ddb7
000002f0: 4a5b 15ba b9c8 553a ddc4 743b d45e f13a
00000300: 270e 14b8 71a5 f43a 2b34 64ba 5a72 52ba
00000310: d137 1539 8b76 27bb 087a c83a 4039 99ba
00000320: ab42 c0bb cd1e 5a39 26c9 23bb a804 cbba
00000330: 99b5 7839 7509 403b affe a33a f67c 553b
00000340: c3e5 373a 628a 8f3a 52be feb9 6491 86b9
00000350: 11cd 7339 86ce cf3b 9f1e 653b d805 9939
00000360: 6db2 3c3a 0462 283a c262 26bb 8218 7d3b
00000370: 038a 99ba 7dc4 90b9 a79b ddba 10b7 723a
00000380: b463 d4bb 6201 493b 665e 363a af08 c33a
00000390: 9b97 82bb 4948 1ebb 6591 033a 7c0d 9dbb
000003a0: 1c94 2d3b 53a9 e4b9 9b98 783a 0f7f 083b
000003b0: 1b24 173a 7ee1 62ba 99aa 393a 68c5 b5ba
000003c0: 3bd2 b5ba 8bc6 7bbb b93f 13b9 8819 fcb8
000003d0: 013b b8b9 f1e8 01ba 9fb1 303a 4e1f c1ba
000003e0: 53a8 83ba b664 a939 5ed5 fdbb 9fb9 41ba
000003f0: e4a1 06bb 410f 0abb b80f 2637 860e 56ba
-0.00090796215 -0.00018066754 -0.0019570552 0.00034364883 -0.0024794 0.0011734529 -0.0006071667 -0.0057047424
-0.0025657439 -0.0019106581 0.002545353 -0.0011894576 -0.0024826168 -0.0077223564 -0.0033504309 -0.000694606
-0.0017467361 0.0003243972 0.0004049395 -0.0023484714 -0.0011245863 0.0030938927 -0.0056961617 -0.0016895133
0.00013775285 -0.005778171 0.0016099209 0.004658939 -0.0015698548 0.0022694094 -0.0050862064 0.0007537907
0.0035667932 0.0009938674 -0.0007380271 -0.0012578107 -0.0013072774 -0.0022862577 -0.004659214 -0.0008277439
-0.00022526635 0.001243317 0.003597168 0.0006130883 -0.0025948712 0.0013516591 0.0015077844 0.0005381233
0.00029589917 -0.0009094607 0.0017859763 0.0016709 -0.0032246185 0.006674674 0.0016137981 -0.004434693
0.0010035913 -0.0053211804 0.0021498408 -0.00025798232 0.0073410906 0.00018532565 -0.0029519273 0.0017493287
-0.002063978 -0.01632329 0.0035540056 -0.0035996125 -0.0014597456 -0.0012140612 0.004051635 0.0006611194
0.0011786614 -0.0016587795 -0.0029008973 0.0004744986 0.0017255779 0.0012640991 -0.006222163 -0.0015511595
-0.0039163926 0.0017146495 -0.0020818382 0.000215123 0.0016945011 -0.00078215904 0.0040529026 0.0017784962
0.00075812504 0.00096447236 -0.002615424 0.005218255 -0.0014726882 0.0018594618 0.0006595332 -0.0027804505
0.0023340248 0.0011227897 -0.00044029843 0.0018724147 -0.0023671645 0.004193504 -0.0021709725 0.0029146213
-0.00048055197 0.0023627612 0.00041778464 -0.0009480095 -0.0005955953 0.002950972 0.00064790883 -0.0027503585
-0.0013616524 -0.00040328092 0.0009006777 -0.00068950537 0.0020957899 -0.0036295296 -0.0007196987 0.00062886643
0.0053660325 -0.002474466 -0.0030836284 0.00053322554 0.007957595 0.0007449522 -0.0015404109 0.0026413314
-9.899898e-05 0.0014786432 0.0021905908 0.00014767033 -0.00047265104 0.0027217541 -0.00048140125 -0.00022895308
0.0011007318 0.0014999097 0.0048605106 -0.0050111585 0.0018378955 0.00077963056 0.0036213603 0.0022578354
-0.0030697512 0.0033373656 -0.010045876 -0.004132278 -0.00826773 -0.00086744153 -0.0051583056 -0.00075788517
-0.0133099 -0.004990995 0.002136875 -0.0041674883 -0.0018838628 -0.0012462084 -0.0034278957 -0.00034057067
0.0010192331 -0.0010525045 -0.002673216 -0.00020877353 -0.002635181 0.001143734 0.0011248293 0.0007329439
-0.00011512554 0.0034671181 0.0019904284 0.005546255 -0.00042912317 0.0056527676 -0.0005008222 -0.002623694
0.0009331987 0.0038142866 -0.0006498348 -0.0017978938 0.00034138619 0.0015692647 0.001906325 0.00087952527
-0.0018617082 0.0008559405 -0.0043098023 -2.6388609e-05 -0.0005697502 0.0008155215 0.0037348785 0.0018415102
-3.529913e-05 0.0018665028 -0.00087052834 -0.0008027904 0.0001423054 -0.0025552835 0.0015295157 -0.0011690035
-0.0058673224 0.00020801574 -0.002499172 -0.0015489059 0.00023718773 0.0029302512 0.0012511815 0.0032575703
0.0007015133 0.0010951275 -0.00048588455 -0.00025666796 0.00023250679 0.006341758 0.0034960879 0.00029186788
0.00071982184 0.0006423297 -0.0025388454 0.0038619344 -0.0011714104 -0.00027612215 -0.001690735 0.0009258846
-0.006481612 0.003067099 0.00069568155 0.0014879907 -0.003985358 -0.0024151972 0.0005018919 -0.004792867
0.0026485985 -0.00043613705 0.0009483189 0.0020827686 0.0005765573 -0.0008654817 0.0007082611 -0.0013868036
-0.0013871858 -0.0038417901 -0.00014042751 -0.00012021052 -0.00035139176 -0.00049556704 0.0006740335 -0.0014734061
-0.0010044671 0.00032309227 -0.0077463826 -0.00073900254 -0.0020543272 -0.002106622 9.898031e-06 -0.00081656163

net.2.linear.bias f4 [256]
00000000: f89b 393b 37e9 8f3b 1333 263d 88bc 8a3c
00000010: 4b01 81bd fa55 283d 8ffd e23d 250a 923c
00000020: f0f1 b73c ad1e 693b 5ed0 5c3d 3142 893b
00000030: 1c21 d5bc 27e1 3ebd 8680 33bc 42ba 6cbc
00000040: dbf4 b0bc 0255 a0bd bfd5 3dbc 7058 06bd
00000050: 4d68 643c 57c3 503b 90b4 50bd 5786 18bc
00000060: bcf3 a0bd 56d2 d63c f8a0 7d3d 64e5 42bc
00000070: 4098 403d 78e2 8f3d 4069 133d 5896 d43c
00000080: e78f 113d 094d 26bd 6848 3f3d a72d 60bb
00000090: e93d d23c a0a4 50bd 9e71 653d 0224 c8bc
000000a0: 566a a03c fe64 82bd 2fbc 8ebb 0ec0 48bc
000000b0: 03f4 103d c00c 1f3d 929c cebc 2239 5abd
000000c0: 7824 d33d b439 e1bb 8e68 19bd 42f6 533d
000000d0: 8441 9a3c e46a ab3b d063 0fbd 06e0 ee3c
000000e0: 789a febb 5084 40bc c500 5cbc c2cc 0f3d
000000f0: 7b6d a6bb d975 b2bc 7ef5 50bc 52c0 21bd
00000100: ba0d 6ebd 45c4 cebd 599c 673c 98ae 823c
00000110: b85f 49bd 45a2 3ebc e9b6 bfbc 9894 cd3d
00000120: d52c e6bc 23c4 8d3d c697 c837 7a2d 01bd
00000130: e1e2 683d cbd9 d7bc d3ef 0dbc 6bb7 263b
00000140: 3851 293d 6fdd a2bd 8d0c 1e3c 041a db3c
00000150: 1b6d 5e3d 15f1 92bc e524 a43d fb4e 3d3d
00000160: 256e 7cbd f8ca 663a a93b e13b dc72 6bbc
00000170: 718a 27bd 7d52 243d c082 ac3d 647d 34bd
00000180: 0ae8 5a3d 2af2 0b3c e121 c8bc 5e27 91bd
00000190: ae75 183c bb42 173c 715f a4bc f0bf aabc
000001a0: 182c ce3d 5b77 34bd 7cf1 433d 6175 183d
000001b0: e9d4 3d3c 9575 303b 70ea 9abd 749a 2ebc
000001c0: 985e d73b 8ce6 e23a f8b5 03bc aabf 03bd
000001d0: 432c 0dbb f69c 36bd 65d8 b03b ed49 8cbd
000001e0: c6f6 fdbb c2c1 56bd efbf f538 ec6a c83b
000001f0: 2550 d639 468d af3c 0ec4 af3d 89f4 f73c
00000200: faac 7fbd e197 a4bb 8daf 74bd db22 f23c
00000210: 09c4 453d 31d5 14bc 3e13 1f3d e5c4 76ba
00000220: d30b 04bd 07d2 2c3d ecc1 ac3c cbaa 66bd
00000230: cd74 51bb 6cce a3bc 188e 8c3d ab14 36bd
00000240: b811 27bc 13f1 96bd c2d5 e6bc 8c9a 78bb
00000250: 27b7 b63b 25e1 fb3d 6905 2a3d eeae a6bb
00000260: 0d86 123d 64d3 573b 8b99 c9bd 22b8 6fbb
00000270: 7a67 1a3d c244 1b3c 7f08 c83d 53cb cb3b
00000280: 7492 7f3c 1dfb 283c fc2f 72bd f68c 97bb
00000290: 7342 91bd 85e4 76bd cf38 623d 33a6 cd3a
000002a0: 3f39 5ebd 4d94 8d3d 45ab 43bd b198 883d
000002b0: 6ec0 0dbc 6df0 a2bc e7a9 403c fd7a 973c
000002c0: a583 aebc c8b9 b0bc 1b3f 0bbd 3a3b b13c
000002d0: 7586 673d cb55 9f3c 28be 61bd 1af5 ecbb
000002e0: 35cc 0bbd 6a56 4abd d3f8 8e3b 0ecb 80bd
000002f0: db9f 1cbc 5668 a4bc 650d 04bd b747 2ebd
00000300: faf2 30bd 324e 99bc c6ba ec3b 4616 873c
00000310: 8579 a8bc 546b 9cbd f4b7 323b 9cc2 083d
00000320: 51c3 34bd 2e87 0c3c d160 763c 42e2 883d
00000330: f6e5 413d 19c1 72bc 55e0 943d 16b2 b03b
00000340: 772f c0bd 809a 87bb 14f5 45bd 3b74 c43c
00000350: 0013 3c3c ba86 613c 28bf c23d 00eb dc3c
00000360: 61be 643d 273e 483d 5886 c0bc 1d98 a3bc
00000370: d59f 473d 5d02 5d3d 3a6e 19bd 2748 ba3b
00000380: b8dc af3d dd57 fbba a747 ee3b 30bb 213d
00000390: 5234 a13b ddbc ad3d 4e83 9b3b 46f4 54bd
000003a0: 4b18 59bd 58d6 353d 8912 153d 1d23 a2bc
000003b0: 5bff 0b3c efd0 453d 100b 333c 7a24 8e3c
000003c0: dde2 6bbd 184b 483d d730 a0bd ca1c ba3a
000003d0: 34be a8bc 4562 8bbd 0936 23bd 489d 02ba
000003e0: 9e6c 97bd 27fb c03b f195 3cbd af00 953b
000003f0: 1bc8 a7bb 7a62 1b3d 4b6b 08bc 4712 a03d
0.0028321724 0.004391815 0.040576052 0.016935602 -0.06299075 0.04109762 0.11083519 0.017827103
0.022454232 0.0035571263 0.053909652 0.004188799 -0.026016764 -0.04660144 -0.010955935 -0.014448704
-0.021601131 -0.07828714 -0.011586606 -0.032799184 0.013940883 0.0031854713 -0.050953448 -0.009309373
-0.07858989 0.026223343 0.06192109 -0.011895511 0.047020197 0.07025617 0.035989046 0.025950596
0.035537627 -0.04060081 0.04669991 -0.0034206898 0.025664287 -0.05093825 0.056016557 -0.024431232
0.019581955 -0.06366919 -0.0043559293 -0.012252821 0.035388958 0.03883052 -0.025221143 -0.053277142
0.1030969 -0.006873334 -0.037453227 0.05174852 0.018830068 0.005231248 -0.035007298 0.029159557
-0.007769879 -0.011750296 -0.013427918 0.03510738 -0.005078969 -0.02178471 -0.012753842 -0.03949005
-0.05811856 -0.10096029 0.014136397 0.015952393 -0.04916355 -0.011635368 -0.023402648 0.10038108
-0.02809755 0.06922176 2.3912533e-05 -0.03153751 0.056856994 -0.026348969 -0.008663136 0.0025438915
0.04133722 -0.07952391 0.009646547 0.026745804 0.05430327 -0.017937222 0.080148496 0.0462179
-0.06162848 0.00088040484 0.006873567 -0.014370646 -0.040903512 0.04011773 0.08423376 -0.044064894
0.053443946 0.008541623 -0.024430217 -0.07087587 0.009305401 0.009232218 -0.020065041 -0.020843476
0.10067004 -0.04405914 0.04783772 0.037221316 0.011586406 0.0026925553 -0.07564247 -0.010656942
0.0065725558 0.001731114 -0.00803899 -0.032165207 -0.0021541275 -0.044583283 0.00539689 -0.06850038
-0.007750365 -0.052430876 0.00011718261 0.0061162617 0.00040876973 0.02142967 0.08582316 0.03026797
-0.062420823 -0.005022988 -0.05973773 0.029557636 0.048282657 -0.009084032 0.03883671 -0.0009413495
-0.03223784 0.042192485 0.021088563 -0.056315225 -0.0031960488 -0.01999589 0.0686304 -0.044453304
-0.010197096 -0.073702 -0.0281781 -0.0037933914 0.0055760327 0.12298802 0.041509066 -0.005086771
0.035772372 0.0032932395 -0.09843739 -0.0036578258 0.03769634 0.009476842 0.097672455 0.0062193065
0.015598882 0.010313776 -0.059127793 -0.004624958 -0.07092752 -0.060276527 0.05522996 0.001568979
-0.054253813 0.06913052 -0.047770757 0.066697486 -0.008651836 -0.019890035 0.011759258 0.018491263
-0.021303007 -0.021572962 -0.03399573 0.021634687 0.056524713 0.019450089 -0.055112988 -0.007231367
-0.034130294 -0.049398817 0.0043631583 -0.062887296 -0.009559597 -0.020069283 -0.032239337 -0.04254886
-0.04320047 -0.018714044 0.0072244136 0.016490113 -0.020565758 -0.07637659 0.002727029 0.03338872
-0.04413158 0.008577151 0.015037731 0.0668378 0.04733845 -0.014816546 0.072693504 0.0053923232
-0.09384053 -0.004138291 -0.048329428 0.023981204 0.011479139 0.0137650315 0.095091164 0.026967525
0.055845622 0.048887398 -0.02350156 -0.019969994 0.048736412 0.053957332 -0.037458636 0.0056848708
0.08587021 -0.0019175966 0.007271725 0.039485157 0.004919567 0.084832884 0.0047458773 -0.05199077
-0.053001683 0.044393867 0.03639463 -0.019792134 0.008544768 0.048294958 0.0109279305 0.017351378
-0.0575894 0.04889974 -0.078218155 0.0014199254 -0.020598508 -0.06805853 -0.039846454 -0.0004982543
-0.07393764 0.0058893147 -0.046041433 0.0045472006 -0.00512029 0.03793571 -0.008326362 0.07815986

net.3.linear.weight f4 [256, 256]
00000000: a6fb aa3a 0f2c 25b9 1e63 99b8 0ea9 da39
00000010: 8bbc 023a 7382 44ba 6d28 03b9 a859 efbb
00000020: d09b c839 a6f5 073c 500b f8b9 3c29 8637
00000030: 0cd6 043a 7488 1fbb 4817 fc38 32cc de39
00000040: 7e3c e4b8 f296 2539 34ec 43b8 5763 f037
00000050: 1d64 03b9 4e34 d6b9 c2fa 75b9 83b3 1db8
00000060: be3d 9abb 56a4 08b9 9056 583b c700 0bb9
00000070: 1131 0e3a e89c 26ba c212 123b 47c9 8839
00000080: 7804 8db8 9682 40b9 4aa4 6538 c8aa 6bb7
00000090: d001 c539 c785 243c 267b 8d39 6774 6ab8
000000a0: f779 a939 eced 0db9 fb9d 8839 0516 033b
000000b0: 4665 a239 557e ed39 a0b4 7fbb cb35 2eb9
000000c0: 1907 9738 4ace 9a3b fccd 043b d2dc 4938
000000d0: a6ed c4b9 1574 85b9 7949 e739 42eb aab9
000000e0: 1e4b 8bba b9d5 2e3a 5656 16ba 75b8 97b8
000000f0: d85e 8eba 8c8b e7b8 322c 20b9 85e2 02bc
00000100: 04fd aab9 ee26 47ba 6203 4339 f1c1 ea3b
00000110: 16d9 7337 4b99 88b8 d8d9 d639 7efc 153a
00000120: b5e2 19ba a009 9938 f8cc f9b9 1a13 fc38
00000130: 015e f5b9 877c 7038 b02c 11ba 3b67 30b7
00000140: d0c6 09ba 6adb 44b9 5bb7 043a 44cd b7b8
00000150: 7bbc 003a 5ecf 85b9 ecbf 2039 2ec0 8638
00000160: ea78 b738 bd26 1038 8ac7 2fb9 a866 183a
00000170: 0766 1dba 4d8b f3b9 cd8e 38b7 8324 5f3b
00000180: 5ae7 8eb9 63df 91b8 3fa6 dcb9 2e38 0139
00000190: 19b2 9a3a 2be2 74bb 5ebb 003a 1b76 75b9
000001a0: aed8 553b 93af 8238 36fa c937 5a12 db39
000001b0: e810 403b b784 103c aa74 0ab9 99fb 8e39
000001c0: fb13 a43a b8fe 8a3a 1081 6eb8 58fd 113c
000001d0: d788 0a3b 3abe ee36 d410 c1b9 775c f9ba
000001e0: f4af 98ba 83f2 01ba 1113 d8b9 cb0a 7db8
000001f0: d2fb c93a 3141 713a e910 21b9 0414 68b9
00000200: 8d7e 93b9 5c6f 29ba 3350 24ba 8fa2 ddba
00000210: 54be 19b8 9377 f4bb 5727 d4b9 6316 4d3a
00000220: 30db 31ba 494b 6eb8 19f2 61b9 1294 52bb
00000230: 7587 7ab9 97f0 db39 6d80 5739 449a a1b9
00000240: 8fd8 0b39 b3db 90b9 f0c6 85b9 f96e 56b8
00000250: ea7d b8b7 7ab5 9a3b 5be8 5739 a140 16bc
00000260: c3ef 5739 e8a6 c239 2651 b8ba ffaa e1b9
00000270: 199f 9038 8821 08b9 53e8 45b9 01c4 07bb
00000280: 3b26 05b9 89fc b739 61aa 16b9 2295 633b
00000290: 1887 88b8 be76 a6b8 a16f 79b9 5532 72ba
000002a0: ceb8 02b8 35c7 57b8 4df9 d239 9878 20bb
000002b0: c33d 97b9 8ae8 03ba 2ae3 50b9 90ed 3c38
000002c0: c7ce 453a 010c 39bb de06 59bb c911 fcbb
000002d0: 3777 1cb9 93b4 aa3a 99fb 853b 641d 2e39
000002e0: 239c 9db9 c4eb b1b9 8632 c03a 93ec fcb7
000002f0: 807b c5b7 a86b b2b8 519c 8cbb daf9 d13b
00000300: cdc1 e6b7 a653 80b9 16de 9d39 a13c a2b9
00000310: 43e2 3039 af40 b2bb 81c0 5739 b7fa 2638
00000320: 7ff9 c939 1f77 273a 1ff3 2239 af09 f1b9
00000330: 93be bdb9 6253 c039 dbf8 093b 3141 f73a
00000340: 43b7 da39 3ac0 713b a858 5439 e171 85b8
00000350: 26cb 5a39 4637 a5b8 874f 8039 bc3d 4239
00000360: 97c6 2437 3a7b a339 0c1c 1eba 7ac8 ca3b
00000370: 7ad1 c939 9dee 38bb 71c0 8437 5670 c039
00000380: e047 d2b9 32fb bbb7 37ee 463a 4d27 2b3b
00000390: 8e32 9739 4580 033b 2326 bc38 0604 003a
000003a0: 50ac f6b9 712d 773b 4eb9 dd3b 5476 64b9
000003b0: 7897 973b 9740 b439 12f2 23bc b2fd 33bb
000003c0: 838a 2a3a 38e1 3339 cf94 be38 cbdf 7939
000003d0: bec8 0cba f245 6d38 2b04 943a 0062 b339
000003e0: 81ce 3c39 4d52 2dba bd74 ebba 9727 003a
000003f0: 8d0b beb8 4e80 903a 7a88 263b 6503 133a
0.0013044968 -0.0001575204 -7.3140705e-05 0.00041706156 0.00049872015 -0.0007496245 -0.00012508193 -0.007304389
0.00038263062 0.008298313 -0.00047310675 1.5993246e-05 0.0005067296 -0.0024342807 0.00012020633 0.00042495277
-0.00010883155 0.00015791858 -4.6711604e-05 2.8656488e-05 -0.00012530429 -0.0004085623 -0.00023458435 -3.75989e-05
-0.0047070673 -0.0001303119 0.003301058 -0.00013256363 0.00054241816 -0.00063557783 0.0022289013 0.00026089905
-6.724236e-05 -0.00018359194 5.475086e-05 -1.4046855e-05 0.00037576118 0.010041661 0.00026985368 -5.5898356e-05
0.00032325063 -0.0001353544 0.00026057646 0.0020002138 0.00030974502 0.00045298287 -0.0039017573 -0.00016613973
7.201563e-05 0.0047242986 0.0020264378 4.812779e-05 -0.00037561095 -0.00025454225 0.00044114495 -0.00032600207
-0.0010627245 0.00066694204 -0.0005734911 -7.234599e-05 -0.0010862006 -0.00011040931 -0.00015275253 -0.007988577
-0.00032613438 -0.00075970485 0.0001859791 0.007164233 1.4534473e-05 -6.5135384e-05 0.00040979567 0.0005721523
-0.0005870269 7.297401e-05 -0.00047645695 0.00012019854 -0.0004680008 5.7336434e-05 -0.000553797 -1.0514453e-05
-0.00052557606 -0.00018773755 0.00050627225 -8.764354e-05 0.0004910898 -0.00025522237 0.00015330286 6.425414e-05
8.748642e-05 3.4368353e-05 -0.00016763635 0.0005813637 -0.0006004278 -0.0004645236 -1.1000503e-05 0.0034048862
-0.0002725672 -6.955748e-05 -0.00042085533 0.00012323327 0.0011802345 -0.0037366252 0.00049107324 -0.00023409018
0.0032630372 6.231586e-05 2.407758e-05 0.00041784608 0.0029306952 0.008820704 -0.00013204166 0.00027271805
0.0012518162 0.0010604477 -5.686382e-05 0.0089104995 0.0021138692 7.115098e-06 -0.00036824367 -0.0019024749
-0.0011649118 -0.00049570965 -0.00041212936 -6.0329952e-05 0.0015410131 0.00092031347 -0.00015360456 -0.000221327
-0.00028132313 -0.0006463432 -0.0006268054 -0.0016909408 -3.66553e-05 -0.0074605434 -0.00040465101 0.0007823465
-0.00067846756 -5.6813737e-05 -0.0002154786 -0.0032131714 -0.0002389232 0.00041950188 0.0002055184 -0.0003082325
0.00013336747 -0.0002762951 -0.00025515957 -5.1124927e-05 -2.1993143e-05 0.0047213407 0.00020590557 -0.009170682
0.00020593316 0.00037126918 -0.001406227 -0.00043042746 6.896089e-05 -0.00012982462 -0.00018873932 -0.0020716193
-0.0001269811 0.00035092633 -0.00014368586 0.0034726341 -6.5101485e-05 -7.937614e-05 -0.00023788075 -0.00092390674
-3.1166528e-05 -5.144552e-05 0.00040240065 -0.0024485942 -0.0002884698 -0.00050319044 -0.00019921051 4.504394e-05
0.0007545766 -0.0028235915 -0.0033115665 -0.00769255 -0.0001492173 0.0013023786 0.0040888307 0.00016604882
-0.00030061704 -0.0003393573 0.0014663495 -3.0150904e-05 -2.354174e-05 -8.507754e-05 -0.0042910953 0.0064079585
-2.7508382e-05 -0.00024476385 0.0003011084 -0.0003094422 0.00016868957 -0.00543984 0.00020575711 3.981098e-05
0.00038523597 0.0006388295 0.00015540094 -0.00045974317 -0.00036190878 0.0003668322 0.002105287 0.0018864033
0.0004171674 0.0036888258 0.00020250923 -6.363146e-05 0.00020865779 -7.8781086e-05 0.00024473315 0.0001852428
9.8213995e-06 0.00031181594 -0.0006031401 0.0061884494 0.0003849378 -0.0028218396 1.5825239e-05 0.0003670479
-0.00040107872 -2.2409109e-05 0.00075885974 0.0026115954 0.0002883863 0.0020065468 8.971642e-05 0.0004883412
-0.0004704916 0.0037716294 0.006766475 -0.00021787855 0.004626211 0.000343804 -0.0100064445 -0.0027464447
0.0006505625 0.00017154671 9.087624e-05 0.0002382986 -0.0005370489 5.6570345e-05 0.0011292746 0.00034214556
0.00018006006 -0.000661169 -0.0017963868 0.0004888712 -9.0620575e-05 0.0011024566 0.0025410936 0.0005608111
