log1/rrrbest_model_39999.pt (torch, 802249 bytes, 9 tensors)

net.0.linear.weight f4 [256, 7]
0	0x39f58001	0.00046825412
1	0x3da1c083	0.07898047
2	0x3e0b91a7	0.1362978
3	0x3dc1d683	0.09464743
4	0xbd989746	-0.07450728
5	0xbcbc65ca	-0.022997756
6	0xbda8afd6	-0.08236663
7	0xbce027c5	-0.027362714
8	0x3d82e2b5	0.06390897
9	0xbd2015d3	-0.039083313
10	0xbd6ff3de	-0.05858218
11	0x3e0068de	0.12540004
12	0xbce2540a	-0.027627964
13	0xbdd75e03	-0.10515978
14	0x3df06c0c	0.11739358
15	0x3d0c187c	0.034203038
16	0x3dc776dc	0.097394675
17	0x3bc3de01	0.0059773927
18	0xbd2b7e13	-0.04186828
19	0xbd0c4cda	-0.03425298
20	0xbd8e6993	-0.069537304
21	0xbd116c75	-0.035503823
22	0x3dee5fa5	0.116393365
23	0x3d8e2aea	0.06941779
24	0x3d4db2c1	0.0502193
25	0xbdd26d8b	-0.102748
26	0x3d56ebaa	0.05247084
27	0x3d836365	0.064154424
28	0xbdb11b26	-0.08647756
29	0x3d20f26a	0.039293684
30	0x3dea59c3	0.11442902
31	0xbcfefaaa	-0.031125385
32	0x3ce1ce8a	0.027564306
33	0x3d80bec7	0.06286388
34	0xbcaad253	-0.020852244
35	0x3db6dcc3	0.08928826
36	0x3d77bc78	0.060482472
37	0x3d8321c3	0.06402924
38	0x3e119326	0.14216289
39	0x3db5213c	0.088442296
40	0xbd55ad71	-0.05216736
41	0xbdef3bd3	-0.116813324
42	0xbd93587c	-0.071946114
43	0x3dcc794e	0.099840745
44	0x3d60b665	0.054861445
45	0xbd17b89a	-0.037041284
46	0x3af23db8	0.0018481528
47	0x3d5421fc	0.051790223
48	0xbd4612cc	-0.04835777
49	0x3d0d9617	0.034566965
50	0x3cb69f13	0.02229265
51	0xbd94d817	-0.07267778
52	0xbdcf9cde	-0.10137342
53	0xbda31458	-0.07962865
54	0x3ddbd8d1	0.10734714
55	0xbe0ac943	-0.13553338
56	0xbdf0a53c	-0.11750266
57	0x3d198eb3	0.037489604
58	0xbcd08a53	-0.025456583
59	0x3e0768b2	0.13223532
60	0xbd560f21	-0.05226052
61	0xbd027e23	-0.031858575
62	0x3cf490ca	0.029854197
63	0xbd6a3b18	-0.057185262
64	0xbd97bf04	-0.0740948
65	0xbda41060	-0.08010936
66	0xbe0b5377	-0.13606058
67	0x3dba133a	0.090856984
68	0x3d460881	0.048347954
69	0xbd32581a	-0.04354105
70	0x3dcc307e	0.09970187
71	0x3d659a8a	0.056055583
72	0xbe094c4c	-0.13408011
73	0x3d97fc5a	0.07421179
74	0x3d648fd8	0.055801243
75	0x3dfc701a	0.12326069
76	0x3c0e0500	0.008668184
77	0x3c58d0dc	0.01323339
78	0xbd4a2a61	-0.049356822
79	0xbd23710a	-0.039902724
80	0x3c6c3213	0.0144162355
81	0x3c57554a	0.013142893
82	0x3da55cba	0.08074327
83	0xbdd3c06b	-0.10339435
84	0x3da555d3	0.0807301
85	0x3dc0c441	0.094124325
86	0xbdbd187a	-0.09233184
87	0x3dadbea1	0.08483625
88	0xbdcc0e27	-0.09963637
89	0xbdcadc48	-0.099052966
90	0xbd8513ef	-0.06497943
91	0x3d432efc	0.04765223
92	0xbccb45ea	-0.024813611
93	0x3db6dd95	0.08928982
94	0xbd81d23c	-0.06338927
95	0xbd75cf65	-0.06001224
96	0x3dba9423	0.09110286
97	0x3c3f4693	0.011674541
98	0x3daaaf97	0.08334272
99	0x3dc9ca4e	0.0985304
100	0x3db2effa	0.08737178
101	0x3ceaa493	0.028642928
102	0x3de973b1	0.113990195
103	0x3dc8b68a	0.098004416
104	0xbc92b00e	-0.017906215
105	0x3d5def9c	0.054183587
106	0xbd2c5ee3	-0.04208268
107	0x3c76c1dc	0.015060868
108	0x3ca0371c	0.019557528
109	0xbd49dde1	-0.049283866
110	0xbdaf7718	-0.08567637
111	0x3aca2893	0.0015423469
112	0x3ca87865	0.020565221
113	0x3dec362e	0.115337715
114	0xbd9bfd7f	-0.0761671
115	0xbd59b2b1	-0.05314893
116	0x3dc6a845	0.097000636
117	0xbe06909e	-0.13141105
118	0xbdedf00b	-0.1161805
119	0xbe023deb	-0.12718932
120	0x3e0689d0	0.13138509
121	0xbc39ec01	-0.011347772
122	0x3dc1d7be	0.09464978
123	0x3dc8d0dc	0.09805462
124	0x3d6b926a	0.05751268
125	0xbe0ba2e1	-0.13636352
126	0x3c8bf5ca	0.017084975
127	0x3de93f73	0.11389055
128	0x3ab3d801	0.001372099
129	0xbdc5288d	-0.09626875
130	0x3dfb66aa	0.12275441
131	0x3c8f3e77	0.01748584
132	0x3e049fe7	0.12951623
133	0x3dadc6ac	0.08485159
134	0x3dcf0d83	0.10109999
135	0xbde5cbb4	-0.11220494
136	0x3d906eae	0.070523605
137	0xbd88ac3b	-0.06673475
138	0xbd44c685	-0.048040885
139	0xbc88bda5	-0.016691992
140	0x3c3aa281	0.011391283
141	0xbdfda3d8	-0.12384766
142	0x3d336961	0.04380167
143	0xbd05ea1c	-0.032693967
144	0xbdb5288f	-0.088456266
145	0x3db94a33	0.090473555
146	0xbe0b3285	-0.1359349
147	0xbd32e123	-0.04367174
148	0x3a26db6e	0.0006365095
149	0xbbaff1b7	-0.005369391
150	0xbdc01745	-0.09379438
151	0x3df2038a	0.11817081
152	0x3d54b773	0.051932763
153	0x3d14d365	0.036334414
154	0x3c848d37	0.016180618
155	0xbcb2be93	-0.021819388
156	0xbc89f953	-0.01684252
157	0x3e08af36	0.13348088
158	0x3dff2373	0.12457933
159	0x3d827285	0.06369499
160	0x3dbb7e73	0.09154978
161	0x3df2d25a	0.118565276
162	0x3d20a705	0.039221782
163	0xbe067923	-0.13132147
164	0xbbfe1881	-0.007754386
165	0xbdf1210b	-0.117738806
166	0xbd4afcc1	-0.04955745
167	0x3d1285a5	0.035771985
168	0x3d81cdf7	0.06338113
169	0x3d6c46ce	0.057684712
170	0x3db6b86c	0.089218944
171	0xbe0d6047	-0.13806258
172	0x3d9b9215	0.07596222
173	0xbdc19af6	-0.094533846
174	0xbde668be	-0.11250447
175	0xbd7078d1	-0.05870897
176	0xbc9a1160	-0.018807113
177	0x3ddca18e	0.107730016
178	0x3d409917	0.047020998
179	0x3d3fc565	0.04681911
180	0xbd2ba1b3	-0.041902255
181	0x3e09d19e	0.13458869
182	0x3d9d9905	0.07695202
183	0xbdae7d8c	-0.0852004
184	0x3cbae2dc	0.022813253
185	0xbe0d3125	-0.13788278
186	0x3dd6fa13	0.104969166
187	0x3dbc442c	0.0919269
188	0xbd9e9dfe	-0.07744978
189	0xbc2f2b01	-0.010691405
190	0xbd37ed0c	-0.0449038
191	0xbc264965	-0.010149335
192	0xbd55739a	-0.0521122
193	0x3d8c7213	0.068576954
194	0x3da0db00	0.07854271
195	0x3d3f6aa5	0.046732564
196	0x3e01a944	0.12662226
197	0xbcaa1be5	-0.020765254
198	0xbdebdc36	-0.11516611
199	0x3cbc9625	0.023020813
200	0xbd9b8bed	-0.07595048
201	0x3b313801	0.0027041438
202	0xbd53e7e5	-0.051734824
203	0xbcc58fbc	-0.02411639
204	0xbca9da2a	-0.020733912
205	0x3dbf135a	0.09329863
206	0xbd40a0d1	-0.047028366
207	0xbc1890b7	-0.009311846
208	0x3d4d5f85	0.050139923
209	0xbda459cc	-0.0802494
210	0xbd001eb5	-0.031279285
211	0x3c321c5c	0.010871019
212	0xbda36b1f	-0.07979416
213	0x3daea60a	0.08527763
214	0x3dfd85f8	0.12379068
215	0x3dca0205	0.098636664
216	0xbe0b0558	-0.13576257
217	0xbd8cba82	-0.06871511
218	0xbd039f9c	-0.032134637
219	0xbdb018e0	-0.085984945
220	0x3d472105	0.048615474
221	0xbdee1528	-0.11625129
222	0x3df0ac7e	0.1175165
223	0xbd2c683c	-0.042091593
224	0x3e0fbf14	0.14037734
225	0xbd9450da	-0.07241984
226	0xbd86a327	-0.065740876
227	0xbdc161ba	-0.09442468
228	0xbd57219e	-0.052522294
229	0xbdcdf957	-0.100573234
230	0x3d4c1637	0.049825873
231	0x3d77626a	0.06039659
232	0xbc5141ee	-0.0127720665
233	0xbdf89ea0	-0.1213963
234	0xbe067408	-0.131302
235	0x3dcbb021	0.09945703
236	0xbcba3ec1	-0.022735002
237	0xbd80ea16	-0.06294648
238	0xbdd8c53c	-0.105844945
239	0xbded4271	-0.11584938
240	0x3dd649bc	0.104632825
241	0xbd9470d0	-0.0724808
242	0xbac0ff6e	-0.0014724561
243	0xbbfd9b81	-0.007739485
244	0xbd8de115	-0.069276966
245	0x3daafe55	0.08349291
246	0xbd5a0f85	-0.053237457
247	0xbca21fb3	-0.019790506
248	0x3d817d60	0.063227415
249	0x3e024490	0.12721467
250	0x3d8bc44c	0.0682455
251	0xbd23d91c	-0.040001974
252	0x3df36ed3	0.118863724
253	0x3da03ef0	0.078245044
254	0xbd91a6d6	-0.071118996
255	0x3d039e00	0.032133102

net.0.linear.bias f4 [256]
0	0xbebf0a0d	-0.37312356
1	0x3e187cff	0.14891432
2	0x3e99ab01	0.30013278
3	0x3eb4f21c	0.35340965
4	0xbcc01a54	-0.023450054
5	0x3e8c25c3	0.2737256
6	0x3e452620	0.19252825
7	0x3dab5390	0.08365548
8	0x3e91626a	0.28395396
9	0x3e1fc408	0.15602124
10	0x3db95176	0.090487406
11	0x3de714bb	0.11283251
12	0xbe41e09c	-0.18933338
13	0xbeb55a3e	-0.35420412
14	0x3e51c757	0.20486198
15	0xbd5483d4	-0.051883534
16	0xbeba988b	-0.36444506
17	0xbbeab7d9	-0.0071630296
18	0x3d99a59b	0.0750229
19	0xbe367531	-0.17818142
20	0xbe2eec2b	-0.17082278
21	0x3e75b490	0.2399466
22	0xbe72d8ec	-0.23715562
23	0xbda6272a	-0.08112939
24	0xbe07afed	-0.13250704
25	0xbeabcb0b	-0.33553347
26	0x3e2aa38a	0.16663948
27	0xbea77e81	-0.32713702
28	0x3e06e725	0.13174112
29	0x3ebf591f	0.37372681
30	0xbec10de3	-0.37705907
31	0xbea5e78d	-0.32403222
32	0xbe562641	-0.2091303
33	0xbe8ae14f	-0.27125022
34	0xbc10d7ec	-0.008840542
35	0x3df7e9e1	0.12105156
36	0x3e070696	0.13186106
37	0x3e9dde82	0.30833822
38	0x3e2e190d	0.17001744
39	0x3da97e95	0.08276097
40	0xbc8b7d6c	-0.01702758
41	0x3ea017ac	0.3126806
42	0xbe3cbf23	-0.18432288
43	0xbe9cbadf	-0.3061132
44	0x3ebc7c87	0.36813757
45	0xbe3eaca8	-0.1862055
46	0xbd246ca7	-0.04014268
47	0xbe1200e8	-0.14258158
48	0x3dd8ce13	0.105861805
49	0xbea26827	-0.31720087
50	0x3e4f0c09	0.20219435
51	0xbebba775	-0.36651197
52	0xbe860c30	-0.26181173
53	0x3e438b93	0.19096212
54	0xbe1e9695	-0.1548713
55	0xbd82c34c	-0.06384906
56	0x3c9a77c7	0.018855942
57	0xbe015c5c	-0.12632889
58	0xbdd484cf	-0.10376894
59	0x3e1dd68a	0.15413871
60	0xbd75ae29	-0.059980545
61	0x3e847b96	0.2587554
62	0x3e33e89a	0.17569199
63	0x3e3ccc38	0.18437278
64	0xbeb2a160	-0.34888744
65	0x3ebe2fb8	0.37145782
66	0x3ea05d94	0.31321394
67	0xbebb9cac	-0.3664297
68	0x3ebd5a6a	0.36983043
69	0x3d5b6199	0.053559873
70	0x3bb6875e	0.0055703362
71	0xbea6b167	-0.32557222
72	0xbe9a75ca	-0.3016799
73	0x3ea9ab87	0.33138677
74	0x3df171bc	0.11789271
75	0x3e03753f	0.12837695
76	0xbdddb1ee	-0.10824953
77	0xbeb24081	-0.34814838
78	0x3e2e3ca9	0.17015328
79	0x3e961700	0.29314423
80	0xbe8c7241	-0.2743092
81	0x3e8de921	0.27716926
82	0xbd579f0a	-0.052641906
83	0xbe8f5959	-0.27997854
84	0xbe2f0f3e	-0.17095658
85	0x3ea3b0bb	0.31970772
86	0xbdb4228c	-0.08795652
87	0xbe855aa8	-0.26045728
88	0xbda36c43	-0.07979634
89	0xbea6e903	-0.3259965
90	0xbe99bcf0	-0.3002696
91	0xbd0928da	-0.033486225
92	0xbe56680c	-0.20938128
93	0x3dc0610e	0.09393512
94	0x3e2d25f3	0.16909008
95	0xbda646b0	-0.08118951
96	0xbd903149	-0.070406504
97	0xbe080f02	-0.13286975
98	0x3e8eb2db	0.2787083
99	0x3ea25e69	0.31712654
100	0x3e8832d5	0.26601282
101	0x3e1ab593	0.15108328
102	0xbd747523	-0.059682023
103	0x3d95b018	0.07308978
104	0xbe870436	-0.263704
105	0x3e7cb41a	0.24678078
106	0xbdf6778f	-0.12034523
107	0x3e804742	0.25054365
108	0x3e10e942	0.14151481
109	0xbebc2d7c	-0.36753452
110	0x3e8a2620	0.26982212
111	0xbdf4ed3f	-0.119593136
112	0x3e891b66	0.26778716
113	0xbdf11785	-0.11772064
114	0x3d0ac885	0.033882637
115	0x3d9220f6	0.07135193
116	0xbd00327d	-0.03129815
117	0x3dfdfbbd	0.12401531
118	0xbe18be73	-0.149164
119	0x3d2e8e99	0.04261646
120	0xbe0660c7	-0.13122855
121	0x3da8d52f	0.082437865
122	0xbe2aea0f	-0.16690849
123	0x3e597f3c	0.21239942
124	0x3e02dafe	0.12778851
125	0xbe2a18c9	-0.16611017
126	0x3d06f573	0.032948922
127	0xbd9feda4	-0.07808998
128	0xbe061c47	-0.13096724
129	0x3e9af734	0.30266726
130	0xbccf15ad	-0.02527889
131	0x3e954233	0.29152068
132	0x3e48102b	0.19537418
133	0x3eb34953	0.3501688
134	0x3e31621b	0.1732258
135	0xbd2a36cb	-0.04155616
136	0x3da64901	0.08119393
137	0x3e0032ff	0.12519453
138	0x3e212aa0	0.15738916
139	0xbdb15ab0	-0.086598754
140	0x3e78eadc	0.24308342
141	0x3d771406	0.06032183
142	0x3eb26427	0.34842035
143	0xbe976ff5	-0.29577604
144	0x3e8eb29d	0.27870646
145	0x3e2dee63	0.16985469
146	0x3e881c21	0.2658396
147	0xbea69364	-0.32534325
148	0x3dc2b735	0.095076
149	0xbe68db33	-0.22739868
150	0xbd5b75c0	-0.053579092
151	0xbea48ab9	-0.32137087
152	0xbd259e12	-0.04043395
153	0xbe6e4892	-0.23269871
154	0xbe4cd3a4	-0.2000261
155	0x3e2888f9	0.16458501
156	0x3c6200e9	0.013794162
157	0xbe9a67f7	-0.30157444
158	0x3bb40de7	0.0054948214
159	0xbe88e7ac	-0.26739252
160	0xbd04f63a	-0.032461382
161	0x3d2f27b8	0.042762488
162	0xbcb19120	-0.021675646
163	0xbea1b1b4	-0.3158089
164	0xbe1925ee	-0.14955875
165	0x3e7e86cb	0.24856107
166	0x3da7a4d3	0.081857346
167	0x3d56d53b	0.052449446
168	0x3e514d76	0.20439705
169	0xbe109925	-0.1412092
170	0xbe9f52c6	-0.3111784
171	0x3e8a35a0	0.26994038
172	0x3eb98983	0.36237726
173	0x3e354d87	0.17705356
174	0xbe815c03	-0.25265512
175	0xbe619422	-0.22029164
176	0xbeb7a9ef	-0.35871837
177	0x3eabdcda	0.33566934
178	0x3bb491cf	0.005510546
179	0xbde0033a	-0.109381154
180	0xbe8fca3e	-0.28083986
181	0x3e62460e	0.22097036
182	0x3e4c29e5	0.19937856
183	0xbe24cc10	-0.16093469
184	0xbd361741	-0.04445577
185	0x3ea3c7b1	0.3198829
186	0x3eacf09d	0.33777323
187	0xbeabb54a	-0.3353675
188	0x3e78fdc5	0.24315555
189	0x3e4c3cd1	0.19945075
190	0xbd86933d	-0.06571052
191	0xbeb6da19	-0.3571327
192	0x3e5490ed	0.2075841
193	0x3e205bff	0.15660094
194	0xbe69a8f8	-0.22818363
195	0x3d9008a1	0.07032896
196	0xbe3eede7	-0.1864544
197	0x3e028960	0.12747717
198	0x3eafaecf	0.34313056
199	0xbdf2238b	-0.118231855
200	0xbe6c357c	-0.23067278
201	0xbe81a0da	-0.25318033
202	0x3e8dd90b	0.27704653
203	0x3e881637	0.2657945
204	0xbe7784a0	-0.24171686
205	0xbe63c84a	-0.22244373
206	0x3ca6041f	0.020265637
207	0x3d899107	0.06717115
208	0x3eb92bdf	0.36166283
209	0x3e73c76d	0.23806544
210	0x3eb31845	0.34979454
211	0xbe826a39	-0.25471666
212	0x3e9d7849	0.30755833
213	0x3ea8718f	0.32899138
214	0x3e6e4e7d	0.23272128
215	0xbe81dccd	-0.2536377
216	0x3eaafe3a	0.33397084
217	0xbe013538	-0.12617958
218	0x3d8686d9	0.06568689
219	0xbe013c77	-0.12620722
220	0x3eadb06e	0.33923668
221	0x3e9b9dd1	0.30393842
222	0x3e1abc91	0.15110995
223	0xbe969799	-0.29412535
224	0xbe37bbd1	-0.1794274
225	0xbe617162	-0.22015908
226	0xbdf30c83	-0.11867621
227	0xbd9935ab	-0.074809395
228	0xbb98ed5f	-0.0046669687
229	0xbde0e527	-0.10981207
230	0xbdec2ab6	-0.11531584
231	0xbda828b3	-0.08210888
232	0x3e84c0e2	0.25928408
233	0x3d16a460	0.036777854
234	0x3e3255a5	0.17415483
235	0x3d2730b2	0.040817924
236	0xbdcbd89c	-0.09953424
237	0x3e5b4d6a	0.2141625
238	0xbea0679e	-0.31329054
239	0xbe3a6d88	-0.18205845
240	0x3e6c836a	0.23097005
241	0xbea54daf	-0.3228583
242	0xbde6a887	-0.11262613
243	0x3e5eb5a6	0.21748981
244	0xbc9ebade	-0.019376215
245	0xbd0dcb66	-0.034617804
246	0xbdac1d23	-0.08403995
247	0xbe69ba92	-0.22825077
248	0x3e52f3f7	0.20600878
249	0xbe190f89	-0.14947332
250	0x3ca7e02b	0.020492634
251	0xbe9686bc	-0.2939967
252	0x3e843998	0.2582519
253	0x3e5c7f08	0.21532834
254	0xbe9eb86e	-0.31000084
255	0x3e980bf5	0.29696622

net.1.linear.weight f4 [256, 256]
0	0x3b8c0758	0.0042733364
1	0x3b16752d	0.0022958026
2	0x3b200c74	0.0024421485
3	0xbaeb75a1	-0.0017964133
4	0xbb45def8	-0.0030192714
5	0x3920a091	0.00015318605
6	0x3a97f7f1	0.0011594278
7	0xbaa8fdc4	-0.0012893011
8	0x3b2dba78	0.002650885
9	0x3b92ef45	0.0044840896
10	0xb9719f55	-0.00023042907
11	0xbb057419	-0.002036339
12	0xba8f7c9a	-0.0010947168
13	0x3a45d715	0.00075470033
14	0xbb962844	-0.0045824368
15	0x3b8436b8	0.0040348433
16	0x3b71d72f	0.003690194
17	0x3a2522d9	0.0006299443
18	0x3add22e0	0.0016871355
19	0x3b9d5841	0.0048017805
20	0x3b0f2117	0.0021839791
21	0xba8b7158	-0.0010638637
22	0xb9c933df	-0.00038376354
23	0x3b52f189	0.0032187423
24	0xba35876f	-0.0006924783
25	0xba890b9d	-0.0010455732
26	0xbb5af605	-0.00334108
27	0x3b044aa3	0.0020186089
28	0xbb8d8914	-0.0043193195
29	0xb9a98bbc	-0.00032338302
30	0xbb97f196	-0.0046369536
31	0x3a7c81cb	0.0009632378
32	0xbb9dee08	-0.0048196353
33	0xbb7085f3	-0.0036700934
34	0x3a167fa8	0.0005741068
35	0xbb048c50	-0.0020225234
36	0x3b49c562	0.0030787815
37	0xbaff017c	-0.0019455398
38	0x3b74d557	0.0037358606
39	0xb9f023e8	-0.0004580312
40	0x3a5b5774	0.00083672185
41	0x3a6da68d	0.00090656505
42	0x3b152a09	0.002276065
43	0x3b9bfcc0	0.0047603548
44	0x3b75a8d0	0.0037484653
45	0x3b140c5d	0.0022590377
46	0xbb7d9251	-0.0038691948
47	0x3a738a94	0.0009290364
48	0xbb154008	-0.0022773761
49	0xbadc7b45	-0.0016821405
50	0xba156927	-0.0005699568
51	0xbb40ca8b	-0.00294176
52	0xbb6af8aa	-0.0035853782
53	0x3a751cc9	0.00093502976
54	0xbb9e740c	-0.004835611
55	0xbb347631	-0.0027536268
56	0x3b04412a	0.0020180442
57	0x3a8988d3	0.0010493047
58	0xba5538b2	-0.00081337534
59	0x3ae3902d	0.0017361693
60	0xbb8a346c	-0.004217675
61	0xbb7fdb40	-0.0039040595
62	0x3b17dba9	0.00231717
63	0xbb3ea536	-0.0029090173
64	0x3b07f1b0	0.0020743422
65	0x3ba59cf0	0.005054109
66	0xb88021c6	-6.1098064e-05
67	0xbb4cc07b	-0.0031242657
68	0x3b8c2136	0.00427642
69	0x3b13e04e	0.0022564116
70	0xbb932178	-0.004490074
71	0xba0e2256	-0.00054219866
72	0xbb6301d6	-0.0034638545
73	0xbb142d0e	-0.0022609862
74	0xb791b042	-1.7367423e-05
75	0xbb9fd2b3	-0.004877412
76	0xbb900607	-0.0043952498
77	0x3a814a62	0.0009864087
78	0xbb9ea6d3	-0.0048416643
79	0xba87740f	-0.0010334271
80	0x3ba700d8	0.005096536
81	0xbb903cbc	-0.0044017714
82	0x3b8f5d0f	0.004375107
83	0x3b1cf9f9	0.0023952706
84	0xbba459ba	-0.005015579
85	0x3b470bf3	0.0030372113
86	0xbafa2b40	-0.0019086376
87	0xbb0ea03c	-0.0021762988
88	0xbae60a7e	-0.0017550734
89	0xbb9539b3	-0.0045539974
90	0x3b2c2ee0	0.0026273057
91	0x3b2afb8c	0.0026089875
92	0x39ce4644	0.00039343734
93	0x3b3f013f	0.002914503
94	0x3b8ad3eb	0.0042366884
95	0x3b005ac3	0.0019585348
96	0x3b9bb6b4	0.0047520045
97	0xbb051d26	-0.0020311563
98	0x3a51513e	0.00079848233
99	0xbb441fc3	-0.0029926158
100	0xbb3e0e13	-0.0029000088
101	0xbac28da9	-0.0014843243
102	0x3ba6ca7e	0.005090057
103	0xbb3163a4	-0.0027067447
104	0xbba051d7	-0.0048925686
105	0x3a0cf2dd	0.00053767656
106	0x3ac111aa	0.0014729996
107	0x3b01baf3	0.0019795268
108	0xbb5e2195	-0.0033894528
109	0xbb36dd95	-0.002790307
110	0xbaa88038	-0.0012855595
111	0x3abf47e0	0.0014593564
112	0xba9094c5	-0.0011030665
113	0xbabcb286	-0.0014396466
114	0x3aefca8b	0.0018294615
115	0xbaf133ae	-0.0018402243
116	0x3b9c39b4	0.004767621
117	0xbade12b3	-0.0016942829
118	0x3b575ef2	0.0032862988
119	0xbb0b0d28	-0.0021217559
120	0x3b786285	0.003790052
121	0x39ab2ad8	0.00032647583
122	0x3b580b69	0.0032965785
123	0x3a5ef7f9	0.0008505579
124	0x3ba0134c	0.004885113
125	0xbb8250c2	-0.0039769122
126	0xbb334f3c	-0.002736046
127	0x3b7d17c6	0.0038618906
128	0x3b95ee63	0.004575537
129	0xba84f312	-0.0010143241
130	0x3b20a97c	0.0024515083
131	0x3b0354c2	0.0020039533
132	0xbb900725	-0.004395383
133	0x3b028422	0.0019915183
134	0x3b6714c6	0.0035260185
135	0x3b5fcff5	0.0034151052
136	0xbba477c8	-0.005019162
137	0xbb994618	-0.0046775453
138	0xbba11e93	-0.004916975
139	0x382c673c	4.110414e-05
140	0xba949381	-0.0011335463
141	0x3b0f8c80	0.0021903813
142	0x3b12e9ff	0.0022417305
143	0x39ac6351	0.00032880393
144	0xbb8e8c31	-0.004350208
145	0xbb0ff4fd	-0.0021966093
146	0xba39a149	-0.00070812233
147	0xbacc594c	-0.0015590577
148	0x3b8414b6	0.0040307892
149	0xbae2bad8	-0.0017298115
150	0x3b46c7e0	0.0030331537
151	0xbb84be11	-0.004050978
152	0xbb84d6bc	-0.0040539186
153	0xba111764	-0.00055347965
154	0xba0cd71f	-0.0005372632
155	0xbb80f8ef	-0.003935925
156	0xbb7254d3	-0.0036976829
157	0xba598d60	-0.00082989596
158	0xbb99ffe0	-0.004699692
159	0x38a6dcd1	7.956627e-05
160	0x3b3da88d	0.0028939575
161	0xbac457e1	-0.0014979803
162	0x3a9ed5d1	0.0012118166
163	0x3b46873d	0.003029301
164	0x3b848f06	0.00404537
165	0xbad21e18	-0.0016030697
166	0x3b690fac	0.003556232
167	0xbb5821a3	-0.0032979033
168	0x3b483015	0.0030546237
169	0x3973f89a	0.00023266897
170	0x3a75ba15	0.00093737367
171	0x3a3f9e38	0.0007309648
172	0xb99b6693	-0.00029640328
173	0x3b86622c	0.0041010585
174	0x3ad4f3b9	0.0016246951
175	0x3b77f7cb	0.0037836905
176	0xbb808ffe	-0.003923415
177	0xbb874bf7	-0.0041289288
178	0x3ae3184b	0.0017325965
179	0xbb8defee	-0.0043315804
180	0x3b9edc00	0.0048480034
181	0xba802d2f	-0.0009779091
182	0xbb9afb97	-0.004729699
183	0x3aa34909	0.0012457679
184	0xbba4056a	-0.005005528
185	0x3b8f74cf	0.0043779383
186	0xbb202ca1	-0.0024440663
187	0xbb947d86	-0.004531565
188	0x39b1a401	0.00033882263
189	0xbaff7fa5	-0.0019492997
190	0x3ba5f239	0.0050642756
191	0xbb2cdaa2	-0.0026375432
192	0xbb2569d0	-0.002524007
193	0xbb92094f	-0.004456676
194	0xbb723b56	-0.0036961637
195	0xbb1487ed	-0.0022664026
196	0xbb56a9eb	-0.0032755088
197	0x3b711ceb	0.0036790918
198	0x3ba4b7c3	0.005026789
199	0xbb3a0a65	-0.0028387543
200	0x3a9a7613	0.0011784456
201	0xbb6ef559	-0.0036462157
202	0xbb9a0a19	-0.0047009108
203	0x3b4ebe20	0.0031546429
204	0x3b79185b	0.0038008902
205	0xbb924c89	-0.00446469
206	0xbae24535	-0.0017263057
207	0x3b810c20	0.003938213
208	0x3b3e8fa7	0.0029077323
209	0x3b233e9a	0.002490914
210	0xbb961f1e	-0.004581346
211	0x3a321099	0.00067926344
212	0x379bf756	1.8592615e-05
213	0x3b0cb97e	0.0021472867
214	0xb9dd4ed2	-0.0004221113
215	0xbba46c53	-0.005017796
216	0x3b73eb3b	0.0037219066
217	0xb757c4fa	-1.2860861e-05
218	0x3b69b34f	0.0035659855
219	0x3a0cda9d	0.0005373152
220	0x3b8930dd	0.004186733
221	0xbb00c013	-0.0019645735
222	0xbb73d358	-0.0037204828
223	0x3a794dde	0.00095101993
224	0xbb676fca	-0.0035314434
225	0x3b89d04f	0.0042057405
226	0x3b531986	0.0032211258
227	0x39c07700	0.00036709756
228	0xbb04ac13	-0.0020244166
229	0xbb317860	-0.0027079806
230	0xbb16488e	-0.002293143
231	0x3b215056	0.0024614534
232	0xba362c9d	-0.0006949397
233	0x3ba5b5da	0.005057079
234	0x3b2ad721	0.0026068168
235	0xbb09ffb3	-0.002105695
236	0xbb0327d7	-0.002001276
237	0x3b43ffb8	0.002990706
238	0xbb5fbb02	-0.0034138565
239	0x3ba05035	0.004892374
240	0x3a00690d	0.0004898466
241	0xbb77644b	-0.0037748988
242	0x3b9d1ba7	0.004794556
243	0xbb9c64af	-0.0047727446
244	0xba9e61b3	-0.001208356
245	0xbb9ac9a1	-0.004723743
246	0xbb7f7cf4	-0.003898439
247	0x3995d1b4	0.00028575736
248	0xbb926906	-0.004468086
249	0xbb8ca765	-0.004292416
250	0x3b0185c4	0.0019763568
251	0xbb7bc93e	-0.003841951
252	0x3abc7e41	0.0014380888
253	0xba7accfd	-0.0009567289
254	0xbad1bf35	-0.0016002419
255	0x381216d0	3.483036e-05

net.1.linear.bias f4 [256]
0	0x3d56071c	0.052252874
1	0x3d28a548	0.04117325
2	0x3c240688	0.010011323
3	0xbc028fd8	-0.007968865
4	0x3d136aba	0.035990454
5	0xbcbe44b4	-0.02322612
6	0x3b3665a0	0.002783157
7	0x3c038618	0.008027576
8	0x3bbeb2a0	0.0058196336
9	0x3be7b700	0.007071376
10	0xbd69766c	-0.0569977
11	0x3d3adff0	0.04562372
12	0x3d7600f0	0.060059488
13	0x3d272e2c	0.040815517
14	0x3d0d80c8	0.034546643
15	0xbd040a2e	-0.03223627
16	0x3cf6c664	0.030123897
17	0x3d180006	0.037109397
18	0x3d4d4aee	0.050120287
19	0xbd4c39df	-0.049859878
20	0xbcbfa700	-0.023395061
21	0xbd3ded24	-0.046368733
22	0x3d5097a2	0.05092586
23	0x3d726106	0.05917456
24	0xbd468c72	-0.048473783
25	0xbd69184c	-0.056907937
26	0x3cf0db14	0.02940134
27	0xbc24fba0	-0.010069758
28	0xbd3b9bc9	-0.045802865
29	0x3d18289c	0.037148103
30	0xbb9087a0	-0.004410699
31	0x3d439512	0.047749586
32	0x3cbbf890	0.022945672
33	0x3d04191a	0.0322505
34	0x3ccc4c9c	0.024938874
35	0x3d7a5f16	0.061125837
36	0x3baf7150	0.005354084
37	0x3d0d4350	0.034488022
38	0x3c2ed5b8	0.010671072
39	0x3d28275c	0.04105316
40	0xbc8827bc	-0.01662051
41	0xbd0927f6	-0.033485375
42	0xbd7c85b9	-0.061650965
43	0xbcc353ae	-0.023843613
44	0x3d45a48c	0.048252627
45	0x3bcec9c0	0.0063106716
46	0x3c8328d4	0.01601068
47	0xbd03a000	-0.03213501
48	0xbce89c22	-0.028394762
49	0x3d08ae3a	0.03336928
50	0xbc996a2a	-0.01872738
51	0x3ae2f580	0.0017315596
52	0xbcca0956	-0.024662655
53	0x3d61ada4	0.055097237
54	0x3d1610a6	0.03663697
55	0xbd02e904	-0.031960502
56	0x3d3f5570	0.04671234
57	0xbbe364b0	-0.006939493
58	0xbd39db14	-0.045374945
59	0x3cba07d4	0.02270881
60	0x3c310740	0.010804951
61	0xbd72f3d7	-0.059314575
62	0xbd7cbf47	-0.061705854
63	0x3d6047a8	0.054755837
64	0x3d0d24ce	0.034458928
65	0xbaa297c0	-0.0012404844
66	0x3c045bc8	0.008078523
67	0xbd240086	-0.04003956
68	0xbd6383ea	-0.055545725
69	0x3d4675d8	0.04845223
70	0xbd651d1b	-0.05593596
71	0xbd2fd288	-0.042925388
72	0x3d78bbc6	0.06072595
73	0xbd2e1df4	-0.042509034
74	0x3d5efe54	0.054441765
75	0xbd0469ea	-0.03232757
76	0xbbb71400	-0.005587101
77	0x3d70561a	0.058675863
78	0x3d7731c6	0.060350202
79	0xbd083144	-0.03325011
80	0xbcdeba64	-0.027188487
81	0xbc106ff0	-0.0088157505
82	0x3c7a3e98	0.015273713
83	0xbc36ba64	-0.011152837
84	0x3d634cfa	0.055493332
85	0xbd575244	-0.05256869
86	0xbc1aa390	-0.00943841
87	0xbb413f90	-0.002948735
88	0x3bd3abd0	0.0064596906
89	0x3d41ba32	0.04729671
90	0xbd2b853a	-0.0418751
91	0x3d6c068a	0.057623424
92	0xbcceb6b4	-0.025233604
93	0x3d66f5d6	0.05638679
94	0x3cbc7c58	0.02300851
95	0x3cab1cdc	0.020887785
96	0xbc0baff8	-0.008525841
97	0x3c5ba5a8	0.013406195
98	0xbd204c66	-0.03913536
99	0xbd3b86f8	-0.045783013
100	0x3d511772	0.05104775
101	0xbc87ab10	-0.016561061
102	0x3cd10c4c	0.025518559
103	0xbd231e3e	-0.039823763
104	0x3bf505b0	0.0074774846
105	0x3cd628e0	0.026142538
106	0xbd69a04b	-0.057037633
107	0x3c38e000	0.0112838745
108	0xbc7e17b0	-0.015508577
109	0xbb37cd40	-0.0028045923
110	0xbbec50d0	-0.007211782
111	0x3d347c1e	0.04406368
112	0x3ce80ed0	0.028327376
113	0x3bd02e10	0.0063531473
114	0xbd53e532	-0.05173225
115	0xbbc793d8	-0.0060906224
116	0xbd0ad390	-0.033893168
117	0xbd23dba1	-0.040004376
118	0xbc930240	-0.017945409
119	0xbcbdfc3a	-0.02319156
120	0x3d6d90f0	0.05799955
121	0x3d5efbb2	0.054439254
122	0x3c201030	0.009769484
123	0xbd56dedf	-0.05245864
124	0xbcb1cdfe	-0.02170467
125	0xbd4727da	-0.04862199
126	0x3cab6c14	0.02092556
127	0xbd7bdfbf	-0.061492678
128	0xbd545c6c	-0.051845953
129	0xbd63e1df	-0.05563533
130	0x3ce7c330	0.028291315
131	0x3bc58270	0.0060275123
132	0x3c388428	0.011261977
133	0x3c3899a8	0.011267103
134	0xbc8d70a2	-0.017265622
135	0xbd04f67e	-0.032461636
136	0x3c473180	0.012157798
137	0x3d3db9a0	0.046319604
138	0x3d18ecfc	0.03733538
139	0xbd397084	-0.04527332
140	0x3cdbd464	0.026834674
141	0xbd5f93dc	-0.05458437
142	0xbbfac098	-0.0076523535
143	0xbcd8b1ea	-0.026452024
144	0xbd07086a	-0.03296701
145	0x3c7b7dc8	0.015349813
146	0x3ba45b20	0.0050157458
147	0x3d078624	0.03308691
148	0x3c8b38d8	0.016994879
149	0x3c1d0ea0	0.009586006
150	0x3d68792a	0.056756176
151	0x3d7c8bf0	0.061656892
152	0xbc0b3278	-0.008495919
153	0x3cd89898	0.02643995
154	0xbccd56ca	-0.025065798
155	0xbd633f98	-0.05548057
156	0xbc803b18	-0.015653178
157	0xbd7ea13c	-0.062165484
158	0xbd6186df	-0.055060264
159	0xbd2da99a	-0.042398073
160	0x3d655270	0.05598682
161	0x3ba47e70	0.0050199553
162	0x3d325354	0.0435365
163	0x3cc66c5c	0.024221592
164	0xbd3941dc	-0.045228824
165	0x3c64b700	0.013959646
166	0xbc38e1dc	-0.011284318
167	0x3d2e3896	0.042534433
168	0xbd6245b5	-0.05524226
169	0xbc4be760	-0.012445301
170	0xbd48739c	-0.04893838
171	0xbd18ef30	-0.037337482
172	0x3d6cdf70	0.057830274
173	0xbbb42fb0	-0.005498849
174	0xbcb7a712	-0.022418533
175	0x3cc2f9c0	0.02380073
176	0xbd6211e4	-0.055192843
177	0x3cfc2d78	0.0307834
178	0xbd3d7ee4	-0.04626359
179	0xbd1c6798	-0.038184732
180	0x3d5157a2	0.051108964
181	0x3d70c7f8	0.058784455
182	0x3cc0ed78	0.023550734
183	0xbbb7fec8	-0.005615089
184	0x3d73fd3a	0.059567668
185	0x3d277226	0.040880345
186	0xbc80f198	-0.0157402
187	0xbc202fbc	-0.009777006
188	0xbbf08340	-0.007339865
189	0x3d56c46a	0.05243341
190	0xbd104c00	-0.03522873
191	0x3d533938	0.05156824
192	0x3d5e55ba	0.054280974
193	0xbb9f0f60	-0.0048541278
194	0x3d58e90e	0.052956633
195	0x3d55f60e	0.05223661
196	0x3d03826c	0.032106802
197	0x3c185368	0.009297229
198	0xbd3e8a5e	-0.046518676
199	0xbc8b47e0	-0.017002046
200	0xbc3c46c4	-0.011491481
201	0x3c10f3b0	0.008847162
202	0x3c805d48	0.01566948
203	0xbd07345c	-0.03300892
204	0xbd7d9876	-0.061912976
205	0xbd1f96c8	-0.038962156
206	0xbcec592a	-0.02885111
207	0xbd0aca82	-0.033884533
208	0xbd437cc3	-0.047726404
209	0xbb39b9d0	-0.0028339513
210	0xbcda1ba6	-0.026624512
211	0xbc313c3c	-0.010817584
212	0x3d7494a4	0.059712067
213	0x3bedf260	0.0072615594
214	0xbd604289	-0.054750953
215	0xbd6444eb	-0.055729788
216	0xbcf5c132	-0.02999935
217	0xbd4bc173	-0.049745034
218	0xbcdbb122	-0.026817862
219	0xbc7487a8	-0.014924921
220	0xbd0450aa	-0.03230349
221	0xbd3ea242	-0.04654146
222	0xbd09a74c	-0.033606812
223	0xb9670600	-0.00022032112
224	0x3cd3ea70	0.025868624
225	0xbd444870	-0.047920644
226	0xbcaae18e	-0.020859506
227	0x3c6ddd60	0.014518112
228	0xbcd874b0	-0.026422828
229	0xbc908936	-0.017643552
230	0x3d1bd054	0.038040474
231	0x3bdafa00	0.0066826344
232	0x3c204b00	0.009783506
233	0xbd450abd	-0.048105944
234	0x3d78eb10	0.060771048
235	0x3d471cbc	0.048611388
236	0x3d5bc936	0.053658687
237	0xbd591428	-0.052997738
238	0x3d2caa42	0.042154558
239	0xbcec0e18	-0.028815314
240	0x3d3cb4f6	0.046071015
241	0x3cdd7ec4	0.027037986
242	0x3ccb242c	0.024797522
243	0x3b83fa50	0.0040276423
244	0x3d09057e	0.033452503
245	0x3d29af6a	0.041427054
246	0x3cc3c648	0.023898259
247	0xbce545fe	-0.027987476
248	0xbd76073b	-0.06006549
249	0xbccd7b26	-0.025083136
250	0xbc3c59f0	-0.011496052
251	0xbd475cd0	-0.048672497
252	0x3d47cf3c	0.04878162
253	0x3d77d072	0.060501523
254	0xbd6f26e7	-0.05838671
255	0x3d5b6f2a	0.05357281

net.2.linear.weight f4 [256, 256]
0	0xbab5aa3a	-0.0013859936
1	0xbb8747d8	-0.0041284375
2	0xbb9e80bb	-0.004837123
3	0xbabf10ab	-0.0014577111
4	0xbb64f079	-0.0034933372
5	0x38ba2507	8.876068e-05
6	0xba37d850	-0.0007013129
7	0xbb86ba87	-0.0041115913
8	0x3a3202e1	0.000679059
9	0xbb0c32a5	-0.0021392491
10	0xbb904782	-0.0044030556
11	0xbb9ff3d9	-0.004881364
12	0x3abd929f	0.0014463252
13	0xbadd0cdc	-0.0016864794
14	0xbae6947b	-0.0017591858
15	0xbba69e0d	-0.005084759
16	0xb9ef00c9	-0.00045586217
17	0x3b37c0e9	0.0028038567
18	0x3a217687	0.00061593245
19	0x3b5c4c98	0.003361499
20	0xb9861d12	-0.0002558013
21	0xba89f78d	-0.0010526046
22	0xba360b4d	-0.0006944433
23	0xbae945e6	-0.0017797321
24	0xbb609100	-0.0034266114
25	0x3af3c973	0.0018599465
26	0xbb10b6b6	-0.002208156
27	0xbb0627a5	-0.0020470407
28	0x3b36cd01	0.0027893188
29	0xbb26e0fc	-0.002546369
30	0x38a3b8bb	7.8068544e-05
31	0x3b3653fa	0.002782105
32	0xbb985380	-0.004648626
33	0xbb4a7746	-0.0030893846
34	0x3b3a37a2	0.0028414507
35	0x3a524d8b	0.0008022419
36	0x3ab594de	0.001385357
37	0x3b72efa6	0.003706911
38	0x3b286ddf	0.0025700254
39	0xbb851272	-0.0040610367
40	0x3b2156c4	0.0024618367
41	0xbb86dde0	-0.004115805
42	0x3b6c6401	0.003607035
43	0x3a3e6246	0.00072625687
44	0xbb897ceb	-0.0041957996
45	0xbb83b7e8	-0.004019726
46	0xbb035916	-0.0020042113
47	0xb99e6978	-0.0003021469
48	0x3803bde2	3.1409676e-05
49	0x3b5c579b	0.0033621553
50	0xbb331025	-0.0027322855
51	0xbb316eda	-0.002707413
52	0x3a0c0ec6	0.00053427776
53	0x3b863f07	0.004096869
54	0xbb940a28	-0.0045178123
55	0xbb9e299f	-0.004826739
56	0x3accc2a7	0.0015621976
57	0xbba18ce7	-0.004930127
58	0xbb842ec4	-0.004033895
59	0xbb1696f5	-0.002297816
60	0x3b9dc21b	0.004814399
61	0xba07dfad	-0.00051831716
62	0x3b16adca	0.002299177
63	0x3b8e80fd	0.0043488727
64	0x3b7de59a	0.003874159
65	0x3b98fd30	0.004668854
66	0x3b8c5b41	0.0042833393
67	0xb9f1a2c3	-0.0004608837
68	0x38a77557	7.985037e-05
69	0x3abe6b51	0.0014527832
70	0x3b1de008	0.0024089832
71	0xbb458191	-0.0030137042
72	0xbb68db35	-0.0035531048
73	0x3b73c5fd	0.0037196868
74	0x3b99131d	0.004671468
75	0x3a8adf63	0.0010595139
76	0xbae5a50b	-0.00175205
77	0x3b2814c5	0.0025647145
78	0xbb06e2df	-0.0020582003
79	0x3ac54d7b	0.0015052998
80	0xbb887852	-0.004164734
81	0xbb827440	-0.0039811432
82	0xbb09050d	-0.0020907552
83	0xbb53fe45	-0.0032347601
84	0x3adb3e4e	0.0016726942
85	0x3b33928e	0.0027400586
86	0xbb269e14	-0.0025423812
87	0x382506d7	3.9345436e-05
88	0x3ba558fa	0.005046007
89	0xbb1c8ade	-0.0023886482
90	0xbb2b7c08	-0.0026166458
91	0x3b713516	0.0036805323
92	0x3b9d0790	0.0047921613
93	0xbaecfb23	-0.0018080216
94	0xb8f53eb6	-0.00011694191
95	0xba310c86	-0.00067538803
96	0xbb0d73f6	-0.002158401
97	0x3a459b84	0.0007538127
98	0xbb8947b7	-0.0041894573
99	0x3b2fb53f	0.0026810912
100	0x3aefa569	0.0018283549
101	0xbba42741	-0.0050095622
102	0x3ac80da6	0.0015262857
103	0xba847b52	-0.0010107553
104	0x3a5990e8	0.0008299486
105	0xbb9964cb	-0.004681205
106	0x3b9c55fd	0.004770993
107	0xb96cfa84	-0.00022600038
108	0x3aeab50c	0.0017906739
109	0xbb84996c	-0.0040466096
110	0xbaaba9f1	-0.0013096911
111	0xbad20dd8	-0.0016025854
112	0xbb1648d9	-0.0022931604
113	0xbb688884	-0.003548176
114	0x3b5c5afa	0.0033623562
115	0xbad1a433	-0.001599437
116	0x3ae68f51	0.0017590319
117	0xbae54c83	-0.0017494116
118	0xbb92110f	-0.0044576
119	0xbab77f0a	-0.0013999653
120	0xba70bead	-0.00091836863
121	0xbb41e10d	-0.0029583604
122	0x3b8ab3c7	0.004232857
123	0xbb86735e	-0.0041031083
124	0xbb8010f9	-0.0039082733
125	0x3a8b3f39	0.00106237
126	0x393ad1f6	0.00017816559
127	0x3ab2fbca	0.0013655361
128	0x3afb6682	0.001918033
129	0x3b93e24a	0.0045130597
130	0xba24126c	-0.00062588486
131	0xb9623ccd	-0.0002157569
132	0xba5212bc	-0.0008013656
133	0xbb84af82	-0.0040492425
134	0x3b437ec3	0.0029830195
135	0x3b063e55	0.002048393
136	0x3b97f9e4	0.0046379436
137	0x3910c474	0.00013806095
138	0xba979622	-0.0011565129
139	0x3a0b502a	0.00053143746
140	0x3b4e9e49	0.003152745
141	0x3ba28d70	0.0049607083
142	0xbb86d63e	-0.004114895
143	0x3b937ca5	0.004500943
144	0xbb8c2f98	-0.0042781346
145	0x3ad732c8	0.0016418332
146	0xba5aa2b3	-0.0008340284
147	0xba5f8c2a	-0.0008527661
148	0xbb890ea8	-0.0041826554
149	0xbab3c86d	-0.0013716348
150	0xbb45c4b1	-0.0030177052
151	0x3ae38f76	0.001736148
152	0x3b51a1c8	0.0031987298
153	0xba735aa1	-0.0009283219
154	0xbb90b7ad	-0.004416427
155	0x3ac168c3	0.0014755953
156	0x3adf0b2e	0.0017016882
157	0x3aa5324d	0.0012603492
158	0x3a6e73fb	0.0009096262
159	0xbb502a68	-0.0031763557
160	0xb9128863	-0.00013974453
161	0x3b38249e	0.0028097997
162	0x3b90f39d	0.004423572
163	0xbb81e1e4	-0.003963696
164	0xba9580e9	-0.0011406216
165	0x3ac0c496	0.0014707025
166	0xbb5cb4f3	-0.003367719
167	0x3b8cb0a0	0.0042935163
168	0xb74daf8a	-1.2259823e-05
169	0x3ac5f3e2	0.001510259
170	0x39c1e296	0.00036980648
171	0x3b8695f6	0.004107232
172	0x3b839329	0.0040153456
173	0xbba6b1e3	-0.0050871237
174	0x3b976a4b	0.0046208254
175	0xbade2bbf	-0.0016950293
176	0x3ae1fab9	0.0017240859
177	0xbba453e9	-0.0050148857
178	0xb9d3307d	-0.00040281183
179	0x3a42389a	0.0007408947
180	0x3b8b8764	0.004258083
181	0x3ac9c50c	0.0015393808
182	0xba736e79	-0.0009286176
183	0xba755c16	-0.000935973
184	0xbb9d4ce6	-0.004800427
185	0xbb61f69c	-0.0034479266
186	0xba06be59	-0.00051400583
187	0xbb818a0b	-0.0039532236
188	0xbb89bf0e	-0.0042036837
189	0xbb29ce26	-0.0025910228
190	0x3b57f31c	0.00329513
191	0xbab253c6	-0.0013605289
192	0x3a0c050f	0.000534133
193	0x3a919f56	0.0011110108
194	0x39fe6e39	0.00048528778
195	0xbb66cd33	-0.0035217523
196	0x3b52f8da	0.0032191784
197	0xbb5748a6	-0.0032849698
198	0xbb444164	-0.0029946202
199	0xbb8d945e	-0.0043206653
200	0x3abaeca4	0.0014261198
201	0x3b1d89ab	0.0024038355
202	0x3b2ec245	0.0026666087
203	0xb9881de9	-0.00025962226
204	0x3b4cf979	0.0031276627
205	0xbb69d7e7	-0.0035681666
206	0x3a521ead	0.00080154353
207	0x3a7b673e	0.00095902744
208	0x3b983602	0.00464511
209	0x3b21b127	0.0024672241
210	0xbb48fa77	-0.0030666867
211	0x3a92d30e	0.0011201815
212	0xba2e7ff0	-0.00066566374
213	0xbb66dff7	-0.0035228708
214	0xbba27d6f	-0.0049588005
215	0x39fa3119	0.00047720296
216	0x3b57efd2	0.003294934
217	0xbaa53d58	-0.0012606783
218	0xbb9e9051	-0.004838981
219	0xba98a960	-0.0011647157
220	0xbab1115f	-0.0013509205
221	0xbb86f2aa	-0.0041182833
222	0xbb873d4b	-0.0041271797
223	0x3b81b193	0.003957936
224	0xbad3606a	-0.0016126756
225	0x3b117637	0.0022195706
226	0xbb3038e1	-0.0026889371
227	0xbb0f0f4d	-0.0021829188
228	0xbb09627b	-0.002096324
229	0x3b3eaadd	0.0029093542
230	0x3af08312	0.0018349609
231	0x3b943b62	0.0045236805
232	0xbaf49ecf	-0.0018663051
233	0x3a457ec7	0.0007533845
234	0xbaa41dc3	-0.0012521077
235	0x38d0372f	9.9284916e-05
236	0x39b318a7	0.00034159908
237	0x3b37b251	0.002802987
238	0xb9611911	-0.0002146701
239	0x3b1a7947	0.0023570822
240	0xba320264	-0.00067905174
241	0x3b883bda	0.0041575255
242	0x3b9b2809	0.004734997
243	0x3b96f86f	0.0046072523
244	0x3919b85c	0.00014659896
245	0xba285d8d	-0.00064226316
246	0xbad21d7b	-0.0016030514
247	0x3b807c3c	0.00392106
248	0xbb0351c2	-0.0020037745
249	0x3a111b01	0.0005535335
250	0xbb273a7c	-0.0025517037
251	0x3b5ec344	0.00339909
252	0x399e3e66	0.000301826
253	0xbb1ed273	-0.0024234324
254	0x3b233a83	0.0024906702
255	0x39343297	0.00017184984

net.2.linear.bias f4 [256]
0	0x3ccb8230	0.024842352
1	0x3d129ae8	0.03579226
2	0x3d0914f4	0.033467248
3	0x3d2a70bc	0.041611418
4	0xbd416a4f	-0.047220524
5	0x3c1e3fa0	0.009658724
6	0x3d3398ba	0.043846823
7	0x3c710448	0.014710493
8	0x3cd21bb4	0.025647976
9	0x3d0da63e	0.03458237
10	0x3c62eb90	0.013850108
11	0x3cac3328	0.021020487
12	0xbd62642a	-0.055271305
13	0xbd7d8280	-0.061892033
14	0xbc4d3610	-0.012525097
15	0xbc051718	-0.008123182
16	0x3d2ca410	0.04214865
17	0xbd757893	-0.05992944
18	0xbac2f760	-0.0014874749
19	0xbce5976e	-0.028026309
20	0xbbfc25e8	-0.0076949485
21	0x3a9cb140	0.001195468
22	0xbcdd7686	-0.027034055
23	0x3d276bfa	0.04087446
24	0xbd4e88c1	-0.050423387
25	0x3d422796	0.047401033
26	0x3d4d237e	0.050082676
27	0xbc57db38	-0.013174824
28	0x3d4f3e40	0.050596476
29	0x3d6017a6	0.054710053
30	0x3d27207c	0.040802464
31	0x3d04d892	0.0324331
32	0xbc02c340	-0.007981122
33	0xbc9d3bfa	-0.019193638
34	0x3cdc9000	0.026924133
35	0x3b03fbe0	0.0020139143
36	0x3ca0bc40	0.019621015
37	0xbd6693db	-0.05629335
38	0x3d1d2bfe	0.038372032
39	0x3cb8c79c	0.022556119
40	0xbc1ccbf0	-0.009570107
41	0xbd44bcf1	-0.04803175
42	0x3d2cd2f2	0.04219336
43	0x3af9ad40	0.0019048825
44	0x3d0bd2c8	0.034136564
45	0x3d31e3b2	0.043430038
46	0xbcc9a20e	-0.024613407
47	0xbd1592fa	-0.03651712
48	0x3d7511ba	0.05983136
49	0x3d0681ea	0.03283874
50	0xbc97b67e	-0.018519636
51	0x3d3bd63e	0.045858614
52	0x3d1b9ec2	0.0379932
53	0x3c7794c8	0.015111156
54	0xbd6a9457	-0.057270374
55	0x3d30e11a	0.043183424
56	0xbcfc6cfa	-0.030813683
57	0x3d06b6e0	0.032889247
58	0xbafc7de0	-0.0019263588
59	0x3ce5194c	0.027966164
60	0xbc8e9bb6	-0.017408233
61	0xbcdbf346	-0.0268494
62	0xbc769704	-0.015050653
63	0xbcea0016	-0.028564494
64	0xbd5f73ed	-0.054553915
65	0xbd772a9e	-0.060343377
66	0x3c9650a0	0.018348992
67	0x3d332358	0.04373488
68	0xbd5e0d29	-0.05421177
69	0x3c8fbe94	0.01754693
70	0xbc8993e8	-0.01679416
71	0x3d404df2	0.046949334
72	0xbbbc51a0	-0.005747035
73	0x3d5879b4	0.05285044
74	0x3cc5180c	0.024059318
75	0xbc5f0db0	-0.013614103
76	0x3d79c95c	0.060983047
77	0xbd0ab4d0	-0.033863842
78	0xbcc7dd12	-0.024397407
79	0x3cb8f12c	0.022575937
80	0x3d704b14	0.05866535
81	0xbd0f1c58	-0.03493914
82	0xbcc622bc	-0.024186485
83	0x3c8a87e4	0.0169105
84	0x3d42459c	0.047429666
85	0x3c933ce0	0.017973363
86	0x3d1c9396	0.038226686
87	0x3d2364f8	0.039891213
88	0xbd6e9d5c	-0.05825554
89	0x3c9c0d90	0.019049436
90	0xbbf296f8	-0.007403251
91	0xbd0acfcc	-0.033889577
92	0xbcf34250	-0.029694706
93	0x3bc55d70	0.0060231015
94	0x3d3dcee4	0.046339884
95	0xbc8b4752	-0.017001782
96	0x3d42f12c	0.04759328
97	0x3d50d592	0.050984927
98	0xbcb64fa8	-0.02225478
99	0xbd20fa74	-0.03930135
100	0x3caa0950	0.020756394
101	0xbc383f10	-0.011245504
102	0x3bdaf190	0.0066816285
103	0xbcd07af2	-0.02544925
104	0x3d45eb48	0.048320085
105	0xbd1c4014	-0.038147047
106	0x3d486bfc	0.048931107
107	0xba911fc0	-0.0011072084
108	0x3d0b5c1a	0.03402338
109	0x3bd99500	0.0066400766
110	0xbd6d48a3	-0.0579306
111	0xbd214726	-0.039374493
112	0x3c67d140	0.01414901
113	0x3c4bf530	0.012448594
114	0xbd39b450	-0.045337975
115	0xbc2ed450	-0.010670736
116	0xbd423ac2	-0.047419317
117	0xbbd5b898	-0.0065222494
118	0x3cd5e848	0.026111737
119	0x3b30e720	0.002699323
120	0x3ade9fc0	0.0016984865
121	0xbd75ee3b	-0.060041647
122	0xbc979528	-0.01850374
123	0xbd75f8e1	-0.060051803
124	0x3b8c3700	0.0042790174
125	0x3d54bcfe	0.05193805
126	0x3d7f7c30	0.062374294
127	0x3d61ebb4	0.055156425
128	0xbd3a6d7f	-0.04551458
129	0xbd288328	-0.041140705
130	0xbd78fd0e	-0.060788207
131	0xbc2107fc	-0.009828564
132	0x3d281e9a	0.04104481
133	0x3cda0818	0.026615188
134	0x3d7d8c8e	0.06190162
135	0x3a94b340	0.0011344925
136	0x3d2435e4	0.040090457
137	0x3d6e1f1e	0.058135144
138	0x3d3c1ca4	0.04592575
139	0xbd4d50e4	-0.05012597
140	0xbce210fc	-0.02759599
141	0xbd060cfe	-0.032727234
142	0x3d460f18	0.04835424
143	0xbc94b820	-0.018154204
144	0xbc45a444	-0.01206309
145	0xbd73d965	-0.059533495
146	0xbc8fbfb0	-0.017547458
147	0xbcc38ffc	-0.023872368
148	0x3c971d74	0.018446662
149	0x3d111602	0.03542138
150	0x3d3a4d8a	0.045484103
151	0xbd10dff2	-0.03536982
152	0x3d0ce446	0.034397386
153	0xbcc773c2	-0.02434719
154	0xbd681ede	-0.056670062
155	0xbd0ef229	-0.03489891
156	0x3d2a2b70	0.04154533
157	0x3bc84b00	0.0061124563
158	0x3d68e4c0	0.056858778
159	0xbcefaa14	-0.029255904
160	0x3cd326e4	0.02577538
161	0x3d090a44	0.033457056
162	0xbd73cf8d	-0.059524108
163	0x3cca7e7c	0.024718516
164	0xbd1c6f73	-0.038192224
165	0xbd36650d	-0.044529963
166	0x3d6994b6	0.057026587
167	0x3c5fb110	0.013653055
168	0xbd5b7f7a	-0.053588368
169	0x3c904fb4	0.01761613
170	0xbd4f505e	-0.050613753
171	0x3bccaed0	0.006246425
172	0xbd1926ce	-0.037390523
173	0xbd047ba4	-0.032344475
174	0x3ca26a70	0.019826144
175	0x3cb89d00	0.022535801
176	0xbbcb7110	-0.0062085465
177	0xbc3b6eec	-0.01144002
178	0xbd5a8f89	-0.053359542
179	0x3c343820	0.010999709
180	0x3c9459d0	0.018109232
181	0x3c11fd98	0.008910559
182	0xbce53bc0	-0.027982593
183	0xbc719fcc	-0.014747571
184	0xbc4b101c	-0.0123939775
185	0xbd2a07bb	-0.04151128
186	0x3d0d2ad0	0.034464657
187	0xbd339ad6	-0.043848835
188	0x3d03c540	0.032170534
189	0x3c8dc3c4	0.017305262
190	0xbd276c12	-0.04087455
191	0x3b861610	0.0040919855
192	0xbd33aa0a	-0.043863334
193	0xbcfccc32	-0.030859087
194	0x3b26a060	0.002542518
195	0x3d211b14	0.039332464
196	0xbc5b166c	-0.013372045
197	0xbc078dbc	-0.008273538
198	0x3c075068	0.008258916
199	0x3c8aee9c	0.016959481
200	0xbd38ade6	-0.045087717
201	0xbc3d6e74	-0.011561979
202	0xbc75eee8	-0.015010573
203	0x3d770e32	0.060316272
204	0x3cefd82c	0.029277883
205	0xbd19b0c4	-0.037522092
206	0x3cbb9b8c	0.022901319
207	0x3cc43e08	0.02395536
208	0xbd389dce	-0.04507237
209	0xbbb43890	-0.005499907
210	0xbd1e6854	-0.038673714
211	0x3d40307c	0.04692124
212	0xbc8f80e0	-0.017517507
213	0x3d1c9620	0.038229108
214	0x3d550dc4	0.05201508
215	0x3d21ee22	0.03953374
216	0x3d72e106	0.05929663
217	0x3d2a7f76	0.041625462
218	0xbd0b7c56	-0.034054123
219	0x3d25c434	0.040470317
220	0x3d3c96d4	0.04604228
221	0x3c5e0618	0.013551258
222	0xbd60dd39	-0.054898474
223	0xbd5ac9c4	-0.053415075
224	0x3d704c92	0.058666773
225	0xbc5f81bc	-0.013641771
226	0x3cd1ae7c	0.025595896
227	0x3d7f0ecc	0.06226997
228	0x3cbf37dc	0.023342066
229	0x3c940814	0.018070258
230	0xbc809de8	-0.015700296
231	0xbd5254a5	-0.051350255
232	0xbd50f3fc	-0.05101393
233	0x3cf5a2b4	0.02998481
234	0x3d1472ae	0.03624218
235	0xbbc4d3e0	-0.006006703
236	0xbbfc09b0	-0.0076915845
237	0x3cd02d50	0.025412232
238	0x3d5e902c	0.05433671
239	0xbcaf4992	-0.021397386
240	0xbd72b408	-0.059253722
241	0x3cb0bd80	0.021574736
242	0xbd48dde5	-0.04903974
243	0xbd085e36	-0.03329297
244	0xbd15b5a4	-0.03655018
245	0xbd31e378	-0.04342982
246	0x3c1e42a8	0.009659447
247	0xbd060f1f	-0.032729264
248	0xbd192b1e	-0.037394635
249	0xbcb9e69a	-0.022692967
250	0xbd5a87bf	-0.053352114
251	0x3d03081a	0.031990148
252	0xbd11dc6e	-0.03561061
253	0x3d2fc74a	0.042914666
254	0x3d025d74	0.031827405
255	0x3d10ab70	0.035319746

net.3.linear.weight f4 [256, 256]
0	0x3b7ef767	0.0038904788
1	0xbacd55f3	-0.0015665874
2	0xbb6bb529	-0.0035966134
3	0x3b4105e3	0.0029452972
4	0xbb398558	-0.0028308239
5	0x3b8ab0c3	0.0042324974
6	0xb9f847ef	-0.0004735584
7	0x3b328cad	0.0027244494
8	0xbb96d4f4	-0.0046030227
9	0x3b30782d	0.00269271
10	0xbba490c2	-0.0050221393
11	0x3aaad1dd	0.0013032515
12	0x3a88df52	0.0010442531
13	0xbba0230e	-0.0048869913
14	0x3b8407b8	0.0040292405
15	0xbacd03f7	-0.001564144
16	0xbb7c872b	-0.0038532715
17	0xba673ff7	-0.0008821482
18	0xba4efe82	-0.0007896201
19	0x3a0072ba	0.0004899908
20	0xbb771419	-0.0037701188
21	0xbb8f7732	-0.004378223
22	0x3ba3a7e0	0.0049943775
23	0x39c04abe	0.0003667678
24	0xba7bb5c0	-0.0009601973
25	0xbaf2ad32	-0.0018514751
26	0xb9895548	-0.00026194216
27	0xbb914aea	-0.0044339793
28	0xba821faa	-0.000992765
29	0xbba285c5	-0.004959794
30	0xbb7fbfab	-0.0039024155
31	0x3b8541a4	0.004066663
32	0xba5d321f	-0.00084379496
33	0x3ab7ba54	0.0014017322
34	0x3b50a4e7	0.003183657
35	0x3a6ba4bb	0.00089890853
36	0xb945148d	-0.0001879504
37	0x3a74d54d	0.00093396456
38	0x3b991cfb	0.004672644
39	0xbb0b882c	-0.0021290882
40	0x3b9407c4	0.0045175273
41	0xba9d4439	-0.0011998481
42	0x3b0c885a	0.0021443577
43	0x3a2208ae	0.0006181103
44	0x3b45c3bb	0.003017648
45	0x3a95a0cc	0.0011415719
46	0xbae52e1c	-0.0017485055
47	0x3ba09dc8	0.0049016215
48	0x3b5e2f7e	0.003390282
49	0xbacdb9cc	-0.001569563
50	0x3b4fb643	0.003169433
51	0x3b70fe89	0.0036772809
52	0x3b4d5d88	0.0031336267
53	0x3a62a7ae	0.0008646202
54	0x39ffd708	0.000487976
55	0x3b8fbf2e	0.004386804
56	0x3b8309d0	0.0039989725
57	0xbb9367f0	-0.0044984743
58	0xbb87b71c	-0.0041417014
59	0xb72d4552	-1.0327743e-05
60	0x3b9b966f	0.0047481577
61	0x3b91c429	0.004448433
62	0xba8e9ddf	-0.001088079
63	0xbafd3d5f	-0.0019320658
64	0x3b806ebb	0.00391945
65	0xbba5d951	-0.0050613065
66	0x3b6279d8	0.0034557488
67	0xbb3d2d97	-0.0028866285
68	0xbaddccc7	-0.001692199
69	0x3aff9353	0.0019498862
70	0x3a9d743c	0.001201279
71	0x3a435b8f	0.0007452303
72	0x3967a06f	0.00022089643
73	0xbba07f5c	-0.004897995
74	0x3aab8116	0.0013084735
75	0xbba3fcec	-0.005004516
76	0xba991d9d	-0.0011681799
77	0xbb32a856	-0.002726098
78	0x3b9581e5	0.004562604
79	0xbaeff705	-0.001830787
80	0x3b4f156c	0.0031598462
81	0xba1852ac	-0.0005810659
82	0x3b6594f0	0.00350314
83	0xbb9ea8c1	-0.0048418944
84	0x38b0f822	8.438552e-05
85	0xbb68c39a	-0.0035516978
86	0x39d176ed	0.00039952193
87	0x3b6cb961	0.0036121237
88	0x3b620056	0.0034485064
89	0x3956d470	0.0002048777
90	0xbb433313	-0.0029785081
91	0xbb057e2b	-0.0020369391
92	0x3ac7bd39	0.0015238888
93	0x3adb15b9	0.0016714848
94	0xba2711bf	-0.0006373189
95	0x3b89863d	0.0041969107
96	0xb996958a	-0.00028721645
97	0x3b996d56	0.0046822233
98	0xbba443de	-0.005012973
99	0xbabe30a2	-0.0014510343
100	0xbb4eb06f	-0.0031538268
101	0x3b921053	0.0044575124
102	0xbb1d3d65	-0.0023992893
103	0x3b869547	0.0041071507
104	0xbae09d75	-0.001713677
105	0xbb3bf15d	-0.00286778
106	0xbb2e2e21	-0.0026577788
107	0xb9f73da2	-0.0004715743
108	0xbb43fbba	-0.002990468
109	0x3b53fb78	0.0032345932
110	0x3b96d472	0.004602962
111	0xbb02ad4d	-0.001993972
112	0x3b6a23d0	0.0035726912
113	0x3a46018a	0.000755333
114	0x3b8f73cc	0.0043778177
115	0xbb033660	-0.0020021424
116	0xbb8112eb	-0.003939023
117	0x3b2c7fd7	0.0026321316
118	0x3ad24caa	0.0016044576
119	0xbb403172	-0.0029326347
120	0x3ad9909f	0.0016598887
121	0xb92f8313	-0.0001673813
122	0x3b2ac664	0.0026058191
123	0xbb5211be	-0.0032054032
124	0xbb590910	-0.0033116974
125	0xbaaeb1af	-0.00133281
126	0xbb1dbb86	-0.0024068072
127	0x3a97dfa1	0.0011587032
128	0xb935aff9	-0.0001732706
129	0xba2f7f57	-0.00066946953
130	0x3b868861	0.004105613
131	0xba526ab6	-0.00080267654
132	0x3b8ad26f	0.0042365114
133	0x3b6df80c	0.0036311178
134	0x3b876749	0.0041321856
135	0xba2fbd89	-0.0006703963
136	0xb9c911c9	-0.00038350958
137	0x3b8e1b9e	0.0043367883
138	0xbb71a8c6	-0.0036874278
139	0xbb3848e8	-0.0028119627
140	0x3ba58fbe	0.005052536
141	0xbb707396	-0.0036689988
142	0xb9e6e336	-0.00044038304
143	0x3b447231	0.002997529
144	0xb9a36263	-0.00031163087
145	0xbb749beb	-0.003732438
146	0xbb7714e0	-0.0037701651
147	0x3a2dc4dc	0.00066287606
148	0x3b124218	0.0022317227
149	0x3b465e7d	0.0030268722
150	0x3b5c3c39	0.0033605231
151	0x38b5be43	8.6661916e-05
152	0xbb4d8f2a	-0.003136585
153	0xbb2a8586	-0.0026019528
154	0x3b1e7b8b	0.0024182524
155	0xb9ebd0f1	-0.00044978366
156	0xbb86ee21	-0.0041177426
157	0xba0111c3	-0.0004923606
158	0x3ac799d9	0.0015228345
159	0xbad514a6	-0.0016256764
160	0xbb8144aa	-0.003944953
161	0x3b39e75d	0.0028366663
162	0x3b7af589	0.0038293323
163	0xb8c10a9f	-9.2049355e-05
164	0xbb205bbb	-0.0024468738
165	0x3b23c034	0.0024986388
166	0x3b94269d	0.0045212046
167	0xba8d5b31	-0.0010784623
168	0xbb13e2e4	-0.0022565657
169	0x3b2207b1	0.0024723823
170	0xb9bf9cfe	-0.00036547327
171	0xbacb3bc4	-0.0015505482
172	0xbb59a691	-0.0033210854
173	0xb963349b	-0.00021668004
174	0x3b48673d	0.0030579113
175	0x3b231d42	0.0024889265
176	0x3a8b8e52	0.0010647273
177	0xbb7af735	-0.003829432
178	0xbb7b5549	-0.0038350394
179	0xbb75982e	-0.003747474
180	0xbba71e40	-0.0051000416
181	0x3af55aa3	0.0018719028
182	0xba045f49	-0.0005049599
183	0xbb7d36fa	-0.0038637505
184	0xb948cc57	-0.00019149609
185	0xba1df6e5	-0.0006025865
186	0xbb19b991	-0.0023456553
187	0xbb632dcb	-0.0034664746
188	0x3b4d3fe2	0.0031318595
189	0x3b3c44f5	0.0028727625
190	0xba931ea9	-0.0011224347
191	0x3b46cb41	0.003033355
192	0x39bc1b03	0.0003587828
193	0x3a3882c7	0.00070385303
194	0x3b3d082c	0.0028843982
195	0xbb2f8f6a	-0.0026788362
196	0x3b8e4711	0.004341968
197	0xbb019657	-0.0019773447
198	0x3ad4f0ce	0.0016246082
199	0x3b274ad2	0.0025526774
200	0xbb311f51	-0.0027026723
201	0x382df3ba	4.1473402e-05
202	0x3b8445fb	0.0040366626
203	0xbb62f1c4	-0.0034628967
204	0x3a00299c	0.0004889013
205	0x3ad84d64	0.0016502556
206	0x3b0e1a75	0.002168325
207	0x3b1c8554	0.002388318
208	0x3b473869	0.0030398613
209	0xbb776b87	-0.00377533
210	0x3a09fd7b	0.0005263907
211	0xba747677	-0.0009325514
212	0xba29d5d0	-0.0006478699
213	0xbba5f524	-0.0050646234
214	0x3a12587f	0.0005582645
215	0x3a00de77	0.00049159623
216	0xbb5aa72e	-0.0033363807
217	0x3b7ce011	0.0038585702
218	0x3b6d830e	0.0036241445
219	0x3b6f26f0	0.0036491714
220	0x3b3d3d10	0.0028875507
221	0x3b874cc4	0.004129024
222	0x3b82aef9	0.0039881435
223	0xbb0c3033	-0.0021391034
224	0xba1a393f	-0.0005883164
225	0x3b98184e	0.004641569
226	0xba9e2a1e	-0.0012066995
227	0xbb9cf586	-0.004790011
228	0xbab900c6	-0.001411461
229	0xbad5d533	-0.0016314149
230	0xbb91c54f	-0.00444857
231	0xbb2c43cc	-0.0026285527
232	0xbb04ab4a	-0.0020243698
233	0xbb9a44b5	-0.0047078975
234	0xbb099d9c	-0.0020998484
235	0x3b74a8d5	0.0037332077
236	0x3ba20c55	0.0049453177
237	0xba6bc89d	-0.0008994432
238	0x3b735d0a	0.0037134313
239	0x3b32bbd9	0.002727261
240	0xb90d6d6b	-0.00013487569
241	0xba2e885e	-0.00066578935
242	0x3b82b5e9	0.0039889705
243	0xbaa755d0	-0.0012766663
244	0x3a8acfc5	0.0010590485
245	0x3b1650b0	0.0022936277
246	0x3b603afa	0.003421484
247	0xbaa6a744	-0.0012714644
248	0xbada944a	-0.0016676274
249	0xbad0c45b	-0.0015927659
250	0x3ac145a7	0.001474549
251	0xbb31019c	-0.0027009016
252	0xbb79d61a	-0.0038122
253	0x3a4b89ac	0.000776435
254	0xbaded97f	-0.0017002075
255	0xbb82d8f0	-0.003993146
