log1/rrrbest_model_74999.pt (torch, 802249 bytes, 9 tensors)

net.0.linear.weight f4 [256, 7]
00000000: f2e4 68bd a70c 0f3e 7020 1f3e c69d dd3d
00000010: 16b0 e2bc 0ed6 69bc ad8c 44bd 32dd 713b
00000020: 8fd4 d13c 4f5d ef39 69fd e9bb 08fe 883d
00000030: fdde 03bc c63f cfbd 8449 e23d 12c6 a13c
00000040: b9d4 933d 7f94 98bc 9c09 11bd 4d4a 7dbd
00000050: c638 53bd da66 87bc 7dc0 753d 3e2c 22bc
00000060: 2a2e 073d 5e0b 01be dea3 c53c 60b6 943d
00000070: e8ea c2bd bcc5 853d 9b61 303e dce3 31bc
00000080: c78f 093c cab2 9f3c 9843 3dbd e522 2a3d
00000090: 30ff 8b3d 0b99 f83d 330e 053e 2a97 503d
000000a0: eb34 81bd b4f4 d5bd 7635 00be 16ca 0a3e
000000b0: 0c3a 81bc 50db 023d 6c17 a63c 35c7 9c3d
000000c0: f8ab 23bd ca5a 113d 7af9 e33c e779 36bd
000000d0: f839 b2bd b673 7bbd 3ff1 bb3d caa9 06be
000000e0: e460 9ebd 1371 6a3c 7d66 023c 3fb4 0d3e
000000f0: d126 26bd f48b bebc 8043 4a3b 8ae9 4cbc
00000100: 7cac b8bd 081e 98bd f0b4 e1bd 01ff b43d
00000110: 30d0 2c3d 2a76 70bd f669 bf3d a42a 8e3d
00000120: 1c55 3cbe e3d4 293d d7a3 ba3c e8ff 0d3e
00000130: 62b9 133c c495 163b 9675 8fbb 2698 b6bc
00000140: fa9c fa3b bcf6 ca3c 673e 6f3d 1a60 ecbd
00000150: f8cf ab3d 8dfd a43d 04cb cebb e831 4f3d
00000160: 1e51 b4bd a826 40bd a4c9 86bd a903 c43d
00000170: b935 e9bc 6c53 093e 175a 95bd 963c 38bd
00000180: 052c 883d bb4c 123d e4f1 dd3d c443 4d3e
00000190: 7aa0 0a3e b875 0bbb 2346 7f3d 5ea4 233d
000001a0: 7952 b5bc e473 d33d 68d8 9dbd ef47 4e3d
000001b0: ae8f 5ebc c684 f53b 29ac debd b756 8bbb
000001c0: 8f72 023d 50b7 0e3e e310 13be e3af aebd
000001d0: 2878 af3d 9847 f7bd 9d30 09be f5b4 e0bd
000001e0: d784 1e3e a61d 03bc 751a 1e3e 354b e53d
000001f0: 7768 b63d e5a9 e1bd 4030 173c 8012 2c3e
00000200: 06fc 09bd e1fa 98bd a72a a53d 8bd0 43bc
00000210: 0a20 ef3d 0cf0 da3d 93b1 273e 7369 f8bd
00000220: 5228 943d 425b cfbd 9e97 06bd 9be0 3bbd
00000230: 6a84 353d 770a 5cbe e8de b23d 9039 4dbb
00000240: dcbd 4bbd f61d bf3d 817a f7bd d3e0 1abe
00000250: 7e91 4e3d 4b18 013b 9e3e 78bd 6e1c d33d
00000260: 1435 603d 9de5 383d 1127 2bbd cbde 06bd
00000270: 77fd 57bc 0a31 d93d 2134 9b3d c5ee 243d
00000280: d85b ab3d 4d94 043e bdd3 b43d 652a f5bd
00000290: 4f6f 5abd 787c 1cbe 3dc6 42bd 91f5 cb3c
000002a0: 715b 813d f957 39bc bbab 373d ae43 f6bd
000002b0: 2a64 0a3d 0271 acbd dd9d c1bd caeb c2bc
000002c0: 7b18 95bc b362 673d c849 f83c 99bd b53c
000002d0: 610f 9abd 3721 033e 45d5 803d e81d 27bd
000002e0: 852c 9bbc 5866 f9bd dc20 bf3d 013b 413d
000002f0: b6e1 8ebd 1bc1 9c3c 8e69 52bd 4eb2 fdbc
00000300: 2b94 46bd 5f2a d53d c7aa 913d 35c9 ef3c
00000310: a555 223e 24f0 48bd 1948 05be 46b5 613b
00000320: f4ff 03bd d08f 463d 80f0 a0bc 5f01 bcbb
00000330: ac4c e8bb 0982 c43b 2d27 14bc 13ec 133b
00000340: 4feb c03c 9acb bcbd b77d 48bd 2e6a 52bd
00000350: a929 72bd 2951 be3d 3c09 c73d b9ec ef3d
00000360: f1c3 e9bd 2093 09bd 08d1 043c 53ab 86bd
00000370: d911 823d a266 48bd dfbb 023e fb9d 1bbd
00000380: 3b6f dc3d 57ee 1cbd d87f 383a 1c08 1abe
00000390: 798f 4ebd 50e2 88bd 33fc 533d 3d07 463d
000003a0: 673d b1bc 798c b1bd 7acb d9bd 2f1e 9b3d
000003b0: b8da 323d 8376 73bd 54c4 f5bd 0b82 2fbe
000003c0: dacf 293e c952 f5bc 0227 fc3c 1aaf a73c
000003d0: 7944 3ebd adbd 003d ec5d 59bd ee91 0bbc
000003e0: d14d 843b 8304 0a3e 4446 1d3d f64f 5dbd
000003f0: 6604 f23d 1668 b73d 2e0b ecbd 8f8a 2bbd
-0.056858964 0.1396967 0.15539718 0.108211085 -0.027671855 -0.014272226 -0.04798572 0.0036905524
0.025614051 0.00045655153 -0.0071408045 0.066890776 -0.00804877 -0.10119586 0.11049178 0.019747768
0.07218308 -0.018625496 -0.035409555 -0.061838437 -0.051567815 -0.016528536 0.059998024 -0.0098982435
0.03300301 -0.12601992 0.02412599 0.07261348 -0.09517461 0.065318555 0.17224734 -0.010857549
0.008396096 0.019494433 -0.04620704 0.041537184 0.068357825 0.12138566 0.12993698 0.05092541
-0.063089214 -0.10447064 -0.12520394 0.13553652 -0.01577475 0.031947434 0.02027484 0.07655183
-0.039958924 0.035486974 0.02782892 -0.04454985 -0.08702463 -0.061389647 0.091768734 -0.13150707
-0.07733324 0.014309186 0.007959005 0.1383829 -0.040564362 -0.023260094 0.0030862987 -0.012506852
-0.09017274 -0.07427603 -0.11020839 0.08837701 0.04219073 -0.05870644 0.09346382 0.06941727
-0.18391842 0.04146279 0.022783203 0.13867152 0.009016367 0.002297745 -0.004378031 -0.022289347
0.0076481076 0.024775855 0.05840912 -0.115417674 0.08389276 0.080561735 -0.0063108224 0.050584704
-0.088045344 -0.046911865 -0.06581429 0.095710106 -0.028468 0.13410729 -0.07292574 -0.044979654
0.06649021 0.035717707 0.108371526 0.20045382 0.1353778 -0.0021279883 0.062322747 0.039951675
-0.022134053 0.10324839 -0.07707292 0.05036157 -0.013584061 0.0074926345 -0.10872681 -0.0042522806
0.031847533 0.13937116 -0.1436191 -0.085296415 0.0856784 -0.12074202 -0.13397451 -0.10972015
0.15480362 -0.008002674 0.1543978 0.11195985 0.08906644 -0.11018733 0.009227812 0.16803932
-0.033687614 -0.07469726 0.08064776 -0.011951576 0.11676033 0.106903166 0.16376333 -0.12129488
0.07234253 -0.10124828 -0.032859437 -0.045868497 0.044315733 -0.21488367 0.08733922 -0.0031314828
-0.04974161 0.093318865 -0.12083913 -0.15124826 0.05043172 0.0019698318 -0.06060659 0.10308157
0.05473812 0.04514085 -0.041785304 -0.032927316 -0.013182989 0.106050566 0.07578302 0.04026677
0.08367127 0.12947197 0.08829448 -0.11970977 -0.05332881 -0.15281856 -0.047552336 0.024897369
0.06316269 -0.011312478 0.04484151 -0.120246276 0.03378693 -0.08419992 -0.09453938 -0.023794074
-0.01820015 0.05649061 0.03030862 0.022185134 -0.075224645 0.12805639 0.06290678 -0.040800005
-0.018942127 -0.12177724 0.09332439 0.04717541 -0.06976645 0.019135049 -0.051370196 -0.030968811
-0.048481148 0.10408472 0.07112651 0.029270748 0.15852983 -0.04905714 -0.13015784 0.0034440323
-0.032226518 0.048476994 -0.01964593 -0.005737468 -0.007089218 0.0059969467 -0.009042543 0.002257113
0.023549704 -0.092185214 -0.048948016 -0.051370792 -0.05912176 0.09292824 0.09718558 0.11715073
-0.11414326 -0.033587575 0.008106478 -0.06575646 0.063510604 -0.048926003 0.1276698 -0.03799246
0.10763403 -0.038313236 0.0007038093 -0.15042156 -0.050429795 -0.06683791 0.051754188 0.048346747
-0.021635724 -0.08669371 -0.10634513 0.075741164 0.043665618 -0.059439193 -0.12000337 -0.17139451
0.16583195 -0.029946702 0.03078032 0.020469237 -0.04645202 0.03143089 -0.053068087 -0.008518679
0.0040375968 0.13478284 0.03839709 -0.054031335 0.11817245 0.089554 -0.1152557 -0.041880187

net.0.linear.bias f4 [256]
00000000: 6a2f a8be 3d69 2e3e f53d a23e bef6 b13e
00000010: 7930 b1bc 56b9 9a3e ce14 783e ad57 8c3d
00000020: 4c70 913e c2b6 1a3e f3d2 9a3d bc65 0c3e
00000030: b8d6 28be 708c b1be 16ec 423e e7b7 12bd
00000040: 8302 c1be e1de e23c e386 573d 1a29 42be
00000050: 339c 15be 3de2 6e3e 6f0e 76be bfcf dabd
00000060: ae6b fdbd 3550 b5be 075d 373e afd4 b0be
00000070: ea24 2b3e 9141 c73e 6b91 bebe 2e30 aabe
00000080: fc88 5abe da27 81be eca1 043d 26cf ec3d
00000090: 4ce5 ae3d f19f 9d3e fbef 3d3e 589a 6d3d
000000a0: 3a85 61bc d1f5 a43e 6eef 63be 5709 98be
000000b0: 0481 b63e 6ecb 1fbe 86e7 4dbd 19b5 1dbe
000000c0: 87fb cb3d 828d abbe fc71 743e dda3 bcbe
000000d0: 4ce0 8fbe c8b2 563e 1d53 0bbe 5af7 6ebd
000000e0: 2615 01bc 06ca d8bd 9719 04be 19b0 3d3e
000000f0: 619f 58bd ffb8 893e 7424 343e 4fe9 5d3e
00000100: a5dd a3be 4568 c73e 8624 9a3e 9507 c8be
00000110: b522 c13e fb77 a03d 2e52 aebb 702e a2be
00000120: 7b56 93be 8816 a73e f123 ea3d c2e3 0f3e
00000130: aee1 a4bd 82bb b1be 8f47 3d3e 6c64 973e
00000140: 36be 85be da94 913e 099a 49bd 2807 96be
00000150: fca4 24be e39f a33e 5a0d 8abd 1080 72be
00000160: 8535 9cbd dad7 a0be b13f 8ebe b63b dfbc
00000170: 834d 65be 0a38 b23d 5b61 203e 03ab c0bd
00000180: 9d9c 93bd 877f 00be a3d2 913e ca6f 953e
00000190: 3530 8a3e eccb e63d fd0f 18bd 7973 8a3d
000001a0: 65b9 7fbe e7ef 8a3e 150c eabd aa42 7f3e
000001b0: 7c33 0c3e 7f30 c9be 11c5 893e 92fc ffbd
000001c0: 7561 843e 2d07 c6bd 454c f43c b117 243d
000001d0: 09b8 0bbd fa0b 0c3e 512c 14be c6c9 233d
000001e0: 77be 16be d8cf ce3d c509 2cbe 9298 6b3e
000001f0: d910 ed3d ddea 17be c304 a13c e90d c2bd
00000200: 8556 f7bd 9eeb 9f3e 94f9 38bd a9cb 9b3e
00000210: 5740 603e 18b8 b03e 2d88 2c3e 3337 60bd
00000220: 81eb e73d dfde fa3d b3d8 383e a047 d4bd
00000230: ff72 733e 30e7 a23d b1eb b93e 7117 a8be
00000240: 3469 8d3e ea14 313e 5735 863e a84f b0be
00000250: 3ebc f23d a7c7 59be 81ed cbbd 8843 a5be
00000260: a725 12bd 80ca 52be 8b0e 44be 9da8 1d3e
00000270: 5118 e33c 997c 96be 5c6b 0fbc 6ce3 81be
00000280: d023 37bd fa26 d23c d2a1 e43c 3fe1 adbe
00000290: 39e9 21be 42ed 753e f12c 993d 45a2 433d
000002a0: e990 4f3e a541 26be 0bc4 95be 09e9 863e
000002b0: 5108 b33e 5922 323e 473d 88be e555 5ebe
000002c0: 29ca aabe 97cf c13e 7dbc 8cbb cbc3 9fbd
000002d0: 1c0e 87be 3dc1 543e 2bb2 393e fda1 14be
000002e0: 7f54 32bd ad2d 9e3e 7da2 ae3e 455c a6be
000002f0: 1a0c 803e 3cdb 6d3e 1455 79bd 3c9b bebe
00000300: 68a4 453e 164d 353e 87e0 49be 2693 d53d
00000310: 7333 32be a0a7 043e 7f35 bd3e efbd d8bd
00000320: c6bf 55be 0246 7bbe fa6e 823e ba93 8e3e
00000330: a98f 59be 3015 78be b869 123d 11c7 913d
00000340: 127d be3e 063e 723e 4413 ae3e afa9 82be
00000350: 5b13 8d3e 9a16 9c3e 0e4b 6f3e bd58 92be
00000360: 35be 963e 1a23 f8bd 70d3 763d f962 e9bd
00000370: c6e7 9f3e 2d7a 953e 680c 143e 5dcc 8bbe
00000380: c9c2 2bbe 97b9 5abe c789 12be b83a cabd
00000390: 13ac f93b 129c cfbd 495b f4bd 48fc 64bd
000003a0: 86de 8e3e b87c 6d3d b82d 563e 7da7 803a
000003b0: e564 d1bd a186 783e d685 92be 1ebf 35be
000003c0: 0227 6d3e 6289 b5be 4f29 0cbe 6af0 6b3e
000003d0: 6d9b c03a 196c 3fbc d229 b0bd 7970 65be
000003e0: f50b 563e 5001 2dbe 1904 673c 205d 93be
000003f0: 82f6 623e 796b 453e a977 a9be b3f5 843e
-0.32848674 0.17032333 0.31687894 0.34758562 -0.021629559 0.30219525 0.24226686 0.0685266
0.28405988 0.15108779 0.075597666 0.13710684 -0.16488159 -0.34677458 0.19035372 -0.035819914
-0.3769723 0.027694168 0.052618872 -0.18960992 -0.14610367 0.2332849 -0.24028943 -0.10684156
-0.12374054 -0.35412756 0.17906581 -0.34537265 0.167133 0.3891721 -0.3722032 -0.33239883
-0.21341318 -0.25225717 0.032380983 0.11562948 0.08539829 0.30786088 0.18548577 0.05800852
-0.013764674 0.32218793 -0.22259304 -0.29694626 0.35645306 -0.15604946 -0.050269626 -0.15401115
0.099600844 -0.335064 0.23871607 -0.36843768 -0.28100812 0.20966637 -0.13605924 -0.05834136
-0.007878577 -0.10585408 -0.12900387 0.18524207 -0.05288637 0.26898953 0.17592031 0.21671031
-0.3200504 0.3894674 0.3010599 -0.39068285 0.37721792 0.078353845 -0.005319855 -0.31676054
-0.28776917 0.32634377 0.114326365 0.14051726 -0.080508575 -0.3471337 0.18484329 0.29568803
-0.26121682 0.28433877 -0.049219165 -0.29302335 -0.16078562 0.3195792 -0.06740828 -0.23681664
-0.076273955 -0.31414682 -0.27782968 -0.027250152 -0.2239285 0.08702095 0.15662138 -0.09407618
-0.07207606 -0.12548648 0.28481016 0.2918685 0.26989904 0.11269364 -0.037124623 0.06760306
-0.24973066 0.27136156 -0.11428086 0.24927774 0.13691515 -0.39294812 0.26908162 -0.12499346
0.25855604 -0.096693374 0.029821524 0.040061656 -0.034111056 0.13676444 -0.1447003 0.039987348
-0.14721094 0.10098237 -0.16800602 0.2300742 0.11575479 -0.14835687 0.01965559 -0.094753094
-0.12077049 0.3123445 -0.04515989 0.30428818 0.21899544 0.34515452 0.16848822 -0.054740142
0.11324216 0.122495405 0.18051414 -0.10365224 0.23774336 0.07954252 0.3631263 -0.32830384
0.27619326 0.17293134 0.2621257 -0.34435773 0.118523106 -0.21267568 -0.0995741 -0.32278085
-0.03568044 -0.2058506 -0.19146173 0.15396352 0.027721556 -0.29391935 -0.008753624 -0.25368822
-0.044711888 0.025653351 0.027909193 -0.33960912 -0.15811624 0.24016288 0.07479275 0.047762174
0.20270123 -0.16235979 -0.2925113 0.26349667 0.34967282 0.17395915 -0.2660925 -0.21712454
-0.3335736 0.3785369 -0.0042949305 -0.078010164 -0.26377952 0.2077684 0.18134372 -0.14514919
-0.043537613 0.30894223 0.34108344 -0.3249227 0.25009233 0.23228163 -0.060872152 -0.3722781
0.19300997 0.17705187 -0.19714557 0.10428457 -0.17402439 0.12954569 0.36954877 -0.10583102
-0.20873937 -0.24538425 0.25475293 0.2784708 -0.21246208 -0.24226832 0.035745353 0.07118047
0.37204796 0.23656473 0.33999074 -0.25520083 0.2755383 0.30485994 0.23368475 -0.28583327
0.2944199 -0.1211607 0.060260236 -0.11395831 0.31231517 0.29194775 0.14457858 -0.27304354
-0.16773523 -0.2135986 -0.1431037 -0.09874481 0.00761939 -0.1013719 -0.11931474 -0.055904657
0.27904147 0.05798027 0.20915878 0.000981554 -0.10224322 0.24270107 -0.28617734 -0.17748687
0.23159412 -0.35456377 -0.13687633 0.2304093 0.0014694758 -0.011683487 -0.086017266 -0.22406186
0.20902999 -0.16895032 0.014100098 -0.28781986 0.22164348 0.19279279 -0.33099106 0.25968704

net.1.linear.weight f4 [256, 256]
00000000: 6e48 e33b 5681 3e3c 30f3 9fbc cb66 c53c
00000010: 2ef9 c43c 2598 42bc c30e b3bb cf42 08bd
00000020: 7a96 473c c1cd 0a3d 5a1d 9e3c dce1 dc3b
00000030: df3d dd3b a97b 9d3c 50a4 363b 7423 283c
00000040: 4036 1ebc cdb0 553c 2dea 4d3c 030f 963b
00000050: 0f47 cdbc 697a 12ba 5236 aebc 9a31 81bb
00000060: 2551 383c c5f2 ccbc cae7 34bc 2d8d cfbc
00000070: 10bc 893c 8d80 54bc 2b86 743c 1da8 463c
00000080: a0fb 503b dab3 1cbc 2782 bb3c db1c 5a3b
00000090: 43a2 93bc 0b7c 00bc 56d2 9bbc a32a 993c
000000a0: 17e0 48bb b2cb f2bc 7b39 27bc a8d2 7abc
000000b0: 965c 9dbc 1041 ab3a f5d6 45bc 6b8b 72bc
000000c0: 6e31 8f3b 547c 513c 9344 16bc 308c 90bb
000000d0: f3c3 59bb 3b84 f53c 962f daba 724e 0ebd
000000e0: a448 1a3c 4988 913b 9d9a 81ba a753 d43a
000000f0: 5003 87ba 5b51 af3b 9436 6c3b b68c d1bb
00000100: e2bd 0dbc e873 42bc 4e66 eebc 2e59 d33b
00000110: 64c4 103d 098d f83b 62ae 9abc 58fd 593c
00000120: dbe0 d4bc 1847 373d 1bdd a43c 765c 9d3c
00000130: 7581 f2bc 7b17 983c c0fd 04bc 1211 7bbb
00000140: ebb1 bb3c 8ba0 1cbc ceb6 8e3b f7a7 21bc
00000150: 3a2d 1dbc fde6 e93c 4f67 4a3a 70f1 d9bb
00000160: 2909 4e3b c1fc 00bc ffd5 bf3c 9d47 033d
00000170: c587 d33b 182c 92bc eb76 20bc d56c 0abd
00000180: e513 7ebb ea7e 433c 4bfb dc3c 899f 8abb
00000190: 33f5 a0bc 0786 e9bc b4fa 773c 339e 1cbb
000001a0: c344 223d aa01 c13c eefb 673c 2d18 ac3c
000001b0: 438e d53b 4d39 1bbd 80f2 e8bb 9e9c b9bc
000001c0: 8bec 71bc a2f5 25bc 7cb1 1ebb 13a2 62bc
000001d0: 9f43 67bb aa2e 72bc ea34 2fbc 5d4b c3ba
000001e0: 52bb 47bc f0f3 403c abc0 193c 36c5 15bc
000001f0: 22e2 063c 1752 d9bc 6525 c93c e34c b6bc
00000200: 5e14 353c b0d3 c4bb 3d08 87bb 04dd abbb
00000210: 1a66 b53c 30fa b4bc c6b1 e4bc e993 d33c
00000220: 0951 d4bc bc60 3abd b58f 003a 89aa 90bc
00000230: ec86 7abc f2dc 83bc 7ba3 503d b37c 29bd
00000240: db4f d238 e5a1 adbc b5a3 31bc 7c7e aa3c
00000250: 4ab8 cb3c e776 223c 8c12 9f3c 1f00 2c3c
00000260: feb4 c7bc ad4f 3e3b 1e40 89bc daf3 a2bc
00000270: 2506 053c 4e03 8e3c 22b6 dbbc a6bb b43c
00000280: 30ac 9039 7b6c 94bc ca67 a537 062d fe3c
00000290: 52f8 abbc 2003 463c 71df 043d 89e5 173d
000002a0: 8e54 97bb 8ea4 cfb9 dd41 403c edf1 cc3b
000002b0: 94f0 dabc 75d2 463c ea8e ac3c f154 b23c
000002c0: 018b 433c 95ff 84bc 4206 5a3c af70 80bc
000002d0: c199 05bd d985 b6bc 7645 a4bb 29f1 ac3c
000002e0: f3be 803c bdf5 e33c 3e93 b9bc 0c43 d1bc
000002f0: a83a fe3c b415 b7bc 0213 92bb 8d10 823c
00000300: aada dfbc 113e eebb 8b73 743c e105 d13c
00000310: b759 47bc f392 14bc 347c 4d3d df64 c03a
00000320: e68e 473d 075d 41bc 28be 1ebc c121 dd3b
00000330: 7c05 953b 6809 303d 2158 013c 45e6 adba
00000340: b76a ddb9 6216 6ebb ad64 92bb 8d8b 06bd
00000350: 613a 513b e531 f93c 77bc c53c ef3e 893b
00000360: c7be a33a f2ea 5abc 605a bbbc e6ee da3b
00000370: 3e07 383c 9ed6 5dbc f225 e83c 684c 393c
00000380: c302 8cbb b8d2 9ebb 3e2f efbc 5a79 593a
00000390: b77d 293c a27d 0e3d 12d9 283c e129 dc3b
000003a0: 9ab1 a43c 58dc 763c 6db1 ebbc d966 b63a
000003b0: 229d d73b 0577 133c 446f 823c 38bc d6bc
000003c0: 4e7d 273b 519b cd3c 7c14 02bc 45c9 e4bc
000003d0: 0f88 f6bb a6dc dd3b dcfd f0bc b1fe 89bc
000003e0: 2cb2 cbbc b5d1 8ebc afee df3b de15 3ebd
000003f0: d092 57bd 9ba7 9fbb 67c6 c439 1b8d b43c
0.0069361245 0.011627516 -0.01952514 0.024096867 0.0240446 -0.011877094 -0.005464406 -0.03326684
0.0121818725 0.03388763 0.019301105 0.0067407917 0.0067517604 0.019224005 0.0027868934 0.010262359
-0.009656489 0.013042641 0.012568039 0.0045794263 -0.025058297 -0.00055876985 -0.021266136 -0.0039426805
0.011249815 -0.025018105 -0.011041591 -0.025335873 0.016813308 -0.012970102 0.014924566 0.012125042
0.0031888261 -0.009564364 0.02288921 0.003328136 -0.018021708 -0.007842074 -0.019021194 0.018697089
-0.0030651146 -0.029638145 -0.0102065755 -0.015309013 -0.019209187 0.0013065655 -0.0120751755 -0.014803748
0.004369906 0.01278599 -0.009171623 -0.004411243 -0.0033228367 0.029970279 -0.0016646262 -0.03474278
0.009416733 0.0044412953 -0.0009887997 0.0016199247 -0.001030067 0.0053502745 0.0036043273 -0.006394948
-0.008651229 -0.0118684545 -0.029101517 0.00644984 0.035343543 0.007585172 -0.01888198 0.013305031
-0.025986126 0.044745535 0.020124963 0.019209128 -0.029602746 0.018565884 -0.008117139 -0.0038309735
0.022911986 -0.009559761 0.004355288 -0.009866706 -0.009593302 0.028552527 0.00077210827 -0.006651096
0.0031438565 -0.007872761 0.023417471 0.032050718 0.006455394 -0.017843291 -0.009793977 -0.033795197
-0.0038769182 0.011932114 0.026975295 -0.004230444 -0.01964817 -0.028506292 0.015135456 -0.0023898005
0.039616358 0.023560364 0.014159186 0.021007622 0.006517203 -0.037896443 -0.0071089864 -0.022657689
-0.014765869 -0.010129364 -0.0024214676 -0.013832587 -0.0035288108 -0.014781633 -0.010693768 -0.0014899779
-0.012190657 0.011776909 0.0093843145 -0.009141257 0.008232625 -0.026528401 0.024553964 -0.02225346
0.011052219 -0.0060066804 -0.004120855 -0.005244853 0.022143412 -0.022091955 -0.0279168 0.025827365
-0.025917547 -0.04550241 0.00049042265 -0.017659442 -0.015290957 -0.016096566 0.050937157 -0.041378688
0.000100284546 -0.021195361 -0.010842253 0.020812266 0.02486815 0.009916044 0.019418024 0.010498076
-0.024378296 0.002903919 -0.016754206 -0.019891668 0.008119141 0.01733556 -0.026820246 0.022062134
0.0002759411 -0.018118134 1.9717863e-05 0.031027328 -0.020992432 0.012085706 0.032439653 0.037084136
-0.004618234 -0.0003960472 0.011734453 0.0062544257 -0.026726045 0.012135138 0.02106424 0.021769019
0.011934997 -0.016235152 0.013307156 -0.015678732 -0.032617334 -0.02228062 -0.005013163 0.021111088
0.015716052 0.027827138 -0.022653218 -0.025544666 0.031033829 -0.022349216 -0.0044578323 0.015877033
-0.027325947 -0.0072705825 0.014920126 0.025515499 -0.012167386 -0.009068239 0.050167277 0.00146785
0.048720263 -0.011801965 -0.0096888915 0.0067484085 0.004547773 0.04297772 0.007894547 -0.0013267478
-0.00042231914 -0.003632926 -0.004467568 -0.03284793 0.0031925666 0.0304193 0.024137719 0.0041884105
0.0012492769 -0.013361679 -0.022870243 0.006681311 0.011232195 -0.013539938 0.028338406 0.011309721
-0.00427279 -0.004846897 -0.029197332 0.0008295976 0.010344914 0.03478778 0.01030566 0.0067188595
0.020104218 0.0150671825 -0.028771127 0.0013916149 0.006580011 0.009000544 0.015922196 -0.026212797
0.0025556865 0.025098475 -0.007939454 -0.027928004 -0.0075235437 0.006770688 -0.029417925 -0.01684508
-0.024865232 -0.01743398 0.006833873 -0.046407573 -0.052630246 -0.004872275 0.00037531854 0.02203994

net.1.linear.bias f4 [256]
00000000: ea79 483d b71a bf3d 0900 5db8 f321 93ba
00000010: 6d55 ae3d bba5 4cbd e7c3 d8ba 6f98 2dbc
00000020: 7fb9 0f3d 1fd4 24bd 796a 42bd 3ad3 473d
00000030: ba8d 843c 1547 da3d 2b71 583d 7384 7fbd
00000040: db89 cf3d 9f6f 933d 3a41 9d3d b4cc bebc
00000050: f304 38bd 975f 46bd f5fd 223d 224a 263d
00000060: 5cc6 12bd 737b 40bd 7dea df3c 1d86 bebc
00000070: da7e f4bc 85f1 e23c 097c 91bb 9dfd 303d
00000080: b753 5abc 45dc b83c 4b9a 953c 378b 493d
00000090: 2a8e 1c3c da1e 933d 9bcf ac3c 91e8 473d
000000a0: f006 f7bc fd3d 30bd 8959 88bd 2deb fdbc
000000b0: c674 123d b3f4 e4bc 55bb fe3c 1bd8 41bd
000000c0: c161 93bd bd8b a33c 09cd 143b f9ec 013c
000000d0: 7441 08bd 7983 8b3d 6042 133d 1470 8c3b
000000e0: ad02 193d 8b6a 343c 7d1e 5dbd 1e73 b93c
000000f0: f629 2bbc ef83 adbd 9b06 0cbd 9db4 e23b
00000100: 1a8f 5b3d f9d0 743c 0e10 56bb 9488 43bd
00000110: 2834 1bbd d630 933d 8a9f d0bc 1c8c 67bd
00000120: 0e37 823d b23a bdbd 8033 5f3d 4215 00bd
00000130: f13e 72bd d72e 613d 2b3f 1e3d 1c26 24bd
00000140: 9231 b3bd 05f7 02bc 72c3 923c fc53 283d
00000150: 56e0 403d cb8b 60bd 9ea7 023c 9a40 c7bc
00000160: a331 e5bc fd15 d43c 8d57 efbc 31af 9c3d
00000170: fa3e 63bc 7a35 5f3d efdc 373d 759d 8e3c
00000180: fbfe 07bd a343 5c3c b195 30bd af22 64bd
00000190: 065c 013d 258a 3abd 1b9a 6f3d 8f47 dfbc
000001a0: baf6 d73c c644 9f3d a100 b9bd 1dbd 233d
000001b0: 3d6b fbbc c463 db3b 2183 eaba a6d2 9f3c
000001c0: d8be 4b3d 9d9e e53c 8377 9fbc f246 a53c
000001d0: 098a 95bd 0148 0fbd cbf0 63bd b5cc d33b
000001e0: 284e 833d b480 433d 108b 6bbb 4863 a1bd
000001f0: ae4d abbd c404 8dbd 6960 103c 1c68 f7bc
00000200: 25e2 a0bd 8e43 1abd 83d5 953d 8ddf cf3b
00000210: 6dd7 4d3d 80a9 d83c 9750 1abd 469d 4abd
00000220: fb8a 393d ce8a d53c c6c6 433c 5b74 f6bc
00000230: cd3c 0b3c 2501 71bc 8f1b 46bd a6db 72bd
00000240: 5b0b 41bd 7483 afbb 9201 b03c 4e7f 8e3d
00000250: e5a0 c53d e4a9 32bc 6e22 8e3d 392a 3f3d
00000260: 656d 233c 2349 c83d c6fe b4bc 8ee0 43bd
00000270: f6de 753c c201 88bd 6fe4 91bd 097c 10bd
00000280: d285 503d df4e 543c 5cf7 8a3d cc46 763d
00000290: 57bc 45bd fa25 733d a146 2bbd df8c 6e3d
000002a0: 8065 96bd 6cb0 91bd 8476 94bd 2c7d a6bd
000002b0: b69c f73c 315a 61bc 30c6 a3bc a189 263d
000002c0: d16a 8ebd a33a b13c a690 c4bc 77aa 14bd
000002d0: 9905 113d 808f 0f3d 63cf 3f3d 7f85 14bd
000002e0: 21f1 8d3d eb07 833d 8c7c 53bd 207c 143b
000002f0: 93de 833c 8c85 193c 0ed9 53bd 81ca 9c3d
00000300: 98bc 8b3d 806c 16bd 41b5 ad3d b3c6 a53d
00000310: 13b0 bc3a e3fa c63b 58fe c8bc 2a28 063c
00000320: 1eef 4bbc 86b4 d9bc 914a a4bc ad0f 95bd
00000330: cbd5 88bd 91db 013c 7713 d23c 2caf 9bbd
00000340: ab8d debc 3b7a 143c d686 67bd a79c 34bd
00000350: 8f08 c33d cce6 2d3d bc72 90bd 3d2d 50bd
00000360: cd9e b7bb 5b8c 1cbd 5bef 41bd 22ce ecbc
00000370: 0a4c 30bd 075f 25bd 4723 03bd 4ecc f1bc
00000380: 9fda c23d 9c81 1fbd 2928 41bb 9195 353d
00000390: 9407 7fbc c99b 3dbc 8343 133d 7945 86bc
000003a0: 9fb7 ac3c b2d8 89bd 87bc 863d 6df8 a13d
000003b0: 24eb c93d 6561 a4bd ec70 803d 1c2d e3bc
000003c0: 2eac 6c3d 1f5e fb3c e769 e43c eb9d bdbc
000003d0: 076b 5c3c 4092 c33c 71d1 273d eddd 28bd
000003e0: 55a2 78bd 3ecb 7cbd 40c9 d13b fddc 3fbc
000003f0: 40be 3e3d c243 ef3c dbd7 2cbd 8e07 c23d
0.04894439 0.09331267 -5.269054e-05 -0.0011225328 0.085123874 -0.04996274 -0.0016537876 -0.010595425
0.035089012 -0.040241357 -0.04746482 0.048785426 0.016180862 0.10658089 0.0528423 -0.062382173
0.10133716 0.071990244 0.076784566 -0.02329097 -0.044926595 -0.048431005 0.039792974 0.040598042
-0.0358337 -0.04699273 0.027333492 -0.02325731 -0.029845644 0.027703056 -0.004439835 0.043210614
-0.013325623 0.02256597 0.01826205 0.04920503 0.009555379 0.07183619 0.021095088 0.048805777
-0.030154675 -0.043027867 -0.066577025 -0.03099593 0.035755895 -0.027948713 0.031095186 -0.047325235
-0.071963795 0.019964093 0.0022705218 0.007930034 -0.033265546 0.06812186 0.035951972 0.0042858217
0.037356067 0.01101173 -0.053984154 0.0226379 -0.010447016 -0.0847243 -0.034185987 0.0069185034
0.05360327 0.014942401 -0.0032663378 -0.047737673 -0.037891537 0.07187049 -0.0254667 -0.056530103
0.06358157 -0.09239711 0.054492474 -0.031270273 -0.059142057 0.05497631 0.03863446 -0.040075406
-0.08749689 -0.007993464 0.017915461 0.04109572 0.047088943 -0.054820817 0.007974533 -0.024322797
-0.02797777 0.025889391 -0.029216552 0.076506026 -0.013869995 0.05449436 0.044888433 0.017409066
-0.033202153 0.01344386 -0.043111507 -0.05569714 0.0315819 -0.0455419 0.058496576 -0.027255801
0.026362766 0.07776789 -0.09033323 0.039975274 -0.030690784 0.0066952426 -0.0017891863 0.019509625
0.04974255 0.028029734 -0.019466167 0.02017543 -0.07301719 -0.034980778 -0.05564956 0.006463612
0.064113915 0.047730163 -0.0035941042 -0.078802645 -0.083644256 -0.068856746 0.0088120485 -0.03020101
-0.07855634 -0.03766208 0.07316115 0.006343788 0.050254274 0.026448011 -0.037674513 -0.049466394
0.045298558 0.026067164 0.011949247 -0.03008478 0.008498383 -0.0147097455 -0.048366126 -0.059291504
-0.04712997 -0.0053562466 0.021485124 0.06957875 0.09649829 -0.010904763 0.06940161 0.046671126
0.009974812 0.09779575 -0.022094142 -0.047821574 0.015006771 -0.0664096 -0.071236484 -0.03527454
0.05090887 0.012958257 0.06785461 0.06012611 -0.048275318 0.05936239 -0.041815404 0.058239814
-0.07343578 -0.07113728 -0.072491676 -0.081293434 0.030226093 -0.013754413 -0.019991964 0.040658597
-0.06953967 0.021634405 -0.023994755 -0.03629538 0.03540573 0.03504896 0.04682864 -0.036260124
0.06930757 0.063979946 -0.05163245 0.0022656992 0.016097343 0.009370219 -0.05172067 0.07655812
0.06823081 -0.036724567 0.08481837 0.080945395 0.0014395736 0.0060723885 -0.024535343 0.008188287
-0.012447147 -0.026575338 -0.020055087 -0.072783805 -0.06681403 0.007925884 0.025644047 -0.07601771
-0.027167162 0.009062345 -0.056525074 -0.044094708 0.09523117 0.042456433 -0.07053134 -0.050824393
-0.0056036473 -0.03821979 -0.047347408 -0.028906886 -0.043041267 -0.04037383 -0.032016065 -0.029516365
0.09514355 -0.038941965 -0.00294734 0.04433209 -0.015565772 -0.011572787 0.035953056 -0.016390549
0.021083651 -0.067307845 0.065789275 0.079087116 0.09859303 -0.08026389 0.06271538 -0.02773147
0.05778139 0.030684529 0.02788253 -0.02314659 0.013453252 0.023873448 0.040971223 -0.04122727
-0.060701687 -0.061717264 0.0064021647 -0.011710403 0.046568155 0.029207114 -0.042198043 0.09474097

net.2.linear.weight f4 [256, 256]
00000000: 5285 ad3b 4dcd 96ba ed95 45bb 81ae 23bb
00000010: 6212 b0b7 dbed 2dbb 7e89 4e3b 6ece bfbb
00000020: 88c3 65bb dcf7 b8bb c11a 7bbb bb80 163b
00000030: 68cf 2fbb 5fb0 29bc 5251 78bb a638 06bb
00000040: 6109 d5ba bab7 233b 7572 77bb 9698 b6ba
00000050: 9f53 303a 0f65 93b9 7619 8c3b fffe 29ba
00000060: 4443 8a3b 1856 773a 3486 163c f30f b93b
00000070: 6922 8cbb 8470 8e3b 1cc9 e7ba 78bd a53a
00000080: 9a6c 103b 99ee e83a f946 1fbc 5d5a 78bb
00000090: 04d1 263a 0985 d4bb 76df dabb 66af e6b9
000000a0: 27d4 5eb9 9beb d43b 343c 703b c86b bbb5
000000b0: 8e68 1dbc 65a3 6c3b 14e1 e63a 9b5c 953b
000000c0: 6520 e43a 4d0b bab9 705c f9ba b581 6d3a
000000d0: a02f 20ba 874c 043c 60a3 683b 489f 17bb
000000e0: b47a 57bb fc8c 47ba 7f2d b9ba 269d 02bb
000000f0: 3be6 263c 39a1 3dbb 896b 8e3a d2ad fe3a
00000100: 49bf c9bb 84bd 79bc f1ca 3d3b 37d1 603b
00000110: 721c 5c3a e28b dfbb 3fab b73b 4dd9 0ebb
00000120: 32eb 803b f685 56bb 965f e9ba 35db f43a
00000130: d2c2 d6b8 d614 713a ced8 61bb c7bd c1bb
00000140: 2a1e c2b9 5f30 123b 254f 973b 876b 96b9
00000150: 6cfa 0fbb 79f9 3cbb 1e92 a93b 065d 603b
00000160: 2094 f839 f1a8 3e3b 5bd3 45bc 4ef9 8f3b
00000170: c989 06bc 112b ba3b adff ec39 14d4 d8b8
00000180: 6c95 b33b 2958 893b 4e37 8d3a 4bbc 91b8
00000190: e9c3 0ebb 8308 3b3a 9341 10bb d099 80ba
000001a0: a979 91bb ac8c fc3b faa9 92b9 feae 7cba
000001b0: 8ec4 09bb 396c 4e3b ebff a0bb ca71 82bb
000001c0: 4b8a cc3b 1501 49bb d62b ec3a b01a 013a
000001d0: 3ea5 88bb f291 e4ba abe3 3439 fe75 593a
000001e0: 5d3c 083b 559d b0bb df55 8b39 353e c23a
000001f0: 271c 3f3c 6c3d 903b 131e 113b c47b 993b
00000200: 9de0 163b 32a9 0bbb 1cfa a9ba 2b7a caba
00000210: 8197 5bbb 120c f2ba e22f a03a 4e2a 4cbb
00000220: 1ed4 56bb 1b25 10bb 01ea 8db8 a490 42bb
00000230: 460d 1f3a 6bb6 0a3c 99b1 413b deaa 543b
00000240: cc3c a6bb 2ac2 f93a abbc 07bc 6adb 84bb
00000250: 9676 3ebc d4f3 96ba 5cbd d13a 59f0 b73a
00000260: 297d 38bc ad51 f7ba fdfd 613b 86ee 09bb
00000270: de52 883a c37a 433a c3d1 ac3a f73e da3a
00000280: e76e 95b9 5ac9 acba 7469 62bb d5be 953a
00000290: dee4 90ba d71d 24ba c95c b7ba 8f4a d8ba
000002a0: 1227 83ba 8e41 dfb8 72cb 4038 5217 ff3b
000002b0: c957 8bba b21b 113b 66d8 dcba e3db c4bb
000002c0: f4f7 b43a 6c1c 0839 bb43 35bb d37d 993a
000002d0: a0e3 dbb9 2dd5 7aba b521 c137 d946 c7b9
000002e0: 1e27 6abb bb60 a03b 41ff 01bb e848 2fbb
000002f0: b473 8cba 4c77 d63b f27d 73ba 327c 34bb
00000300: 9f46 45bb 3a15 f9b9 ac1e 453b 55c9 85ba
00000310: a448 8b3b 4dfc b4ba 9c12 f8ba ee81 01bb
00000320: ba7f 67bc 19c3 ea3a 2d4e 1dbb b742 b0bb
00000330: 74a0 78bb da0b 2dba 8b2a 623b 521a 043b
00000340: 5073 e9ba 4ed1 eaba ee6f 3a3b fd39 aa3a
00000350: ca4d 593b f296 b23b 779a 7a3b 7870 94bb
00000360: f480 2ebb 6a26 0339 bb8e e5ba 33a0 d33b
00000370: 2f7b 17ba 74cb f93a c91b b0bb c323 433b
00000380: 0043 62bb bc14 7f3b df61 a43b 6188 863a
00000390: 2a49 c8bb df8c 273b 3ea7 a9bb 8d3b 93bb
000003a0: 4c0b cdb9 cf2b 3c3b 607d ceba 2812 7bba
000003b0: 3d44 113b 99d2 2b3a 3cca 00b9 8363 d9b9
000003c0: efee b6b8 5807 50bb 45f6 0cbb 7719 43bb
000003d0: 0a16 d9b9 f64d e0bb 1186 4f3b dc9a 773b
000003e0: 8a44 0c3a fafc f639 b46f 5cbb 76ca dcba
000003f0: 9df2 84bb df0b 33bb 47d8 dbbb 1c63 0abc
0.005295434 -0.0011505276 -0.0030149177 -0.0024975839 -2.0989395e-05 -0.0026539478 0.0031515057 -0.0058534658
-0.0035059173 -0.0056447815 -0.0038315507 0.0022964913 -0.0026826505 -0.010356992 -0.0037890268 -0.0020480542
-0.0016253405 0.0024981336 -0.003775743 -0.0013930972 0.00067263277 -0.0002811332 0.004275496 -0.0006484836
0.0042194445 0.0009435131 0.00918727 0.0056476532 -0.004276563 0.004346909 -0.0017683837 0.0012644967
0.0022037388 0.0017771303 -0.009721511 -0.0037895658 0.0006363543 -0.0064855856 -0.0066794707 -0.000439997
-0.00021250603 0.006497813 0.0036656978 -1.3963954e-06 -0.009607447 0.0036108133 0.0017614686 0.0045581586
0.0017404674 -0.00035485104 -0.0019024741 0.00090601604 -0.00061106123 0.008074886 0.003549777 -0.002313571
-0.0032879533 -0.0007612256 -0.0014127939 -0.0019930094 0.010186727 -0.0028935208 0.0010865788 0.0019430465
-0.006156836 -0.015242938 0.0028960074 0.003430439 0.00083965727 -0.0068220953 0.005605131 -0.0021797002
0.0039342875 -0.0032733656 -0.0017804976 0.0018681051 -0.00010240603 0.0009196525 -0.00344615 -0.005912516
-0.00037025037 0.0022306663 0.004617589 -0.00028690344 -0.0021969331 -0.002883522 0.005174889 0.0034235134
0.00047412608 0.0029092396 -0.012074317 0.004393733 -0.0082115615 0.0056814034 0.0004520392 -0.00010339185
0.005480459 0.0041914177 0.0010773928 -6.949211e-05 -0.0021784252 0.0007134752 -0.0022011742 -0.0009811465
-0.004439552 0.007707199 -0.00027973932 -0.0009639113 -0.0021021697 0.0031497611 -0.0049133203 -0.00398085
0.0062420717 -0.003067081 0.0018018435 0.0004924936 -0.004170089 -0.0017438515 0.0001725095 0.0008295475
0.0020787932 -0.005389849 0.00026576125 0.0014819565 0.011664427 0.0044018533 0.002214317 0.0046839435
0.0023022064 -0.0021310565 -0.0012968215 -0.0015447786 -0.0033507051 -0.0018466732 0.0012221301 -0.0031153145
-0.003278024 -0.0021994773 -6.7669906e-05 -0.0029688263 0.00060673465 0.008466343 0.002955532 0.0032450478
-0.0050731655 0.0019055058 -0.008284728 -0.0040544765 -0.011624953 -0.0011516758 0.0016001868 0.0014033421
-0.011260309 -0.0018868946 0.0034483664 -0.0021046712 0.0010400673 0.00074569526 0.0013185072 0.0016650845
-0.00028502123 -0.0013182566 -0.0034547718 0.001142467 -0.0011054536 -0.000626055 -0.0013989444 -0.0016501712
-0.0010006151 -0.00010645679 4.596584e-05 0.0077847624 -0.001063102 0.0022141752 -0.001684916 -0.006007658
0.0013806806 0.00012980559 -0.0027658779 0.0011710472 -0.0004194053 -0.0009568509 2.3023089e-05 -0.00038009023
-0.0035728882 0.0048943437 -0.001983598 -0.0026746336 -0.0010715635 0.006544983 -0.00092884817 -0.0027539846
-0.0030101908 -0.00047508796 0.0030078096 -0.0010207096 0.004250603 -0.0013808102 -0.0018926444 -0.0019761282
-0.0141295735 0.0017910927 -0.0024002895 -0.005379047 -0.0037937434 -0.0006601192 0.003451022 0.002015729
-0.0017810855 -0.0017915161 0.0028448063 0.0012987253 0.0033157938 0.005450123 0.003823904 -0.004530009
-0.0026627155 0.00012507444 -0.001751385 0.006458306 -0.00057785487 0.0019057826 -0.005374406 0.0029775954
-0.0034524798 0.003892227 0.00501655 0.0010264033 -0.0061122375 0.0025566143 -0.0051774075 -0.004493183
-0.00039109064 0.0028712635 -0.0015753917 -0.00095775956 0.0022165917 0.0006554514 -0.0001228237 -0.00041463607
-8.722941e-05 -0.0031742658 -0.0021509093 -0.0029769817 -0.00041405886 -0.006845231 0.0031665603 0.0037781512
0.0005350789 0.0004710926 -0.0033635916 -0.0016845006 -0.004057242 -0.0027320308 -0.006709132 -0.008446481

net.2.linear.bias f4 [256]
00000000: e4bf d039 884e f13a 5a02 253d 7060 f53c
00000010: 3bbf 68bd f38a 323d d499 dd3d db52 8d3c
00000020: 5f7a ef3c c6e9 053b df7c 273d 593d f43b
00000030: ab82 b1bc 9d81 2dbd 5ac8 3fbc c8a3 25bc
00000040: 091b 1cbd 62fd a1bd 976d 30bc 56ba 1abd
00000050: 2bd4 423c 3b9b 0bbb 87ae 38bd 6b24 e5bc
00000060: 76ed a4bd 0c06 af3c 40bb 7e3d b325 12bc
00000070: b0a6 383d 0d26 513d 0ef7 273d 7c5e 9e3c
00000080: 2b24 5c3d 0f97 31bd 6ace 223d fe43 bcbb
00000090: 63e9 9f3c e0b7 39bd 0d29 1b3d 7e51 a1bc
000000a0: f6cd 8b3c 0a08 89bd fca8 963b 5579 84bc
000000b0: 29e6 4c3d 5d9e 0b3d 1eca 97bc 0d7d 80bd
000000c0: 32fd df3d 1863 45bc 3204 2ebd 88fa 913d
000000d0: cf18 c43c 2432 193c f1af 30bd 1553 ee3c
000000e0: d511 61bc b3a0 ef3a fa56 9dbc fb4c 033d
000000f0: 16bf f6bb d04d 06bd 32c8 bfbc 76d1 26bd
00000100: 3078 72bd ddf9 c4bd eb8a 993c e339 713c
00000110: 14b9 51bd 9e03 a0bc cdf0 8fbc 6bbb c93d
00000120: 14f2 06bc a471 7c3d b0dd 77bc ef4e d4bc
00000130: 0536 933d 5625 c3bb 8984 073c 11bc 323c
00000140: 5734 d63c 8429 b6bd 2a66 fc3b fb9b 893c
00000150: d2f2 483d 60ed 88bc 11a2 b73d aef1 433d
00000160: 5039 57bd 2bac 36ba 1ad4 30bb 9160 87bb
00000170: 4e25 18bd 7697 ae3c 8abd bc3d 883c 4bbd
00000180: b8a3 783d c98a c33a 653e ecbc 254c aabd
00000190: be8a 193c 263a 5b3c 2bd9 13bc 602b 19bd
000001a0: 1b56 d13d 65c0 2ebd b719 2a3d b014 133d
000001b0: a00d 353c 0995 7b3b 294f 97bd c3f7 edba
000001c0: 6b15 003c a42d 043b f866 2ebc a575 22bd
000001d0: da12 edba e30c 1cbd 6401 3aba 1f8e 8fbd
000001e0: f0b4 56bc d0de 4cbd 36b4 ccb9 85db 803c
000001f0: 6a97 193b 20c3 dc3c 8724 b33d 9639 b13c
00000200: 8200 82bd 3bac 22bc da56 8fbd 2cb2 003d
00000210: 7c8f 263d ee22 03bc c054 483d 1505 0cbc
00000220: 60f6 16bd ffa7 6a3d 7bbf 9b3c 7897 68bd
00000230: f206 863b a1db b6bc 7da4 923d f4b6 0bbd
00000240: bd26 1e3c f782 a0bd c5e1 cbbc 37d6 a6bb
00000250: 4330 fc3a c91e 023e 6d24 0a3d 0957 82bb
00000260: 02f4 d53c a309 c43b 953b c5bd 5927 78ba
00000270: 0cd7 113d fe76 de3b ad6f ac3d b13e e33b
00000280: 5632 533c 6c23 293c 99bf 68bd 9def 48bc
00000290: 0336 99bd e7ed 50bd 2f83 663d e592 6dbc
000002a0: f5bf 6abd 60b6 7a3d 8c56 28bd 9b52 913d
000002b0: 315e 99bc 227f 53bc c8e7 e23c c8a6 b53b
000002c0: e1bc 45bc 118b acbc 57b7 0ebd 7e8e e73c
000002d0: 40c8 4f3d fa84 233c 9ee8 6abd 6784 cabb
000002e0: f754 1bbd 3d5c 70bd b54a 4a3b fcf1 83bd
000002f0: af15 b8bc 25f0 47bc 7beb d7bc 9834 32bd
00000300: ba3d 61bd d526 9bbc 5933 8c3a 2af1 9e3c
00000310: 145a f1bc 4c5d a0bd 4601 0cbc d5a0 433d
00000320: 39e5 25bd 077b 553c 2032 d93c 4300 8b3d
00000330: aea5 633d 4b1c 26bc 2a74 883d b7fc b53b
00000340: 61a3 c7bd 1a49 30bb 97b3 21bd c7cd d23c
00000350: 24b0 c53c 5016 8d3c cbce a73d ab14 783c
00000360: c311 3d3d 2e9c 093d 44be c7bc 64cf 95bc
00000370: 8353 633d 82ff 413d 2633 b5bc cc40 09bc
00000380: d360 d13d f8a7 94bb 31b3 ec3b 40c8 1f3d
00000390: 74e0 bb3b 73cb b73d 1a43 183c b463 54bd
000003a0: 29dc 63bd e4c9 3e3d 3229 153d 4f39 63bc
000003b0: 15f0 ff3b 3472 4b3d 3cd6 313c 9208 933c
000003c0: d838 32bd 70e6 573d 5a59 9bbd 0093 4bba
000003d0: 841e 11bd 17e5 52bd 8b00 12bd 3f8d d5ba
000003e0: 4594 8abd bef3 233c b47e 17bd ae8c 3b3b
000003f0: cdae 34bc 2994 0e3d 3cd0 0ebb 64a4 ae3d
0.0003981582 0.0018410245 0.040285446 0.029953212 -0.056822997 0.043589544 0.10820356 0.017251423
0.029233156 0.002043353 0.04089057 0.0074536023 -0.021668753 -0.042359937 -0.011705482 -0.010109849
-0.03811172 -0.07909657 -0.010768316 -0.03777536 0.011891405 -0.0021302241 -0.045088317 -0.027971467
-0.080531046 0.021365188 0.062190294 -0.008920121 0.04508084 0.05106168 0.041007094 0.019332163
0.05374543 -0.04335695 0.039747633 -0.00574541 0.019520467 -0.045341372 0.037880946 -0.019692179
0.017065983 -0.066909865 0.004597781 -0.016171137 0.050024185 0.034086574 -0.018528994 -0.062738515
0.10936965 -0.012047552 -0.04248447 0.07127863 0.02393761 0.009350333 -0.04313654 0.029092351
-0.013737162 0.0018282145 -0.019206513 0.032055836 -0.0075301034 -0.03278905 -0.02341089 -0.0407271
-0.05919665 -0.0961797 0.018742999 0.014723274 -0.051201895 -0.019532975 -0.017570877 0.098502
-0.008236427 0.061631814 -0.015128538 -0.025916545 0.07188038 -0.0059553785 0.008271345 0.010909096
0.026148004 -0.08894637 0.0077026086 0.01679801 0.049059696 -0.016714752 0.089664586 0.047837906
-0.05254489 -0.0006968404 -0.002698189 -0.0041313847 -0.03714495 0.021312457 0.09215839 -0.049618274
0.06070301 0.001491868 -0.028838346 -0.08315305 0.009371458 0.013380563 -0.009023945 -0.03739488
0.102215014 -0.04266395 0.04152843 0.0359084 0.011050612 0.0038388392 -0.073881455 -0.0018155504
0.007817606 0.0020168805 -0.010644667 -0.039662976 -0.0018087283 -0.038098227 -0.0007095544 -0.07009529
-0.013104662 -0.050017178 -0.0003904418 0.015729675 0.0023436197 0.026948512 0.087472014 0.021633904
-0.06347753 -0.009928758 -0.069989875 0.031419918 0.04066418 -0.008003933 0.04890895 -0.0085461335
-0.036856055 0.05728912 0.019012203 -0.056785077 0.0040901834 -0.022321524 0.0716028 -0.034110025
0.009652791 -0.078374796 -0.024887929 -0.0050914544 0.0019240457 0.12707056 0.033726145 -0.0039776606
0.026117329 0.005982594 -0.09630505 -0.00094663125 0.035605475 0.0067890873 0.08419738 0.0069349636
0.012890419 0.010323387 -0.056823347 -0.0122641595 -0.07481005 -0.05100813 0.05627745 -0.014500354
-0.05731197 0.061209083 -0.041098163 0.07095834 -0.018721672 -0.012908729 0.027698413 0.0055435635
-0.012068958 -0.021062406 -0.034842815 0.028266188 0.050728083 0.009980435 -0.057350747 -0.0061803344
-0.037922826 -0.058681715 0.0030867283 -0.06442639 -0.022471277 -0.012203251 -0.026357403 -0.04350719
-0.054990508 -0.018939415 0.0010696455 0.019402105 -0.029461898 -0.07830295 -0.0085452255 0.047760803
-0.040501807 0.01302982 0.02651316 0.06787159 0.055577926 -0.0101385815 0.066627815 0.0055538076
-0.09747959 -0.002689904 -0.03947791 0.025732888 0.024131842 0.017222553 0.081937395 0.015141646
0.046159517 0.03359621 -0.024382718 -0.018287368 0.055499565 0.047362812 -0.022119116 -0.008377265
0.10223546 -0.004536625 0.0072235097 0.039009333 0.005733544 0.08974352 0.009293342 -0.051852897
-0.055629883 0.046579257 0.03641624 -0.013868644 0.0078106024 0.04966946 0.0108543 0.017948423
-0.04351124 0.052709997 -0.07585402 -0.000776574 -0.035429493 -0.05148801 -0.03564505 -0.0016292705
-0.067665614 0.010006843 -0.036986068 0.0028617787 -0.011028004 0.034809265 -0.0021791598 0.08527449

net.3.linear.weight f4 [256, 256]
00000000: 69cb 3e3a 051c 2839 37cb 4838 3f0a a238
00000010: be27 9539 254c ba38 891c 3a38 4887 a3bb
00000020: 80d7 cab6 fdcc 173c 26db 0cb8 edc0 c7b7
00000030: 003d a638 a465 aeba f97e 053b 34b6 27ba
00000040: 5e0e 3439 78ca 51b9 4562 1739 22c2 b0b8
00000050: 663d d639 179c f539 66a0 8138 4af9 29b9
00000060: 4386 a4bb b9a0 80b9 c940 6c3a 9b9e 8d34
00000070: 478f 5239 9cad cbb9 c3ef d539 083b c4b8
00000080: 6e9f 03b7 f8a9 db39 7f28 b3b9 9e73 0bb9
00000090: 6abd b8b8 a440 fa3b 3da1 f2b9 0ce1 8139
000000a0: a0b7 99b9 a564 96b9 b43c aa38 eb58 5c3a
000000b0: a7da 16b9 be99 b8b9 0779 87bb 7df9 7c37
000000c0: bff0 aa38 d164 bd3b 4ffa df3a 0bb7 1839
000000d0: 05d4 6fb9 e115 1139 142e 5db9 e131 43b9
000000e0: 82d8 f839 9b98 8639 41b4 9738 90fc b6b9
000000f0: 6f2a 45bb 5541 33b9 204a 8338 d765 10bc
00000100: ca75 61b8 7422 08ba 5770 8bb9 75f6 1c3c
00000110: 35f2 ba39 8a03 d739 f3d5 98b9 3ef6 de39
00000120: 6c0c 80b9 0ecd 1db9 c107 bbb8 80c7 1eb9
00000130: 225a a039 a84e 2238 c2eb 49b9 bf7a ea38
00000140: 8a28 83b9 3728 1939 5bba af38 0312 61b8
00000150: 67af 2d39 5623 c8ba 59d6 5339 ac14 db38
00000160: a26e 13b8 dbaf d838 9e03 283a a80d c0b8
00000170: 1b7a 28b9 201e d1b7 1572 64b8 b7fb 703b
00000180: d5ce fab8 17e9 2539 2b12 a9b7 1e80 a8b8
00000190: 12d5 7d3a dba1 20ba 8ec4 a9b7 b0d3 0e39
000001a0: c075 883b fb43 3cb9 be35 1ab8 24b3 82b9
000001b0: cc25 ffb7 d5eb 223c 1d0b 6eb9 72a0 87b9
000001c0: 45d8 393b 5236 293b 9498 47b9 956c 3f3c
000001d0: 0502 a53a 1d87 6439 6225 1d3b f846 64bb
000001e0: 47bf 24ba 3775 62b9 82e1 8fb9 cd99 a3b8
000001f0: 24c3 793b 018d 173b 1f5a 9038 a9be 273a
00000200: 3db7 1237 f43e 6835 c6fd f939 ceed a3ba
00000210: 5eab bcb9 8133 eabb aa43 73b8 a0e9 ffb9
00000220: dd8a 24b9 7b44 4139 6342 e5b8 072b 35bb
00000230: e255 df39 e165 85b9 c5d6 9a39 2bec 82b9
00000240: f6cc 4e38 4c58 1239 17d2 dc38 097a 5a39
00000250: b9c8 d4b9 e769 a83b 6630 8139 a62e 13bc
00000260: 6990 0cba 6c02 72b9 65b5 63bb f193 7aba
00000270: 8b1e 0e39 e146 b2ba e823 b539 b9d2 10ba
00000280: c897 78b8 b7bf 5f39 5832 8538 84ed ad3b
00000290: 49d3 aa39 155f 1fb9 06a2 8839 499a fc38
000002a0: 709b 4639 3838 9439 eeff 9339 18d3 15bb
000002b0: 60f6 ecb7 7846 3439 0bb1 cf38 2810 bab8
000002c0: 2429 9ab8 d4eb b539 8332 fbba 43b9 e7bb
000002d0: 50cc d939 95dd c938 19b1 b03b 492d c039
000002e0: 7855 60b7 990f 2eb8 d5e7 423b a1a5 09b9
000002f0: ec65 4537 44e9 ab39 806f bfbb 2747 c83b
00000300: e168 d5b7 1e13 f439 77e1 bb38 9219 94b9
00000310: 349e 3d39 c244 8bbb 3246 b538 bda3 9e39
00000320: 1cdc 64b9 0340 a939 a479 5239 bb30 b439
00000330: edaf 77b9 6c37 96b9 e2e5 0b3b e5b0 2538
00000340: b7cf 5f39 c1f0 573b ed68 4b38 f52a 7b38
00000350: cd4d ba38 0b72 89b8 373a e0b9 9829 38b8
00000360: 63c9 9cb7 5ed1 01b8 d099 35b9 d344 b03b
00000370: 59c3 093a a196 5dbb 8d13 52b9 8d47 6cb8
00000380: eabd 8d38 2b25 06b8 78d7 023a 8dda 123a
00000390: c1cd b039 62ba 9d3b 45d8 7139 0e77 1b39
000003a0: 3b9d feb8 efd2 463b b47f b83b d7d8 8039
000003b0: 528f c53b f6b7 e3b8 575d 32bc d3d7 0fbb
000003c0: 1e63 eb38 08d7 96b9 bdfb 7c36 78b2 8039
000003d0: 708c 8a39 2fff aab8 e2ba ab3a c2fc c038
000003e0: 1ff6 38b9 e9e7 94ba 9905 6ebb 130a 0739
000003f0: 179a 0a3a 890d 00ba f1bb 493b 8218 0b3b
0.0007278235 0.00016032167 4.7872974e-05 7.7266704e-05 0.00028449105 8.883354e-05 4.437243e-05 -0.004990492
-6.0451566e-06 0.009265182 -3.35827e-05 -2.3812487e-05 7.926859e-05 -0.0013305438 0.002036987 -0.0006397695
0.0001717149 -0.00020007219 0.0001443709 -8.428494e-05 0.00040863006 0.00046846338 6.181076e-05 -0.00016209963
-0.005020888 -0.0002453381 0.0009012339 2.6378697e-07 0.00020080536 -0.00038848526 0.00040805162 -9.357004e-05
-7.845329e-06 0.00041897572 -0.00034171712 -0.00013299144 -8.809085e-05 0.0076371003 -0.0004627797 0.0002477247
-0.00029319245 -0.00028685216 8.1175385e-05 0.0008405584 -0.00014386569 -0.00035209762 -0.0041343006 1.5078459e-05
8.151074e-05 0.0057798405 0.0017088148 0.00014564038 -0.000228718 0.00013836428 -0.00021093368 -0.0001861523
0.00047463557 0.00025672172 7.233816e-05 -0.0003490192 -0.0030085107 -0.00017095108 6.2603736e-05 -0.008813343
-5.375388e-05 -0.0005193122 -0.00026595846 0.009580244 0.00035657143 0.00041010632 -0.00029151104 0.00042526604
-0.00024423318 -0.00015049076 -8.918299e-05 -0.00015142374 0.00030584732 3.8697064e-05 -0.0001925668 0.00011180853
-0.0002501647 0.00014606198 8.379362e-05 -5.3660955e-05 0.00016563908 -0.001526932 0.00020202379 0.00010446584
-3.5150566e-05 0.00010332438 0.00064092304 -9.157817e-05 -0.00016067216 -2.492877e-05 -5.4465683e-05 0.0036771127
-0.000119594544 0.00015822459 -2.015483e-05 -8.034728e-05 0.0009682934 -0.0006127634 -2.0237898e-05 0.00013621035
0.0041644275 -0.00017954402 -3.6766512e-05 -0.00024929002 -3.041597e-05 0.009943922 -0.00022701589 -0.00025868748
0.0028357666 0.002581973 -0.00019034959 0.011683603 0.0012589103 0.00021794108 0.002397858 -0.003483234
-0.0006284606 -0.00021596705 -0.00027443102 -7.801093e-05 0.0038110698 0.0023124816 6.8832414e-05 0.0006398955
8.744942e-06 8.6518344e-07 0.00047682057 -0.0012506784 -0.00035985833 -0.007147253 -5.799873e-05 -0.00048811454
-0.0001569199 0.00018431425 -0.000109319364 -0.0027644054 0.00042597862 -0.00025443643 0.00029533185 -0.0002497149
4.9305112e-05 0.00013956538 0.0001052955 0.00020835562 -0.0004058534 0.0051395777 0.00024640857 -0.00898329
-0.0005362095 -0.0002307982 -0.003474557 -0.0009558788 0.00013553553 -0.0013601446 0.00034549762 -0.0005524564
-5.9269165e-05 0.00021338357 6.3513115e-05 0.005307855 0.00032582346 -0.00015198842 0.00026060658 0.00012045034
0.00018940656 0.00028270646 0.00028228707 -0.0022861417 -2.824812e-05 0.0001719239 9.903506e-05 -8.8721805e-05
-7.350955e-05 0.00034698716 -0.0019164834 -0.0070716455 0.0004154169 9.6257e-05 0.0053922054 0.00036654834
-1.337134e-05 -4.149936e-05 0.0029740233 -0.0001312704 1.1765846e-05 0.00032789458 -0.0058421493 0.0061119976
-2.5440417e-05 0.0004655355 8.958851e-05 -0.0002824781 0.0001808338 -0.00425014 8.6438275e-05 0.00030258103
-0.00021825772 0.00032281884 0.00020072475 0.00034368582 -0.00023621293 -0.00028651522 0.0021346738 3.950381e-05
0.00021344317 0.0032949897 4.849669e-05 5.988307e-05 8.883663e-05 -6.553911e-05 -0.00042767983 -4.3907756e-05
-1.8690427e-05 -3.0950985e-05 -0.00017318805 0.0053792982 0.00052552443 -0.0033811706 -0.00020034444 -5.633342e-05
6.758778e-05 -3.1982705e-05 0.0004991214 0.00056020246 0.00033722635 0.0048134783 0.00023064118 0.00014826303
-0.0001214095 0.0030338129 0.005630458 0.0002457562 0.006029048 -0.00010858469 -0.010886512 -0.002194871
0.00011224135 -0.0002877044 3.7697457e-06 0.00024547032 0.00026426045 -8.153763e-05 0.001310196 9.202353e-05
-0.00017639295 -0.0011360619 -0.0036319254 0.00012878356 0.00052872434 -0.00048848294 0.0030782188 0.0021224325
