log1/rrrbest_model_59999.pt (torch, 802249 bytes, 9 tensors)

net.0.linear.weight f4 [256, 7]
0	0xbd1cbc7f	-0.0382657
1	0x3e07cbac	0.13261288
2	0x3e223ae6	0.1584278
3	0x3da41c8d	0.08013258
4	0xbd5e624b	-0.05429296
5	0xbceb1cb9	-0.02870022
6	0xbd8ed91a	-0.069750026
7	0x3af0e535	0.0018378856
8	0x3ce64f28	0.028113917
9	0xbb200a52	-0.0024420214
10	0xbc49ae0d	-0.012309563
11	0x3d94f766	0.0727375
12	0xbc24b9e5	-0.010054086
13	0xbdcf7146	-0.10129027
14	0x3dc67099	0.09689445
15	0x3cbaac00	0.022787094
16	0x3da1c1ff	0.0789833
17	0xbc8af8ec	-0.016964398
18	0xbce6bfb7	-0.028167589
19	0xbd674179	-0.056458924
20	0xbd57b862	-0.052666076
21	0xbc8eafe9	-0.017417865
22	0x3d782579	0.06058261
23	0xbc200cca	-0.009768674
24	0x3d0a256a	0.033727087
25	0xbe008328	-0.12550032
26	0x3cc3063b	0.023806682
27	0x3d916d7d	0.07100961
28	0xbdc25822	-0.09489466
29	0x3d7a5374	0.061114743
30	0x3e185c33	0.14878921
31	0xbb045c24	-0.0020196522
32	0x3cab972f	0.020946113
33	0x3d066ae4	0.032816783
34	0xbd09dc41	-0.033657316
35	0x3d3172ec	0.04332249
36	0x3d6d7dcc	0.057981297
37	0x3dd620c5	0.10455469
38	0x3dff5802	0.12467958
39	0x3d4d264b	0.050085347
40	0xbd6e6366	-0.058200262
41	0xbddc7ed4	-0.10766378
42	0xbdf5780d	-0.119857885
43	0x3dfe4368	0.124152005
44	0xbc6e7e20	-0.014556438
45	0x3c85ffd0	0.016357332
46	0x3c32cbb2	0.010912823
47	0x3d83b124	0.06430271
48	0xbd3efbfb	-0.046627026
49	0x3d247b09	0.040156398
50	0x3cf705fa	0.030154217
51	0xbd4fd5bc	-0.050740942
52	0xbdbdcbac	-0.09267363
53	0xbd844c73	-0.06459894
54	0x3dbe3e52	0.092892304
55	0xbe080961	-0.13284828
56	0xbda299a2	-0.079394594
57	0x3c8a134e	0.016854908
58	0x3b29782c	0.0025858982
59	0x3e09462c	0.13405675
60	0xbd2a44c8	-0.0415695
61	0xbcb38f09	-0.02191879
62	0x3b89de67	0.0042074206
63	0x3aabc8ab	0.0013106068
64	0xbdb25b21	-0.08708788
65	0xbd8d88fb	-0.069108926
66	0xbddd6799	-0.10810775
67	0x3db26554	0.08710733
68	0x3d23dfa4	0.040008202
69	0xbd557ee1	-0.052122954
70	0x3da53b17	0.08067911
71	0x3db5fb9b	0.088858806
72	0xbe1e0c81	-0.15434457
73	0x3d1333d7	0.03593811
74	0x3cd859ed	0.026410067
75	0x3e0b8ea6	0.13628635
76	0x3c21e451	0.009881095
77	0x3b8358e6	0.0040084003
78	0xbb827f75	-0.003982479
79	0xbca853e4	-0.020547815
80	0x3c046253	0.008080083
81	0x3ccc1e7d	0.024916882
82	0x3d7541e9	0.05987731
83	0xbde9e717	-0.1142103
84	0x3daa1cc0	0.08306265
85	0x3da4612d	0.08026347
86	0xbc285be8	-0.010275818
87	0x3d777af9	0.06042001
88	0xbdb74efd	-0.08950613
89	0xbd377fd5	-0.044799645
90	0xbd64fe3f	-0.05590653
91	0x3dac3fb7	0.0841059
92	0xbcb5aaef	-0.022176234
93	0x3e054d6b	0.13017814
94	0xbd937cd4	-0.072015435
95	0xbd2ba2e6	-0.0419034
96	0x3d857d06	0.06517987
97	0x3cea05d8	0.02856724
98	0x3df2b483	0.11850836
99	0x3e3f7caa	0.186999
100	0x3e016dc9	0.12639536
101	0xbbed3fee	-0.007240287
102	0x3d707f70	0.058715284
103	0x3d279726	0.04091563
104	0xbcf6d44a	-0.030130524
105	0x3dab5984	0.08366683
106	0xbd86d958	-0.06584424
107	0x3d2faa52	0.04288704
108	0xbc5dfd0e	-0.0135491025
109	0xbae86a24	-0.0017731828
110	0xbdceae6e	-0.100918636
111	0xbb9a82d3	-0.0047153025
112	0x3cd79a1a	0.026318599
113	0x3e094373	0.13404636
114	0xbe15dd98	-0.14635313
115	0xbdb6095d	-0.08888505
116	0x3d8ccbda	0.06874819
117	0xbdf46888	-0.11934
118	0xbe06aaf4	-0.13151151
119	0xbded26cf	-0.11579668
120	0x3e04d06c	0.12970132
121	0xbcd707ca	-0.026248831
122	0x3e0ba4ba	0.13637057
123	0x3dcca6eb	0.099927746
124	0x3d97f830	0.07420385
125	0xbde76d87	-0.113001876
126	0xbbceefb7	-0.0063151973
127	0x3e02586e	0.12729046
128	0xbc0b7fa7	-0.008514321
129	0xbd8e5852	-0.069504395
130	0x3da2f6ff	0.07957267
131	0xbbf0e6a0	-0.0073517114
132	0x3e03b1ad	0.12860747
133	0x3ddce512	0.10785879
134	0x3e1d944e	0.15388605
135	0xbdf4fa9b	-0.11961862
136	0x3d9277b0	0.07151735
137	0xbdb23226	-0.08700971
138	0xbc8e8ce4	-0.017401166
139	0xbd12c1a9	-0.03582922
140	0x3d1631c0	0.03666854
141	0xbe50d583	-0.20393948
142	0x3dbe95f1	0.09305943
143	0xbbda039f	-0.0066532637
144	0xbd0cb25d	-0.034349788
145	0x3dba6249	0.09100778
146	0xbdee9f64	-0.11651495
147	0xbe00145a	-0.12507764
148	0x3d163173	0.036668252
149	0x3b2a6604	0.0026000747
150	0xbd785953	-0.06063206
151	0x3dd135c5	0.10215334
152	0x3d4c992b	0.04995076
153	0x3d3c7bec	0.04601662
154	0xbd2d2cda	-0.042279102
155	0xbd0905ec	-0.033452913
156	0xbc61fdd7	-0.01379343
157	0x3de18e51	0.11013473
158	0x3d9de45f	0.07709574
159	0x3d24f94a	0.040276803
160	0x3da97bf0	0.08275592
161	0x3debde6e	0.115170345
162	0x3db7e219	0.089786716
163	0xbdef67cc	-0.116897196
164	0xbd328601	-0.043584827
165	0xbe0611cd	-0.13092728
166	0xbd1360af	-0.035980877
167	0x3d1111b2	0.035417266
168	0x3d8331c4	0.064059764
169	0xbc2ac0fb	-0.010421987
170	0x3d465ff5	0.048431356
171	0xbe002f99	-0.12518157
172	0x3d10a87d	0.035316933
173	0xbdb26616	-0.087108776
174	0xbdc439f1	-0.09581364
175	0xbce1e534	-0.027575113
176	0xbc89c055	-0.016815344
177	0x3d799626	0.06093421
178	0x3d01458a	0.03156046
179	0x3cbecba1	0.023290457
180	0xbd983132	-0.07431258
181	0x3e01f041	0.12689306
182	0x3d80d65b	0.06290885
183	0xbd25d565	-0.040486712
184	0xbc8a7ca6	-0.01690514
185	0xbdf2a95a	-0.118487075
186	0x3dc3fc95	0.095696606
187	0x3d4acef7	0.049513783
188	0xbd94379a	-0.07237168
189	0x3c9bb439	0.019006835
190	0xbd52076d	-0.051276613
191	0xbcfa4079	-0.030548321
192	0xbd4993f2	-0.049213357
193	0x3dd5271d	0.10407851
194	0x3d90ddde	0.07073568
195	0x3cf1eae5	0.029530952
196	0x3e18341f	0.14863633
197	0xbce41e6a	-0.027846534
198	0xbdec8d39	-0.115503736
199	0xbc7186d6	-0.01474162
200	0xbd3bb280	-0.045824528
201	0x3d1b4c26	0.037914418
202	0xbd130b35	-0.03589936
203	0xbbc6848d	-0.0060582818
204	0xbc09d82e	-0.008413358
205	0x3bff2249	0.0077860695
206	0xbc3d906c	-0.011570077
207	0x3b01d0ba	0.0019808249
208	0x3cdabe88	0.02670218
209	0xbdb93aa6	-0.090443894
210	0xbd4438fc	-0.047905907
211	0xbd49c875	-0.049263436
212	0xbd6d3f08	-0.05792144
213	0x3db99e9b	0.09063455
214	0x3dc57152	0.09640755
215	0x3dee20f6	0.116273805
216	0xbdf11387	-0.11771303
217	0xbd19ba1d	-0.037531007
218	0x3b77b393	0.0037796244
219	0xbd8f246e	-0.0698937
220	0x3d8270c9	0.06369168
221	0xbd636628	-0.055517346
222	0x3e01e06b	0.12683265
223	0xbd188f1c	-0.037245855
224	0x3df35732	0.118818656
225	0xbd426586	-0.0474601
226	0x3be387f8	0.006943699
227	0xbe146de4	-0.14495045
228	0xbd3b09ed	-0.045663763
229	0xbd937cf1	-0.07201565
230	0x3d5192e3	0.051165473
231	0x3d3fcc4f	0.046825703
232	0xbcaa8273	-0.020814156
233	0xbdb60da1	-0.08889318
234	0xbdd72cf1	-0.10506619
235	0x3da2fd70	0.079584956
236	0x3d1d541f	0.038410302
237	0xbd826c76	-0.063683435
238	0xbdde10bc	-0.108430356
239	0xbe1cbfaa	-0.15307489
240	0x3e16f90e	0.14743444
241	0xbcf73a67	-0.030179216
242	0x3cdbcc35	0.026830772
243	0x3ba12731	0.004918002
244	0xbd6aee14	-0.057355955
245	0x3d119e28	0.03555122
246	0xbd4a13b7	-0.049335208
247	0xbbc20b34	-0.0059217457
248	0x3b939827	0.004504222
249	0x3e078d6b	0.1323754
250	0x3d1e3190	0.038621485
251	0xbd5f953d	-0.054585684
252	0x3dbed501	0.09317971
253	0x3d99ebd9	0.075156875
254	0xbde56c6e	-0.11202322
255	0xbcdff3dd	-0.027337963

net.0.linear.bias f4 [256]
0	0xbeb62294	-0.35573256
1	0x3e2a963e	0.16658875
2	0x3ea1ae8a	0.31578475
3	0x3eb266be	0.3484401
4	0xbc24e2eb	-0.010063867
5	0x3e98b674	0.298267
6	0x3e6bd097	0.2302879
7	0x3d8a0a0b	0.06740197
8	0x3e92b9b3	0.28657302
9	0x3e1a2703	0.15053944
10	0x3da41aa2	0.08012892
11	0x3e09d73c	0.13461012
12	0xbe285e03	-0.16442113
13	0xbeb2b22b	-0.34901556
14	0x3e4374c0	0.19087505
15	0xbd1b547d	-0.03792237
16	0xbec36ee2	-0.38170534
17	0x3c846b13	0.016164338
18	0x3d7c98bd	0.0616691
19	0xbe395a5c	-0.18100876
20	0xbe13ce8a	-0.14434257
21	0x3e72773b	0.23678295
22	0xbe762cd7	-0.24040543
23	0xbdb6b053	-0.0892035
24	0xbdfebeaa	-0.1243871
25	0xbeb42c4f	-0.35190055
26	0x3e3628ae	0.17788956
27	0xbeb08bb2	-0.3448158
28	0x3e1abd6d	0.15111323
29	0x3ec6cc17	0.38827583
30	0xbebee945	-0.37287346
31	0xbeaa2af8	-0.33235908
32	0xbe5ba2fa	-0.2144889
33	0xbe82afa0	-0.25524616
34	0x3ca88968	0.020573333
35	0x3deaf5cd	0.11472664
36	0x3dd1ee03	0.10250475
37	0x3e9a2906	0.30109423
38	0x3e3abc1c	0.1823582
39	0x3d8db999	0.069201656
40	0xbc6b23a0	-0.014351755
41	0x3ea285e8	0.31742787
42	0xbe60a471	-0.2193773
43	0xbe9baa06	-0.30403155
44	0x3eb719fa	0.35762006
45	0xbe2ea03e	-0.17053315
46	0xbd1fb838	-0.038994044
47	0xbe1ad8e3	-0.15121798
48	0x3dd17d9d	0.10229037
49	0xbeaa74ba	-0.3329218
50	0x3e687e10	0.22704339
51	0xbebe9b68	-0.3722794
52	0xbe8e0ba5	-0.2774326
53	0x3e54ac82	0.20768932
54	0xbe0f8fb6	-0.14019665
55	0xbd730b67	-0.059337046
56	0x3a851559	0.0010153457
57	0xbdd4a57c	-0.10383126
58	0xbe08704e	-0.13324091
59	0x3e3b5145	0.1829272
60	0xbd592f43	-0.053023588
61	0x3e870d53	0.26377353
62	0x3e28cbcb	0.16483991
63	0x3e5628b6	0.20913967
64	0xbea44d1d	-0.32090083
65	0x3ec5c5f0	0.38627577
66	0x3e993288	0.29921365
67	0xbec4f3da	-0.38467294
68	0x3ec0f0ff	0.37683865
69	0x3d860786	0.06544404
70	0x3baea0f6	0.0053292466
71	0xbea15b3d	-0.31514922
72	0xbe9406df	-0.28911492
73	0x3eac6a9a	0.3367508
74	0x3dead2da	0.11465998
75	0x3e0318e7	0.12802468
76	0xbda9ecb9	-0.082971044
77	0xbeb04411	-0.3442693
78	0x3e3f5a0d	0.18686695
79	0x3e9872ac	0.29774988
80	0xbe8830f7	-0.26599857
81	0x3e9409a8	0.28913617
82	0xbd526edc	-0.051375255
83	0xbe8ee969	-0.27912453
84	0xbe18d6e5	-0.14925726
85	0x3ea1af7e	0.31579202
86	0xbd872f91	-0.066008694
87	0xbe8379bb	-0.2567881
88	0xbd8c6632	-0.0685543
89	0xbea8d596	-0.32975453
90	0xbe8de0af	-0.27710482
91	0xbcd7bab5	-0.026334146
92	0xbe5d9fa3	-0.21642928
93	0x3db660d1	0.08905185
94	0x3e2092a4	0.15680939
95	0xbdc91776	-0.09818928
96	0xbd7bb795	-0.061454374
97	0xbe00c7f0	-0.1257627
98	0x3e90e311	0.28298238
99	0x3e97b3fb	0.29629502
100	0x3e89d2f8	0.2691877
101	0x3ddfd347	0.1092897
102	0xbd3afe06	-0.045652412
103	0x3d8a3fef	0.067504756
104	0xbe815844	-0.25262654
105	0x3e885736	0.26629037
106	0xbde8dae6	-0.113698766
107	0x3e80cf90	0.25158358
108	0x3e0c0798	0.13674772
109	0xbec5ae4c	-0.3860954
110	0x3e8970f2	0.26843983
111	0xbe090921	-0.13382389
112	0x3e83a4ea	0.25711757
113	0xbdca90e1	-0.09890915
114	0x3d00d3e4	0.031452075
115	0x3d3c5bf8	0.045986146
116	0xbd0c99ad	-0.034326244
117	0x3e0ee1ab	0.13953273
118	0xbe123001	-0.14276125
119	0x3d2aec01	0.041728977
120	0xbe15f233	-0.14643173
121	0x3dcd7c3d	0.10033462
122	0xbe267666	-0.16256103
123	0x3e545c40	0.20738316
124	0x3debb9e2	0.11510064
125	0xbe1f5625	-0.15560205
126	0x3c9f225f	0.01942557
127	0xbda8f1f9	-0.082492776
128	0xbe0a07eb	-0.13479583
129	0x3ea17fd6	0.31542844
130	0xbcd5b3dc	-0.02608674
131	0x3e9b3709	0.30315426
132	0x3e59e47a	0.21278563
133	0x3eb14572	0.34623295
134	0x3e4ceae7	0.20011483
135	0xbd5bfd72	-0.0537085
136	0x3de2c370	0.11072433
137	0x3df9b23d	0.121921994
138	0x3e36ba62	0.17844537
139	0xbdcd9def	-0.10039889
140	0x3e74d43a	0.23909083
141	0x3da164f5	0.07880584
142	0x3eb726e3	0.35771856
143	0xbea71c18	-0.3263862
144	0x3e8c8d48	0.2745154
145	0x3e2dca30	0.1697166
146	0x3e86249d	0.2619981
147	0xbeb34748	-0.3501532
148	0x3de7d174	0.11319247
149	0xbe60edd7	-0.21965729
150	0xbd9b9ec1	-0.07598639
151	0xbea82046	-0.32837123
152	0xbd07adc2	-0.033124693
153	0xbe562c19	-0.2091526
154	0xbe448c48	-0.19194138
155	0x3e1b57ec	0.15170258
156	0x3ce3fb36	0.027829748
157	0xbe96312e	-0.29334396
158	0xbbe76e38	-0.0070626996
159	0xbe83249d	-0.2561387
160	0xbd3468d9	-0.044045303
161	0x3d04f422	0.032459386
162	0x3c84f5a1	0.016230406
163	0xbeac3934	-0.33637393
164	0xbe21da25	-0.15805872
165	0x3e7f3126	0.24921092
166	0x3d9e4eb6	0.07729857
167	0x3d3da83c	0.04630302
168	0x3e4a31b5	0.19745524
169	0xbe1e0a86	-0.15433702
170	0xbe96cf90	-0.29455233
171	0x3e91a661	0.2844725
172	0x3eb55008	0.35412621
173	0x3e328ed8	0.17437303
174	0xbe837c77	-0.25680897
175	0xbe67f43c	-0.22651762
176	0xbead481c	-0.33844078
177	0x3ebca819	0.36846998
178	0xbc67951e	-0.014134673
179	0xbdd33499	-0.103127666
180	0xbe883b72	-0.26607853
181	0x3e56ae28	0.20964873
182	0x3e3e4008	0.18579113
183	0xbe1602f7	-0.14649568
184	0xbd09d81e	-0.03365337
185	0x3e9efb05	0.31050888
186	0x3eaf0bc4	0.34188664
187	0xbea694f8	-0.3253553
188	0x3e7f1343	0.24909692
189	0x3e6dc08c	0.23217982
190	0xbd84243f	-0.06452226
191	0xbebdd78f	-0.3707852
192	0x3e3d0599	0.18459167
193	0x3e3542e9	0.17701305
194	0xbe5252b0	-0.20539355
195	0x3dbc2848	0.091873705
196	0xbe3aeeb0	-0.18255115
197	0x3e040580	0.12892723
198	0x3ebb67f5	0.3660275
199	0xbdd9f35c	-0.1064212
200	0xbe4c487a	-0.19949523
201	0xbe7d1f12	-0.24718884
202	0x3e84c431	0.25930932
203	0x3e8e697a	0.27814847
204	0xbe64fe8d	-0.22362728
205	0xbe7ffd88	-0.24999058
206	0x3cad028d	0.02111938
207	0x3d904063	0.07043531
208	0x3ebecd12	0.3726583
209	0x3e804007	0.2504885
210	0x3eae2f69	0.34020546
211	0xbe835789	-0.25652722
212	0x3e8d2b7d	0.2757224
213	0x3e9c9dfe	0.30589288
214	0x3e727b3e	0.23679826
215	0xbe8da2ab	-0.27663168
216	0x3ea14703	0.3149949
217	0xbe0105cb	-0.12599866
218	0x3d7e1e9e	0.062040918
219	0xbdf96e8d	-0.12179289
220	0x3ea0dfbe	0.31420702
221	0x3e9540ac	0.29150903
222	0x3e12359c	0.14278263
223	0xbe90d26e	-0.28285545
224	0xbe2c374e	-0.16817972
225	0xbe5e2d12	-0.2169688
226	0xbe0f43bb	-0.13990681
227	0xbdb9acd2	-0.09066166
228	0x3c8079d2	0.015683088
229	0xbdcdca34	-0.10048333
230	0xbdf00e23	-0.11721446
231	0xbd79d467	-0.06099358
232	0x3e8e5cba	0.2780512
233	0x3d612910	0.0549708
234	0x3e53e1d1	0.20691611
235	0x3bfa647f	0.0076413746
236	0xbdab1d85	-0.0835524
237	0x3e7618e7	0.24032937
238	0xbe98afd1	-0.29821637
239	0xbe35d145	-0.17755611
240	0x3e65ad9f	0.22429512
241	0xbeb62640	-0.35576057
242	0xbe0f4a50	-0.13993192
243	0x3e5b9d8e	0.21446821
244	0xbc11840b	-0.008881579
245	0xbc10461f	-0.008805781
246	0xbdb07934	-0.08616868
247	0xbe668f65	-0.22515638
248	0x3e540367	0.20704423
249	0xbe2bc162	-0.16772988
250	0x3b8d8d88	0.0043198504
251	0xbe934da9	-0.28770187
252	0x3e65a6cb	0.22426908
253	0x3e499d01	0.19688798
254	0xbe9f96fa	-0.31169873
255	0x3e8a059d	0.26957408

net.1.linear.weight f4 [256, 256]
0	0xbca71131	-0.02039394
1	0x3c3d0675	0.011537184
2	0xbccde9cd	-0.025135899
3	0x3c62f7ce	0.013853027
4	0x3c7bdb9e	0.015372185
5	0xbb9cbc81	-0.0047832136
6	0x3ae136d1	0.0017182474
7	0xbcd75be8	-0.026288942
8	0x3c549b8d	0.012976539
9	0x3d218b7b	0.03943966
10	0x3ce3109a	0.027717877
11	0x3cd0222c	0.02540692
12	0x3c3254fe	0.0108845215
13	0x3c2c1c4a	0.0105047915
14	0xbabf45cb	-0.0014592943
15	0x3c2a7ca5	0.010405694
16	0xbb646afb	-0.0034853804
17	0x3b00d7c5	0.0019659859
18	0x3c14d1a5	0.009083186
19	0x3c08bc11	0.00834562
20	0xbca867b4	-0.020557262
21	0xb8ee2826	-0.000113562026
22	0xbab7396f	-0.0013978909
23	0xba1afb40	-0.0005912073
24	0x3c04ea21	0.008112461
25	0xbcc09df8	-0.023512825
26	0xbc54528b	-0.012959133
27	0xbc72330d	-0.014782679
28	0x3bfbb587	0.007681552
29	0x3c92ed8f	0.017935542
30	0x3b3c49b5	0.0028730456
31	0x3c1ee512	0.009698169
32	0x3c1eaa7d	0.009684202
33	0xbb754c4f	-0.0037429517
34	0x3cdf07cb	0.027225396
35	0xbb91848f	-0.004440851
36	0xbbeb42be	-0.007179587
37	0xbc8e07b4	-0.017337658
38	0xbc3ea4fe	-0.011636017
39	0x3c72a96c	0.014810901
40	0xbc305efb	-0.010764833
41	0xbc75cd65	-0.015002583
42	0xbbbb164b	-0.0057094446
43	0xbc050128	-0.008117951
44	0xbc5ff1d7	-0.013668499
45	0x3b72af65	0.0037030813
46	0xbaa643ea	-0.0012685035
47	0xbae0da1a	-0.0017154843
48	0x3c131940	0.008978188
49	0x3c0214d5	0.007939537
50	0x3a901d82	0.0010995122
51	0xbc63ca6c	-0.013903242
52	0x3ad8d197	0.0016541955
53	0x3c42557b	0.0118612
54	0xbb2ae538	-0.0026076566
55	0xbcf549b2	-0.029942367
56	0x3c2bd355	0.010487397
57	0x3c051488	0.008122571
58	0x3b5aa098	0.0033359881
59	0x3b7345fd	0.0037120574
60	0xbc81a6a8	-0.015826538
61	0x3c5182df	0.01278755
62	0xbb3fe867	-0.002928281
63	0xbc7842f9	-0.015152686
64	0xbc24bb01	-0.010054351
65	0xbbe9a2b5	-0.007129992
66	0xbc351a81	-0.011053682
67	0xbaa24edf	-0.0012383125
68	0x3c9cb73f	0.019130347
69	0xbacad002	-0.0015473368
70	0xbcec879a	-0.028873254
71	0x3cc9ef74	0.024650313
72	0xbc6a3e99	-0.014297151
73	0x3cf7f1d5	0.030266682
74	0x3c54c952	0.012987452
75	0x3c816d0b	0.015799066
76	0xbb278255	-0.0025559862
77	0x3cffe480	0.031236887
78	0xbbd94337	-0.006630327
79	0xbad7ee67	-0.0016474248
80	0x3c578eaa	0.013156572
81	0xbc7d235a	-0.015450323
82	0x3ac2f26d	0.0014873274
83	0xba6b8840	-0.00089848414
84	0xbba0db63	-0.0049089654
85	0x3c6d9fbf	0.0145034185
86	0xbbb2942d	-0.005449793
87	0xbb25cf3d	-0.0025300526
88	0x3bbeb17b	0.005819497
89	0x3c18d144	0.009327237
90	0x3cf64186	0.03006054
91	0x3cf143ee	0.029451337
92	0x3c0d5cef	0.008628114
93	0xbcbe6f83	-0.023246532
94	0xbbe48db7	-0.0069749015
95	0xbc90a093	-0.017654693
96	0x3909cb85	0.00013141155
97	0x3be8e71f	0.00710763
98	0x3ca80eca	0.020514864
99	0xb9a0d091	-0.00030672972
100	0xbca8e67b	-0.020617714
101	0xbc7ecd97	-0.015551946
102	0x3ca9280a	0.020648975
103	0xbc47ff6c	-0.012206893
104	0x3d3b4356	0.045718513
105	0x3ceeb6c4	0.029139884
106	0x3c8cfecf	0.017211346
107	0x3cdaa70c	0.026690982
108	0x3c16c174	0.009201396
109	0xbc818e7a	-0.015815008
110	0x3c3b8aab	0.011446635
111	0xbce07943	-0.027401572
112	0xba2a918f	-0.0006506675
113	0xbcdae23a	-0.026719201
114	0x3c22c9f0	0.009935841
115	0xbb83ebee	-0.0040259277
116	0xbb236b21	-0.002493568
117	0xbbbc98dc	-0.005755527
118	0x3aedbfb9	0.0018138803
119	0x3b43717a	0.0029822276
120	0x3a241705	0.00062595337
121	0x3c4a7a6d	0.01235829
122	0xbbca39c4	-0.006171437
123	0xbc3820e5	-0.011238311
124	0x3c355ca8	0.011069454
125	0xbd067611	-0.03282744
126	0x3c55de5c	0.013053503
127	0xbcc0720b	-0.02349188
128	0x3c253290	0.010082856
129	0x3cb13b95	0.021634856
130	0x3c2c4a7a	0.0105158035
131	0xbc230db0	-0.009951994
132	0x3c92f94d	0.017941142
133	0xbb9fa732	-0.004872226
134	0xbc8bd422	-0.017068926
135	0x3c1e188a	0.009649405
136	0xbcecf5a8	-0.028925732
137	0xbcf3169e	-0.02967387
138	0xba75d8ea	-0.0009378331
139	0xbc8821f3	-0.01661775
140	0xbbe8a5e0	-0.007099852
141	0xbc9ae99f	-0.018910227
142	0x3d26c27c	0.04071282
143	0xbc1d407d	-0.009597895
144	0xbc53ae6c	-0.012920003
145	0xbc1395e7	-0.0090079075
146	0x39a5e807	0.00031644126
147	0x3b113406	0.0022156253
148	0x3c5daa1c	0.013529327
149	0xbbaec2d7	-0.0053332853
150	0x3c4283d0	0.011872247
151	0x3b96b529	0.0045992327
152	0xbd0ea036	-0.034820758
153	0xbc157b96	-0.009123703
154	0xbbfa02e4	-0.007629739
155	0xbc306586	-0.010766393
156	0x3c03b6c0	0.008039176
157	0xbc4db63d	-0.012555656
158	0xbc609d8a	-0.013709435
159	0x3c786516	0.0151608195
160	0xb9e8b44b	-0.00044384817
161	0xbc5d8355	-0.0135200815
162	0x3ae5e757	0.0017540258
163	0x3ca12c77	0.019674523
164	0xbc95c99b	-0.01828461
165	0x3ca7d8a9	0.020489054
166	0x3cb80f86	0.02246834
167	0x3c677b84	0.0141285695
168	0xbbbcbfdf	-0.0057601775
169	0x3b979801	0.0046262746
170	0x3c02dbaa	0.007986942
171	0x3be97e59	0.0071256575
172	0xbb7e11bb	-0.0038767892
173	0x3cdae3ac	0.02671989
174	0x3cb08b56	0.021550816
175	0x3c935276	0.017983656
176	0x3a65a98e	0.00087609224
177	0xbcb58278	-0.022156939
178	0x3bb2c784	0.005455913
179	0xbce455b8	-0.027872905
180	0xbccb5dcf	-0.024825005
181	0xbcace500	-0.02110529
182	0xbc120784	-0.008912925
183	0x3c7bb1f5	0.0153622525
184	0xbc0a6499	-0.008446836
185	0x3c8e1a39	0.017346488
186	0xbbd8c24a	-0.006614958
187	0xbcad24e2	-0.021135751
188	0x3c5b1083	0.013370636
189	0xbc27b230	-0.010235354
190	0x3c835b6e	0.016034808
191	0x3cccfcb4	0.025022842
192	0xbcb3197c	-0.021862738
193	0xbc00ee71	-0.007869349
194	0xbb8cff46	-0.004302892
195	0x3cbb8fb0	0.022895664
196	0x396332bb	0.00021667306
197	0xbc1808a1	-0.009279401
198	0x3d137e12	0.036008902
199	0xbbe0522c	-0.006845733
200	0x3d06aca4	0.032879487
201	0xbc300fff	-0.010746001
202	0x39c64431	0.0003781631
203	0x3c2e1537	0.010625175
204	0x3b839b78	0.004016336
205	0x3ce5e015	0.028060952
206	0x3bd91d00	0.0066257715
207	0x3c81bd33	0.015837288
208	0xbc6cb162	-0.014446588
209	0x3c182076	0.009285083
210	0xbc00be22	-0.007857831
211	0xbd15f406	-0.036609672
212	0xbc63434e	-0.013871027
213	0x3c0c2d33	0.008555698
214	0x3c382b6d	0.011240822
215	0xbb8d2f1c	-0.0043085944
216	0x3ac49e4e	0.0015000792
217	0xbc280049	-0.010253974
218	0xbc82e382	-0.015977625
219	0x3af415ea	0.0018622254
220	0x3cdb0f64	0.026740737
221	0xbc8868a8	-0.016651466
222	0x3cc93f05	0.024566183
223	0x3bf19a49	0.0073731286
224	0xbb76f785	-0.0037684154
225	0xbb03d5f8	-0.002011655
226	0xbc6ae4c1	-0.014336766
227	0x3b69a52c	0.0035651429
228	0x3ca1f2d6	0.019769114
229	0x3c8aa84a	0.01692595
230	0x3be6414d	0.0070268274
231	0x3c048fd2	0.00809093
232	0x3bf096dc	0.0073422026
233	0x3c9337af	0.017970888
234	0xbc8ded2a	-0.017325003
235	0x3c4de5c4	0.012566987
236	0x3bd38c07	0.0064559015
237	0xbbba4200	-0.0056841373
238	0x3c5ba207	0.01340533
239	0xbceb02f7	-0.028687937
240	0x3b7ebb92	0.0038869125
241	0x3cce9886	0.025219213
242	0x3bb9926d	0.0056632073
243	0xbcdeb5f5	-0.027186373
244	0x3c3034fa	0.010754818
245	0xbc279cbc	-0.0102302395
246	0xbc0ffc6a	-0.008788208
247	0x3a3e48c8	0.000725877
248	0xbc82605d	-0.01591509
249	0xbc9034f0	-0.017603368
250	0x3c082692	0.008309977
251	0xbcf72835	-0.03017054
252	0xbd02f401	-0.03197098
253	0xbaeb5cf6	-0.0017956782
254	0xbb7a61c0	-0.0038205236
255	0x3c8251fe	0.015908238

net.1.linear.bias f4 [256]
0	0x3d030434	0.03198643
1	0x3d86ece5	0.06588153
2	0x3c0ffaae	0.008787794
3	0xbbf51d6b	-0.0074803135
4	0x3da41434	0.08011666
5	0xbcb664a6	-0.02226479
6	0xbb1a659f	-0.0023559106
7	0xbcbb7ec3	-0.022887593
8	0x3d0d2994	0.03446348
9	0xbcc7123e	-0.02430069
10	0xbd90cc42	-0.07070209
11	0x3d8cefef	0.06881701
12	0x3caaa379	0.020829903
13	0x3dd1f417	0.102516346
14	0x3d5f91c0	0.054582357
15	0xbd6e5886	-0.05818989
16	0x3db6b446	0.08921103
17	0x3d69b3c6	0.05705621
18	0x3d9cde3b	0.076595746
19	0xbd0c309c	-0.034226045
20	0xbc5e005a	-0.0135498885
21	0xbd292128	-0.041291386
22	0x3d8134f8	0.06308931
23	0x3d7397ba	0.05947087
24	0xbd326b15	-0.043559153
25	0xbd3503b5	-0.04419299
26	0x3d2e0dcb	0.042493623
27	0xbcbae76d	-0.02281543
28	0xbd23b1ec	-0.0399646
29	0x3ce4c152	0.027924214
30	0xbb74a62d	-0.0037330494
31	0x3d21cdae	0.039502792
32	0xbc55c938	-0.013048463
33	0x3cd10731	0.025516124
34	0x3d122740	0.035681963
35	0x3d7a86f4	0.061163858
36	0x39f2a384	0.00046279666
37	0x3d8ff770	0.07029617
38	0x3cac0d14	0.02100233
39	0x3d538e01	0.051649097
40	0xbcf45949	-0.02982773
41	0xbcf95c2c	-0.030439459
42	0xbd74a358	-0.05972609
43	0xbd34e601	-0.04416466
44	0x3d203e8d	0.039122153
45	0xbc60c6b6	-0.013719251
46	0x3ccbd424	0.02488143
47	0xbcf3d41c	-0.029764228
48	0xbd964e57	-0.07339161
49	0x3cd025e3	0.02540869
50	0x3b4c40c8	0.0031166542
51	0x3cabb39d	0.02095967
52	0xbd0aac64	-0.03385581
53	0x3d9115d8	0.070842445
54	0x3d039886	0.03212788
55	0xbc81dcbe	-0.015852328
56	0x3d1a964b	0.037740987
57	0x3c69ce78	0.014270417
58	0xbd8072a5	-0.06271867
59	0x3d39f987	0.045403983
60	0xbc4fbe7c	-0.012679692
61	0xbd59f1a4	-0.053208962
62	0xbd82a022	-0.06378199
63	0x3c80789a	0.015682507
64	0x3d6095f5	0.05483051
65	0x3c937290	0.017998964
66	0x3bbc8fdc	0.005754454
67	0xbd7fb2a1	-0.062426213
68	0xbd1bdc7d	-0.03805207
69	0x3d75cc24	0.060009137
70	0xbcc5885b	-0.02411287
71	0xbd828539	-0.063730665
72	0x3d34c800	0.044136047
73	0xbdb20c31	-0.086937316
74	0x3d3d5c91	0.046230856
75	0xbd206733	-0.03916092
76	0xbd523e25	-0.051328797
77	0x3d525c24	0.051357403
78	0x3d2a38cb	0.04155807
79	0xbd326f8b	-0.043563407
80	0xbdb7d181	-0.089755066
81	0xbc80e10b	-0.015732309
82	0x3bdca572	0.00673359
83	0x3d0bb445	0.034107465
84	0x3d446ea5	0.04795708
85	0xbd672327	-0.05643001
86	0x3bc60d96	0.0060441
87	0xbc6116b9	-0.013738328
88	0xbd087400	-0.03331375
89	0x3d3ec031	0.046570007
90	0xbd494d48	-0.049145967
91	0x3d605065	0.05476417
92	0xbcd8122f	-0.026375858
93	0x3d2977ed	0.041374136
94	0x3d86bb4e	0.06578694
95	0x3c8e2633	0.0173522
96	0xbcdce1ed	-0.026963199
97	0xbb1cd706	-0.0023931875
98	0xbd2f8874	-0.04285474
99	0xbd7dfc74	-0.062008336
100	0x3d2129b0	0.039346397
101	0xbd1f92f1	-0.038958494
102	0x3d818360	0.06323886
103	0xbce01d3b	-0.027357688
104	0x3d15f143	0.03660704
105	0x3da4e553	0.080515526
106	0xbdbdf56d	-0.09275327
107	0x3d73701b	0.059433084
108	0xbcffc0da	-0.031219888
109	0x3cd556cc	0.026042365
110	0xbcd1fc49	-0.025632994
111	0x3c8ef336	0.017449956
112	0x3d562b77	0.052287545
113	0x3ca92b50	0.020650536
114	0xbcc4336e	-0.023950305
115	0x3ca0931c	0.019601397
116	0xbd896967	-0.06709557
117	0xbcf9f89b	-0.030514052
118	0xbd65b337	-0.056079116
119	0xbb300c27	-0.0026862712
120	0x3d843b5b	0.06456634
121	0x3d2d3171	0.04228348
122	0x3c5dacbf	0.013529955
123	0xbd8bc6d3	-0.06825032
124	0xbda4b69f	-0.08042645
125	0xbda50c4a	-0.080589846
126	0x3c3f6555	0.011681874
127	0xbd061e9c	-0.032744035
128	0xbda55e18	-0.080745876
129	0xbd3264f5	-0.04355331
130	0x3d8f7029	0.07003815
131	0xbba6ee6e	-0.005094341
132	0x3d634f87	0.055495765
133	0x3c8c2a05	0.01710988
134	0xbcf41693	-0.02979592
135	0xbd7415aa	-0.059590973
136	0x3d3a9d9f	0.045560475
137	0x3cb1015c	0.021607094
138	0x3c2ee662	0.010675045
139	0xbcd19825	-0.025585243
140	0x3c18d530	0.009328172
141	0xbd087e8c	-0.03332381
142	0xbd3d65ad	-0.046239544
143	0xbd6d282c	-0.05789964
144	0xbd58507c	-0.05281113
145	0x3c16aa1d	0.009195832
146	0x3cc2a933	0.023762321
147	0x3d861e97	0.06548803
148	0x3db6e025	0.08929471
149	0xbb91e4af	-0.00445231
150	0x3d8e2f80	0.06942654
151	0x3d52ee8f	0.05149704
152	0x3b962537	0.004582073
153	0x3dc05be7	0.09392529
154	0xbcb0197d	-0.021496529
155	0xbd45a9ad	-0.04825752
156	0x3c7029f3	0.014658439
157	0xbdaf5143	-0.08560421
158	0xbd7afae7	-0.061274435
159	0xbc99510c	-0.018715404
160	0x3d7fc917	0.062447634
161	0x3be1976c	0.006884506
162	0x3d34faff	0.04418468
163	0x3d5fc9c3	0.054635774
164	0xbd461124	-0.04835619
165	0x3d1d48d4	0.038399532
166	0xbd2bce57	-0.041944828
167	0x3d4ed3e0	0.05049503
168	0xbd848b9b	-0.0647194
169	0xbd86585f	-0.06559824
170	0xbd8fd5d3	-0.070232056
171	0xbd9ab32d	-0.07553706
172	0x3d2d6daf	0.04234093
173	0xbc1b8a9c	-0.009493496
174	0xbcd30dbc	-0.025763385
175	0x3d1d0d6e	0.038342886
176	0xbd9eadff	-0.07748031
177	0x3cb2011d	0.021729046
178	0xbd2d275f	-0.042273875
179	0xbd3896fc	-0.045065865
180	0x3d45d2cb	0.04829673
181	0x3d6e43a0	0.05816996
182	0x3d5da517	0.05411252
183	0xbd1e042c	-0.038578197
184	0x3d961bf4	0.073295504
185	0x3d746ee2	0.05967606
186	0xbd14804c	-0.036255166
187	0xbc68404c	-0.014175486
188	0x3b57333d	0.0032836937
189	0x3c996b9b	0.018728068
190	0xbd70cd5f	-0.058789607
191	0x3d87a663	0.066235326
192	0x3d81e074	0.06341639
193	0xbcdc74de	-0.026911195
194	0x3d8db6a6	0.06919603
195	0x3d8a3615	0.067485966
196	0x3bee33c4	0.0072693545
197	0x3c4f6914	0.01265933
198	0xbd002fe2	-0.031295665
199	0x3ca05ab2	0.019574497
200	0xbc585b9d	-0.013205436
201	0xbcb8c873	-0.02255652
202	0xbc7e21b2	-0.015510963
203	0xbd97fc19	-0.07421131
204	0xbd7383ba	-0.059451796
205	0xbc245427	-0.010029829
206	0x3ab951c9	0.0014138754
207	0xbd517a4b	-0.05114202
208	0xbd0ab02f	-0.033859428
209	0x39f19f4f	0.00046085796
210	0xbd543d8a	-0.0518165
211	0xbd2b0138	-0.04174921
212	0x3da4b832	0.08042945
213	0x3d2bf9c4	0.041986242
214	0xbd182148	-0.037141114
215	0xbd31f59d	-0.043447126
216	0xbcab4310	-0.020906001
217	0xbd36a560	-0.044591308
218	0xbd2ebedd	-0.04266249
219	0xbcf603e3	-0.03003115
220	0xbd0accd5	-0.03388675
221	0xbd28bf11	-0.04119784
222	0xbd20dfc3	-0.039275896
223	0xbd10ecfb	-0.035382252
224	0x3db5a3ba	0.08869119
225	0xbd0a9c90	-0.033840716
226	0x3ab98f3c	0.0014157067
227	0x3d38187d	0.04494523
228	0xbc4e2f5f	-0.012584536
229	0xba7b44dc	-0.0009585151
230	0x3d1a5407	0.03767779
231	0xbc40d27e	-0.011768935
232	0x3cc43da7	0.02395518
233	0xbd631983	-0.05544425
234	0x3d8e9045	0.06961111
235	0x3d76a71b	0.060217958
236	0x3da6ca2c	0.0814403
237	0xbda866c0	-0.08222723
238	0x3d75488a	0.05988363
239	0xbccb6e56	-0.024832886
240	0x3d5559ab	0.052087467
241	0x3cff0e4e	0.03113475
242	0x3d600956	0.054696403
243	0xbcba170d	-0.02271607
244	0x3cc208f1	0.023685904
245	0x3d098dc0	0.03358245
246	0x3d1f5409	0.0388985
247	0xbd07b84a	-0.033134736
248	0xbd56793c	-0.05236171
249	0xbd1cb1f4	-0.038255647
250	0x3c22e6aa	0.00994269
251	0xbce2efcf	-0.02770224
252	0x3d481ff7	0.04885861
253	0x3d1a44c4	0.037663236
254	0xbd63c89e	-0.055611245
255	0x3da7648c	0.08173475

net.2.linear.weight f4 [256, 256]
0	0xb9c47c63	-0.00037476709
1	0x3a0a11b6	0.00052669214
2	0xbb2759d0	-0.002553571
3	0xb98fd3f8	-0.00027433014
4	0xba401cbb	-0.00073285
5	0x3801125c	3.0773095e-05
6	0xb9e88c32	-0.00044354942
7	0xbbb014e8	-0.005373586
8	0x39329565	0.00017031057
9	0xb891a5cd	-6.9450216e-05
10	0x39cca97d	0.0003903619
11	0xb9c41387	-0.00037398582
12	0xbadb1d3f	-0.001671709
13	0xbba29402	-0.0049614916
14	0xb909d584	-0.00013144879
15	0x3ab0d31a	0.0013490648
16	0xb94a9fa8	-0.00019323698
17	0xbae6d764	-0.0017611799
18	0xb9ff28d4	-0.0004866781
19	0xbb2bd84b	-0.002622145
20	0xb991a78c	-0.00027781387
21	0x3b682d9e	0.003542758
22	0xb95ab467	-0.00020857305
23	0x3a98daa5	0.0011661841
24	0xba9d5670	-0.001200391
25	0x3992da66	0.0002801001
26	0xba40b4fa	-0.00073511864
27	0x3bc0048b	0.0058599166
28	0xbb005fa0	-0.0019588247
29	0x3a8825ca	0.0010387239
30	0x39b746f1	0.00034957335
31	0xbaa17486	-0.0012318052
32	0x3900f54d	0.00012298413
33	0x3a0477ff	0.0005053281
34	0xbadc7048	-0.001681813
35	0xbaeed96a	-0.0018222753
36	0x39de8c94	0.00042447879
37	0x3a166c88	0.00057382183
38	0xbb47b49c	-0.0030472642
39	0xbb2a666d	-0.0026000992
40	0x3a1420e0	0.0005650651
41	0x3b1bfdf3	0.0023802489
42	0x399de4b1	0.00030115762
43	0x3af010ff	0.0018315612
44	0xbaa2e5b0	-0.0012428071
45	0x3a24739a	0.00062733295
46	0x3a1de8c6	0.00060237607
47	0xba28f8c0	-0.0006445758
48	0x38f0aff3	0.00011476865
49	0x39d6b5ce	0.00040952716
50	0x39fdaeea	0.00048386242
51	0x3aa589dc	0.0012629586
52	0xbb279d98	-0.002557611
53	0x3b87dd95	0.0041462877
54	0x38fbb596	0.00012002436
55	0x39c1e28b	0.00036980616
56	0x3a6cb123	0.0009029081
57	0xbbf081e9	-0.0073397052
58	0x3a3de31e	0.0007243621
59	0x3986e8d1	0.00025731933
60	0x3c000db7	0.00781577
61	0x39e38abb	0.00043400176
62	0xbad59045	-0.0016293606
63	0xb9c24506	-0.0003705399
64	0xbab0e8ea	-0.0013497148
65	0xbc805d04	-0.015669353
66	0x3a19715e	0.000585338
67	0xbaf7123d	-0.001885004
68	0xbb46c6df	-0.0030330939
69	0xbb25bc03	-0.0025289066
70	0x3b395e48	0.0028284956
71	0x3ad06549	0.0015899326
72	0x3ab39c12	0.0013703129
73	0xbb158f88	-0.0022821147
74	0xbac44d6e	-0.0014976689
75	0x39d60692	0.00040822156
76	0xbb520d4a	-0.0032051378
77	0xba9daaf8	-0.0012029102
78	0xbba2e445	-0.0049710595
79	0xba06cf96	-0.0005142627
80	0xbb9d7f38	-0.0048064254
81	0xb90693e3	-0.00012834328
82	0xba47fafc	-0.0007628647
83	0xbb68a38a	-0.0035497868
84	0xba8f677d	-0.0010940876
85	0x3abd88fc	0.001446038
86	0x3b3c68d2	0.0028749001
87	0x3ad656b6	0.0016352746
88	0x3924723a	0.00015682811
89	0xbb214be3	-0.0024611882
90	0xbaac7291	-0.0013156702
91	0xbaa267c6	-0.0012390546
92	0x3a898dec	0.0010494567
93	0xb8f1f2a1	-0.00011536969
94	0x3a29bdc0	0.00064751133
95	0x379adc45	1.8460802e-05
96	0x3ab07ad0	0.0013464335
97	0x3b7afc01	0.0038297179
98	0x3afa562e	0.001909917
99	0xb922da33	-0.0001553081
100	0xbb18b456	-0.0023300848
101	0x3b185a91	0.002324734
102	0xbb41e0c5	-0.0029583436
103	0xba63b810	-0.000868679
104	0xbb357492	-0.002768789
105	0x3b8fba8a	0.004386251
106	0xba78b2b2	-0.0009487077
107	0x3a89f997	0.0010526654
108	0xb9416fc5	-0.00018447552
109	0x3a8a8967	0.0010569514
110	0xb8d39d61	-0.00010090578
111	0x3ab8f99f	0.0014112479
112	0xba83d974	-0.0010059313
113	0x3ada6dac	0.0016664765
114	0x3ad4077c	0.0016176547
115	0xba9b2e52	-0.0011839366
116	0xb9a18213	-0.00030805226
117	0xba8c929e	-0.0010724848
118	0x38b573d1	8.652325e-05
119	0x39b91154	0.0003529886
120	0xb966b827	-0.00022003111
121	0x3895198c	7.109632e-05
122	0x3adb3fd0	0.0016727392
123	0x3ae5e301	0.0017538966
124	0x3be00d03	0.0068374886
125	0xbb5f989f	-0.003411807
126	0x3a897f8e	0.0010490285
127	0xb988dc0e	-0.00026103895
128	0xba5272f1	-0.0008027992
129	0x3b342f13	0.0027493879
130	0xbb1373b7	-0.0022499391
131	0xbb122a0a	-0.002230289
132	0xbaa03eb4	-0.0012225718
133	0x3ac998b1	0.0015380589
134	0xba200f1b	-0.00061057665
135	0xbaeb5551	-0.0017954503
136	0x3abd5013	0.001444342
137	0xbab16229	-0.0013533282
138	0x3919abc8	0.0001465521
139	0xb95dbcc5	-0.00021146525
140	0x3b2220f7	0.0024738887
141	0x3a61b2b8	0.00086097
142	0x3a0ef77b	0.00054537476
143	0xba379b87	-0.00070040714
144	0xba5462b4	-0.0008101866
145	0x3aa6cac9	0.001272523
146	0xbc0da631	-0.00864558
147	0xba36a5c8	-0.00069674524
148	0xbbcdbe67	-0.0062788012
149	0xbb069750	-0.0020536967
150	0xba63ec35	-0.00086945604
151	0x38db33e8	0.00010452402
152	0xbc127d5d	-0.008941022
153	0xbb05c5e9	-0.0020412153
154	0xba2b8d58	-0.0006544194
155	0xba9b5edd	-0.0011853833
156	0xbaeebf59	-0.0018214985
157	0x3ab24358	0.0013600392
158	0x3a4eae14	0.0007884216
159	0xbaf215c1	-0.0018469618
160	0xb8623060	-5.392765e-05
161	0xbb340e64	-0.0027474398
162	0xbb464d7a	-0.0030258582
163	0xbb5d3933	-0.0033756017
164	0x3a93b972	0.0011270477
165	0xba0d9620	-0.00054010935
166	0x3b1da18c	0.0024052588
167	0xbafd2b2c	-0.0019315234
168	0xb9e7e3d0	-0.00044229487
169	0x3b025073	0.0019884377
170	0x3b42fe17	0.00297535
171	0x3bef2e12	0.007299193
172	0x3b459c08	0.0030152816
173	0x3b8f4eed	0.0043734224
174	0x3aadd53b	0.00132624
175	0xbb20d3ce	-0.0024540308
176	0xbacc47d4	-0.0015585371
177	0x394ca659	0.00019516925
178	0xba16d21b	-0.0005753354
179	0xba4a8d91	-0.00077267835
180	0x39fd183d	0.0004827398
181	0xbaae9995	-0.0013320917
182	0x39915f03	0.00027727344
183	0x3b11755b	0.0022195193
184	0xbb3b24a9	-0.0028555787
185	0xb99cc61c	-0.00029902242
186	0x3af8ff59	0.0018996998
187	0xbaf647f0	-0.001878975
188	0xbb140004	-0.0022583017
189	0x3acb887b	0.0015528345
190	0xba0fafc2	-0.0005481207
191	0x3b4be9c3	0.0031114675
192	0xbb76761a	-0.0037607015
193	0x390de38e	0.00013531579
194	0xba1bb14b	-0.00059391995
195	0x3ac3f443	0.0014950115
196	0xb8e55143	-0.00010934707
197	0x38949446	7.084808e-05
198	0x3a9612f0	0.0011449736
199	0xba6e1c0d	-0.00090831594
200	0xbc16f058	-0.009212576
201	0x3ab82820	0.0014050044
202	0xb9bdf331	-0.0003623008
203	0xbb15a89a	-0.002283609
204	0x361676bc	2.2420854e-06
205	0x3a4e254e	0.0007863835
206	0x3a59c336	0.0008306982
207	0x3b161a8a	0.0022904002
208	0x3a473ae6	0.0007600024
209	0x38df556d	0.000106493804
210	0xb9d4c967	-0.00040585847
211	0x3a8f0cef	0.0010913889
212	0xbac7ccf9	-0.0015243582
213	0x3b7a9f1e	0.0038241814
214	0x3b4b1b79	0.0030991717
215	0x3ac49970	0.0014999341
216	0xb9706536	-0.00022925888
217	0xbab62c02	-0.0013898613
218	0xbaa38439	-0.0012475319
219	0x3bbab9df	0.005698427
220	0xba80a665	-0.0009815214
221	0x3a039367	0.0005019218
222	0x3a73a2f0	0.0009293994
223	0x389d3a56	7.497209e-05
224	0xbb918ce9	-0.0044418466
225	0x3b6590ef	0.0035029014
226	0x3abe0757	0.0014498037
227	0x39ed2f24	0.00045239285
228	0xbaabbd48	-0.0013102675
229	0xbaf1b9f2	-0.0018442257
230	0x38a68b0f	7.9413985e-05
231	0xbbc95820	-0.0061445385
232	0x3b22a257	0.0024816
233	0xbafc372e	-0.0019242519
234	0x3a0383c7	0.000501689
235	0x3b8abf6b	0.0042342446
236	0x3afe11b1	0.0019383935
237	0xbaff4fbe	-0.0019478721
238	0x3ba7e806	0.005124095
239	0xba6d127b	-0.00090435863
240	0xb9e6ce3f	-0.00044022684
241	0xbbb87c79	-0.0056300727
242	0x3b53f43a	0.0032341615
243	0x3b225926	0.0024772375
244	0xbb175491	-0.0023091177
245	0x3a2f9bf7	0.0006698961
246	0x3a15a2a0	0.0005708132
247	0x3a85ccc2	0.0010208117
248	0xbafea3a9	-0.0019427437
249	0x3b581a1d	0.003297455
250	0xbc08339b	-0.008313085
251	0xba3a9a2e	-0.00071183115
252	0xba63c9a3	-0.0008689409
253	0xbb043d25	-0.0020178047
254	0x3a9dc8f5	0.0012038039
255	0x3ab14924	0.0013525826

net.2.linear.bias f4 [256]
0	0x3b52478d	0.0032086105
1	0x3ae764f9	0.0017653994
2	0x3d1c0e97	0.03809985
3	0x3c6f9020	0.014621764
4	0xbd799ec4	-0.060942426
5	0x3d163927	0.0366756
6	0x3ddb4874	0.10707179
7	0x3c9a1d62	0.018812839
8	0x3ca981f1	0.020691844
9	0x3b3e46c8	0.0029033888
10	0x3d449218	0.04799089
11	0x3b3ceafa	0.002882658
12	0xbcdaf288	-0.026726976
13	0xbd3e46f3	-0.04645438
14	0xbbb9dff5	-0.0056724497
15	0xbc4683e8	-0.01211641
16	0xbc2404e3	-0.010010931
17	0xbdad44d6	-0.08460395
18	0xbca954e6	-0.020670366
19	0xbcf59397	-0.029977603
20	0x3c127df0	0.008941159
21	0x3b6ee45b	0.0036452028
22	0xbd401a8f	-0.04690033
23	0xba949a65	-0.0011337517
24	0xbd979a37	-0.07402461
25	0x3d1e2de4	0.038617983
26	0x3d7481df	0.059694167
27	0xbc10b129	-0.008831301
28	0x3d3d3bde	0.046199672
29	0x3d896d9b	0.06710359
30	0x3d20570f	0.039145526
31	0x3ccd46cf	0.025058178
32	0x3ce065e8	0.027392343
33	0xbd029b73	-0.03188653
34	0x3d59deb3	0.0531909
35	0xbb17b0fd	-0.0023146265
36	0x3ca6211b	0.020279458
37	0xbd4308bb	-0.047615748
38	0x3d4c91e9	0.04994384
39	0xbbc94a5e	-0.0061428985
40	0x3cea07f9	0.028568255
41	0xbd5f5291	-0.0545221
42	0x3ad232af	0.0016036833
43	0xbc10f09d	-0.008846429
44	0x3d065b48	0.032801896
45	0x3d120164	0.035645857
46	0xbcd48686	-0.025943052
47	0xbd4417ac	-0.047874138
48	0x3dc4cfc7	0.09609943
49	0xbc076604	-0.0082640685
50	0xbd29b085	-0.041428108
51	0x3d298396	0.041385256
52	0x3cd7bb6e	0.02633449
53	0x3b991979	0.004672226
54	0xbd5197e1	-0.051170234
55	0x3cc49f74	0.024001814
56	0xbba71116	-0.0050984723
57	0x3b6b6e5b	0.0035923931
58	0xbcb4247c	-0.021990053
59	0x3d3065f4	0.04306598
60	0x39a94e05	0.0003229232
61	0xbc28cc3e	-0.010302601
62	0xbca71ba3	-0.02039892
63	0xbd17229d	-0.036898244
64	0xbd8113df	-0.06302618
65	0xbdcc221f	-0.099674456
66	0x3b8dc3f3	0.0043263375
67	0x3c735f59	0.014854276
68	0xbd563514	-0.052296713
69	0xbc28dc93	-0.010306495
70	0xbd198f34	-0.037490085
71	0x3dc764ab	0.09735998
72	0xbcfec4b5	-0.031099657
73	0x3d90fc8b	0.07079419
74	0x3b173087	0.0023069696
75	0xbcfb7af3	-0.030698275
76	0x3d684a50	0.056711495
77	0xbd0a8c76	-0.03382536
78	0x3b869815	0.004107485
79	0x3a3a757a	0.0007112842
80	0x3d28499f	0.041085836
81	0xbda14fef	-0.07876574
82	0x3c899dce	0.01679888
83	0x3ced6229	0.02897747
84	0x3d2b3cc0	0.041805983
85	0xbc9d3001	-0.01918793
86	0x3da59fb3	0.08087101
87	0x3d5e1120	0.05421555
88	0xbd721f97	-0.059112158
89	0x3856fb23	5.1255465e-05
90	0xb8ee7bd2	-0.00011371788
91	0xbc1edbe7	-0.0096959835
92	0xbd41353d	-0.047169913
93	0x3d127655	0.03575738
94	0x3dab3f14	0.083616406
95	0xbd3a4b33	-0.04548187
96	0x3d4d465b	0.050115924
97	0x3c430904	0.011904005
98	0xbcd7fe81	-0.026366474
99	0xbd84aaef	-0.064779155
100	0x3bbc2fe0	0.005743012
101	0x3beafdbc	0.007171361
102	0xbc58ea66	-0.013239479
103	0xbcb7359c	-0.02236443
104	0x3dd8b239	0.10580868
105	0xbd59d170	-0.05317825
106	0x3d4e3a79	0.050348733
107	0x3d02d86f	0.03194469
108	0x3c60ad61	0.013713212
109	0x3a6ee9a5	0.0009113795
110	0xbd9d042b	-0.076668106
111	0xbc6238c6	-0.013807481
112	0x3b774976	0.0037732995
113	0x3b03af0d	0.0020093352
114	0xbc984489	-0.018587368
115	0xbd038b99	-0.032115553
116	0xbb79469c	-0.0038036471
117	0xbd1348dc	-0.035958156
118	0x3bf947f0	0.0076074526
119	0xbd87de60	-0.066342115
120	0xbb89afb6	-0.0042018546
121	0xbd4cfad8	-0.05004391
122	0xba145918	-0.0005659028
123	0xbc174df4	-0.009234894
124	0x39fcf03d	0.00048244177
125	0x3ca34af2	0.019933198
126	0x3dc1c623	0.0946162
127	0x3d076e73	0.033064317
128	0xbd8aaf5c	-0.067717284
129	0xbb81e972	-0.0039645964
130	0xbd5d9d46	-0.054105066
131	0x3cd808ab	0.02637132
132	0x3d481a36	0.04885312
133	0xbc0f4cb1	-0.008746312
134	0x3d487cac	0.04894702
135	0x3b501357	0.0031749809
136	0xbc95fc6e	-0.018308844
137	0x3d084f63	0.033278834
138	0x3c8d00a4	0.01721222
139	0xbd6f059a	-0.05835495
140	0xbc41d971	-0.011831627
141	0xbc94a006	-0.018142711
142	0x3d921de9	0.07134611
143	0xbd15638e	-0.036471896
144	0xbc963848	-0.018337384
145	0xbda01066	-0.07815628
146	0xbcd37fdf	-0.02581781
147	0xbbeded02	-0.0072609195
148	0x3c4bdf38	0.012443356
149	0x3df6c28e	0.12048827
150	0x3cec3b28	0.028836802
151	0xbb6d06cc	-0.0036167381
152	0x3d168227	0.036745217
153	0x3b24c1c8	0.0025139917
154	0xbdc0ed23	-0.0942023
155	0xba4625fa	-0.00075587595
156	0x3d4e54ce	0.050373845
157	0x3c1aaf02	0.009441139
158	0x3de4ec49	0.1117788
159	0x3b47893d	0.003044679
160	0x3cd24f1b	0.025672486
161	0x3c72aece	0.0148121845
162	0xbd86af65	-0.065764226
163	0xbb1d7982	-0.0024028723
164	0xbd6da6c1	-0.058020357
165	0xbd796219	-0.06088457
166	0x3d5aa625	0.053381104
167	0x3907fc47	0.00012968584
168	0xbd5ae0ec	-0.05343716
169	0x3d697f91	0.057006422
170	0xbd2b0d2d	-0.041760612
171	0x3d859978	0.065234125
172	0x3ab4adb6	0.001378468
173	0xbc95b099	-0.018272685
174	0x3a4ea24f	0.0007882462
175	0x3c3c6e6c	0.011500936
176	0xbca2c0e5	-0.01986737
177	0xbcbc8609	-0.023013132
178	0xbd11e1f2	-0.03561587
179	0x3c9ace99	0.018897342
180	0x3d55d965	0.052209277
181	0x3c16de7f	0.009208321
182	0xbd36f2c4	-0.044665113
183	0xbba1413a	-0.0049211057
184	0xbcdda5ff	-0.027056692
185	0xbd67a888	-0.05655721
186	0x3b24d174	0.0025149258
187	0xbd86508d	-0.065583326
188	0xbc67cad8	-0.014147483
189	0xbc903092	-0.017601285
190	0xbcfba22d	-0.03071698
191	0xbd33f787	-0.043937232
192	0xbd3f249d	-0.046665777
193	0xbcb5d972	-0.022198413
194	0x3b222a85	0.0024744582
195	0x3c1dd2e4	0.0096328
196	0xbcb54e99	-0.022132205
197	0xbd963641	-0.07334567
198	0xb9d3d5bf	-0.0004040431
199	0x3d08fd97	0.033444967
200	0xbd25afff	-0.040451046
201	0x3b87c23a	0.0041430267
202	0x3bcc3580	0.0062319636
203	0x3d860baf	0.06545197
204	0x3d06c821	0.0329057
205	0xbcb3ee33	-0.021964168
206	0x3d9514c6	0.07279353
207	0x3aad3a2d	0.001321619
208	0xbdb0d6a3	-0.08634689
209	0xbbc5bd95	-0.006034563
210	0xbd3a4c0d	-0.045482684
211	0x3ca7d1c3	0.020485764
212	0x3bd43733	0.006476307
213	0x3c5e1eac	0.013557117
214	0x3dbdae54	0.09261766
215	0x3ce84b86	0.028356325
216	0x3d6a054c	0.057133958
217	0x3d33c4db	0.043888908
218	0xbc9a159a	-0.018809129
219	0xbc9920e0	-0.018692434
220	0x3d33b477	0.043873277
221	0x3d6cce95	0.0578142
222	0xbd38a765	-0.045081515
223	0xbb63c881	-0.003475696
224	0x3db17b46	0.08666091
225	0xbc513ad2	-0.0127703715
226	0x3bc3ee80	0.005979359
227	0x3d24479f	0.040107366
228	0x3af65d67	0.0018796147
229	0x3dabde77	0.08392041
230	0xbb09f9dd	-0.002105347
231	0xbd70e7ae	-0.058814697
232	0xbd6b1f90	-0.057403147
233	0x3d1dd328	0.038531452
234	0x3d1c4e0a	0.03816036
235	0xbc3f4e3c	-0.011676367
236	0x3c0c17d2	0.008550601
237	0x3d4c071d	0.04981147
238	0x3c384acd	0.011248303
239	0x3c3a8c27	0.011385954
240	0xbd5b0e57	-0.053480472
241	0x3d561214	0.052263334
242	0xbda49333	-0.080358885
243	0x3b122ef6	0.0022305823
244	0xbcfa065b	-0.030520609
245	0xbd85ad52	-0.06527199
246	0xbd1037ca	-0.035209455
247	0xbcb89326	-0.022531103
248	0xbd9c6d7c	-0.0763807
249	0x3c0630fa	0.008190388
250	0xbd3f9936	-0.046776973
251	0x3b80be65	0.003928947
252	0xbb4a5ffb	-0.0030879963
253	0x3d0b66ce	0.03403359
254	0xbc4b89e6	-0.012423014
255	0x3d9c6dbb	0.07638117

net.3.linear.weight f4 [256, 256]
0	0x3ac72713	0.001519414
1	0x38e856e3	0.00011078806
2	0x38950d22	7.10732e-05
3	0xb858044d	-5.150242e-05
4	0xb8c5ebf9	-9.437645e-05
5	0x39a0e37b	0.00030687064
6	0x38f14b7b	0.00011505835
7	0xbbea9a61	-0.0071595167
8	0x38e8b2c2	0.00011095918
9	0x3c0ba0d4	0.008522231
10	0x39b59724	0.0003463562
11	0x3a94d4c0	0.0011354908
12	0xb81384a7	-3.5171073e-05
13	0xba87772e	-0.0010335201
14	0xbaf1e80a	-0.0018455994
15	0xb9728fe2	-0.00023132519
16	0xb9e872d9	-0.00044336056
17	0x39110691	0.00013830724
18	0xb8cf9b4f	-9.899458e-05
19	0xb9638933	-0.00021699518
20	0xb8cff7bb	-9.9166726e-05
21	0xb899841d	-7.3202165e-05
22	0x391a6976	0.00014725872
23	0xb998bcc0	-0.0002913233
24	0xbb761378	-0.0037548225
25	0xb8c37a86	-9.321146e-05
26	0x3a4a983e	0.00077283743
27	0x3a3f75c8	0.00073036226
28	0x3a151bea	0.00056880584
29	0x38b8e285	8.815996e-05
30	0x3acf1be2	0.0015801156
31	0x399ce4b7	0.00029925045
32	0xb9a6b3a1	-0.0003179582
33	0x3889cba8	6.570603e-05
34	0xb977bb31	-0.0002362549
35	0xba665107	-0.0008785878
36	0xb79d7c8a	-1.8773851e-05
37	0x3c2da8f6	0.010599365
38	0x3a08e5f1	0.0005222252
39	0x3926d923	0.00015911883
40	0xb928cc49	-0.0001609783
41	0x37e6516d	2.7456053e-05
42	0xba1cd1a0	-0.00059821643
43	0x3a3ce266	0.0007205367
44	0xb9a8a5c0	-0.0003216695
45	0xb9815649	-0.00024669085
46	0xbb95a850	-0.0045671836
47	0x39baad61	0.00035605862
48	0x39e73c55	0.00044104704
49	0x3b88e538	0.0041777156
50	0x3b458759	0.0030140488
51	0x379ca9f0	1.8675782e-05
52	0xb9af9a6f	-0.00033493663
53	0x3a39526d	0.00070694723
54	0x39bdcbb3	0.00036200657
55	0xb99adc3d	-0.0002953726
56	0xbaa40c7a	-0.0012515925
57	0xb8e98067	-0.000111342226
58	0xb898b636	-7.281864e-05
59	0xb9a3f736	-0.0003127397
60	0xbad9f26c	-0.0016628033
61	0x364053d8	2.8659033e-06
62	0x38434088	4.6551722e-05
63	0xbbe10129	-0.0068665934
64	0xb95f2ff6	-0.00021284804
65	0xb94a1188	-0.00019270752
66	0xb9e16c8c	-0.00042996218
67	0x3bf6a50e	0.0075270003
68	0xb9addfb5	-0.00033163806
69	0xba882f3a	-0.0010390051
70	0xb9998021	-0.00029277898
71	0x3905ccee	0.0001276021
72	0x39a57ed1	0.00031565738
73	0x39e370da	0.00043380895
74	0x38bd213a	9.018411e-05
75	0x38e2d6b9	0.00010816515
76	0x3a1e7880	0.00060451776
77	0x39ef1f1b	0.00045608808
78	0xb9399ac4	-0.0001770063
79	0x39c0af6b	0.0003675179
80	0xb9d25fc4	-0.00040125672
81	0xb9866f8f	-0.0002564159
82	0xba0baec3	-0.0005328471
83	0x38ff7157	0.00012180459
84	0xb9e9c432	-0.000445874
85	0x3ab8718e	0.0014071928
86	0x39c4f840	0.00037568994
87	0x37fdb61f	3.0244757e-05
88	0xb94a8823	-0.00019314936
89	0x3886da9c	6.430337e-05
90	0x3a153ce2	0.0005692971
91	0x39c13617	0.0003685213
92	0xb96c2f4d	-0.00022524335
93	0x386ec5c6	5.6927813e-05
94	0xb8d7b0b1	-0.0001028491
95	0x3baa91ac	0.0052053537
96	0xba25230e	-0.0006299474
97	0xb807ae34	-3.2348747e-05
98	0x392dd482	0.00016577731
99	0xb9d7347d	-0.00041047102
100	0xb784e914	-1.5844162e-05
101	0xbad2d7f9	-0.0016086093
102	0xb91427a0	-0.00014129141
103	0x39b9355a	0.000353257
104	0x3b5f82e5	0.0034105119
105	0xb9b60aec	-0.00034721883
106	0xb90c6211	-0.00013387973
107	0xb90a22d4	-0.0001317368
108	0x3b63023f	0.003463879
109	0x3c115fbe	0.008872924
110	0xb921dcb6	-0.00015436378
111	0x3925018f	0.00015736207
112	0x3a8e6319	0.0010863274
113	0x383815d7	4.388936e-05
114	0xb99b1f10	-0.00029587047
115	0x3beff46d	0.007322839
116	0x3b0b15b2	0.0021222648
117	0xba01aa30	-0.00049463194
118	0x3a397965	0.0007075279
119	0xbb0beb5f	-0.002135001
120	0xbb272324	-0.0025503123
121	0xb93161f0	-0.0001691652
122	0x399ccb82	0.00029906264
123	0x38a3ef64	7.817036e-05
124	0x3b07126a	0.002061034
125	0x3ae1be69	0.0017222884
126	0xb8a52c3c	-7.8760524e-05
127	0xb936a914	-0.00017419859
128	0xb9f87519	-0.0004738949
129	0x38790393	5.9369555e-05
130	0xba74f92b	-0.000934499
131	0xba2bab34	-0.00065486436
132	0x393e8747	0.00018170207
133	0xbbd42ac3	-0.006474824
134	0x3a133406	0.0005615357
135	0xb9778b82	-0.00023607726
136	0xb9819226	-0.00024713686
137	0x381d3e27	3.74896e-05
138	0x39409769	0.00018366952
139	0xbb744f88	-0.003727885
140	0xb84ee5f8	-4.9328402e-05
141	0x39cddd6d	0.00039265622
142	0x391ad9d2	0.00014767729
143	0xb9bca5ab	-0.00035981587
144	0x39bec3ab	0.00036385408
145	0xb9404d0b	-0.00018339248
146	0xba1652dd	-0.00057343935
147	0xb98dff32	-0.0002708375
148	0xb89ec44b	-7.5705895e-05
149	0x3bb8d5a7	0.0056407037
150	0x39603b7b	0.00021384463
151	0xbc0f16d5	-0.008733471
152	0xba449b95	-0.000749999
153	0x3908740d	0.00013013203
154	0xbab70de0	-0.0013965927
155	0xb9be7e6d	-0.0003633382
156	0xb8f28cd2	-0.00011565689
157	0xba13f719	-0.00056444254
158	0xb9cc2755	-0.00038939217
159	0xbade981b	-0.0016982587
160	0x3a3cb9d5	0.0007199322
161	0x39f70534	0.00047115388
162	0x3994ca32	0.00028379407
163	0x3b093069	0.0020933396
164	0x3a015f90	0.00049351994
165	0xb9f17d2d	-0.00046060365
166	0x39d8fbe4	0.00041386404
167	0x393a3b8b	0.00017760524
168	0xb9896556	-0.00026206177
169	0xb9a33ac0	-0.00031133555
170	0xb8972874	-7.207776e-05
171	0xbac7e433	-0.0015250504
172	0x3a5d99de	0.0008453409
173	0x37a7a26e	1.9983589e-05
174	0x3944a393	0.00018752953
175	0xb9aea59d	-0.00033311258
176	0xb8493dde	-4.7979753e-05
177	0xbb5d7435	-0.0033791189
178	0xbb50d403	-0.003186465
179	0xbbf07e21	-0.0073392545
180	0x38b830ea	8.782915e-05
181	0x39812114	0.00024629442
182	0x3b6860d2	0.00354581
183	0x3a1d85a3	0.0006008988
184	0x393e90b5	0.0001817372
185	0x3926eb40	0.00015918631
186	0x3ab7c23a	0.0014019676
187	0x39da9b45	0.00041695885
188	0x39f8717c	0.00047386799
189	0x39d934cb	0.000414288
190	0xbb53f136	-0.0032339818
191	0x3bff9922	0.0078002373
192	0x3996c949	0.000287602
193	0xb9a96f24	-0.00032316998
194	0x3934fe11	0.00017260785
195	0x39f65a64	0.00046988123
196	0x39b3bf1d	0.0003428393
197	0xbbb2d3ae	-0.005457363
198	0x39c51598	0.00037590857
199	0x379b241b	1.8494253e-05
200	0x3991b020	0.00027787779
201	0x3877d2bb	5.9085647e-05
202	0xb91df27d	-0.0001506302
203	0x38bbcbf5	8.954845e-05
204	0x385ae5bc	5.2189207e-05
205	0xba295a13	-0.00064602605
206	0x3a2b51d6	0.0006535327
207	0x3b404040	0.002933517
208	0xb94fdc7e	-0.00019823198
209	0x3b1f3ffd	0.0024299615
210	0x39854cce	0.0002542496
211	0xb94ec5ce	-0.00019719379
212	0xb999b56f	-0.00029317613
213	0xb97317d9	-0.0002318317
214	0xb99b6be8	-0.000296443
215	0x3a0596fd	0.00050960464
216	0x39c7bfca	0.00038099132
217	0xb970028e	-0.00022889135
218	0xb9945532	-0.00028292235
219	0x3ba79318	0.0051139705
220	0xb91aeca0	-0.00014774734
221	0xba4c19fd	-0.0007785855
222	0xb84bf02c	-4.862265e-05
223	0xba0985e6	-0.00052460877
224	0x37116e48	8.66835e-06
225	0x39730479	0.00023175952
226	0x39943316	0.00028266822
227	0x3ba30f75	0.004976208
228	0x3ab78a4a	0.0014003005
229	0x3b30f980	0.0027004182
230	0xb5daf64a	-1.6313945e-06
231	0x38dfece5	0.00010677594
232	0x38591684	5.17578e-05
233	0x3b63ebe4	0.0034778053
234	0x3be68ec8	0.007036064
235	0xb993c53f	-0.00028184985
236	0x3bbd2a77	0.0057728845
237	0x3a1fde8b	0.000609853
238	0xbc106f0a	-0.008815536
239	0xbb59a208	-0.003320815
240	0xb8e368ae	-0.000108437016
241	0x3768698b	1.3852851e-05
242	0xb9583723	-0.00020619905
243	0xb9e0a46d	-0.00042847116
244	0xb9833f31	-0.00025033348
245	0xb9104ac1	-0.00013760758
246	0x3ae5f951	0.0017545616
247	0x396536fb	0.00021859624
248	0xb8f9a111	-0.00011903246
249	0xb90aa995	-0.0001322388
250	0xbb160530	-0.0022891276
251	0xb8048ebc	-3.1604184e-05
252	0x37042718	7.876915e-06
253	0x3ad8f892	0.0016553572
254	0x3b59fbfa	0.0033261762
255	0x3a7d59d1	0.0009664568
