tres/log1/rrrbest_model_69999.pt (torch, 802249 bytes, 9 tensors)

net.0.linear.weight f4 [256, 7]
-0.049856022 0.13407512 0.14728044 0.10396445 -0.03961517 -0.020865126 -0.05252982 0.002744655
0.028019669 -0.0020317528 -0.009112174 0.06913237 -0.006831017 -0.10031453 0.107680365 0.019673178
0.072363175 -0.017814005 -0.03300593 -0.061283115 -0.053471394 -0.01580952 0.059152555 -0.008238906
0.034053892 -0.1261243 0.024912285 0.072043456 -0.0956395 0.07021564 0.16142294 -0.008516097
0.011345897 0.021041552 -0.049912903 0.04421763 0.067493826 0.116511226 0.12717548 0.05026478
-0.06607788 -0.10813087 -0.12499158 0.13180524 -0.016508684 0.034840852 0.02554967 0.082339354
-0.03398265 0.03622664 0.028769517 -0.046003275 -0.088529505 -0.06335075 0.092384346 -0.13140287
-0.07662925 0.01399273 0.008304576 0.1370797 -0.041207526 -0.023463575 0.0021353033 -0.009660507
-0.08728685 -0.072105095 -0.10793093 0.08823648 0.043254603 -0.055769946 0.096346125 0.079303905
-0.18839467 0.04440477 0.03571068 0.14028694 0.013992733 0.0031919265 -0.0040236167 -0.021625793
0.0071588075 0.024396086 0.05882042 -0.11504036 0.08825756 0.08228079 -0.0033632237 0.05110685
-0.08565591 -0.04626109 -0.060095794 0.08847373 -0.0268524 0.1319693 -0.07390383 -0.040031277
0.07077604 0.03731342 0.113457136 0.19348909 0.12610085 0.0022923953 0.06351805 0.040871494
-0.023624739 0.10130559 -0.06630588 0.04858704 -0.0103843715 0.008688178 -0.10523348 -0.0026686385
0.029519746 0.1363984 -0.14023954 -0.0831972 0.08793275 -0.11328646 -0.13105911 -0.11311802
0.15469807 -0.018287202 0.14539042 0.10149298 0.080700815 -0.118985504 0.005293499 0.15601602
-0.025875643 -0.065179914 0.08622168 -0.005256641 0.12091812 0.1070336 0.16051552 -0.12301437
0.07210228 -0.09489075 -0.028568536 -0.042532727 0.039910477 -0.20845188 0.09425909 0.00085798436
-0.042942494 0.09995004 -0.11659798 -0.1496866 0.050440263 0.0028329808 -0.056633774 0.10960944
0.057013124 0.051395677 -0.043204304 -0.034131713 -0.01353166 0.10725785 0.07592341 0.040733263
0.083523214 0.12479735 0.08561822 -0.1114163 -0.050865218 -0.14431813 -0.050786402 0.022338543
0.063157886 -0.010453418 0.04565376 -0.12173745 0.03367005 -0.08568407 -0.09510287 -0.024178497
-0.018162629 0.05751384 0.030232243 0.022415916 -0.0755319 0.1274332 0.06392895 -0.041439332
-0.017797893 -0.12075121 0.09496526 0.048377655 -0.07000628 0.019234331 -0.051901013 -0.029774286
-0.048717402 0.10374331 0.071302146 0.029480856 0.15729006 -0.045724668 -0.1262297 -0.0016787454
-0.032860864 0.044396814 -0.024091478 -0.0063009267 -0.0070055677 0.005508046 -0.010387483 0.001994602
0.024533188 -0.091754384 -0.048478696 -0.04968174 -0.05899178 0.09105241 0.09694875 0.11589843
-0.11482689 -0.03559283 0.0056522735 -0.06711619 0.0625681 -0.051751688 0.12599087 -0.03850383
0.110821106 -0.044259403 0.0018517578 -0.1481077 -0.051094316 -0.06825995 0.051346987 0.045130167
-0.022516206 -0.08685616 -0.106249936 0.07874096 0.04233875 -0.059936814 -0.10760237 -0.16061847
0.16858986 -0.028549023 0.028668858 0.010158605 -0.057044838 0.031238753 -0.051279742 -0.007956118
0.0032269387 0.13352242 0.038192336 -0.05409978 0.10773232 0.08646992 -0.11376957 -0.0357517
00000000: d435 4cbd fd4a 093e afd0 163e 50eb d43d
00000010: 8443 22bd 57ed aabc 8229 57bd abdf 333b
00000020: 8189 e53c 2827 05bb 3a4b 15bc 4695 8d3d
00000030: b9d6 dfbb b471 cdbd 8687 dc3d a529 a13c
00000040: 2533 943d adee 91bc 3a31 07bd 0104 7bbd
00000050: d204 5bbd f782 81bc f349 723d 7afc 06bc
00000060: 187c 0b3d ba26 01be d914 cc3c 858b 933d
00000070: a4de c3bd 38cd 8f3d 0e4c 253e 1a87 0bbc
00000080: 24e4 393c 555f ac3c 7971 4cbd 8c1d 353d
00000090: 343a 8a3d 709d ee3d 4a3a 023e 71e2 4d3d
000000a0: d753 87bd b873 ddbd 96fb ffbd f4f7 063e
000000b0: 383d 87bc 48b5 0e3d 8b4d d13c 89a1 a83d
000000c0: 6431 0bbd 6362 143d 0dae eb3c ee6d 3cbd
000000d0: f54e b5bd 0abe 81bd 0134 bd3d 798e 06be
000000e0: ccef 9cbd c341 653c eb0f 083c 9f5e 0c3e
000000f0: 39c9 28bd af36 c0bc 72f0 0b3b 1a47 1ebc
00000100: 73c3 b2bd d6ab 93bd e40a ddbd 54b5 b43d
00000110: bd2b 313d 076f 64bd 1e51 c53d 166a a23d
00000120: 88ea 40be c7e1 353d 5d45 123d 61a7 0f3e
00000130: c741 653c a42f 513b 8bd8 83bb 9328 b1bc
00000140: 6e94 ea3b 4dda c73c aeed 703d 489a ebbd
00000150: 61c0 b43d d582 a83d 8869 5cbb 6b55 513d
00000160: 5e6c afbd 457c 3dbd 0227 76bd b731 b53d
00000170: 90f9 dbbc f622 073e e45a 97bd d6f7 23bd
00000180: 07f3 903d f5d5 183d 375c e83d 0122 463e
00000190: 9520 013e 033c 163b c015 823d de68 273d
000001a0: ab88 c1bc 4e79 cf3d 61cb 87bd 3403 473d
000001b0: 3623 2abc dc58 0e3c a784 d7bd 53e4 2ebb
000001c0: 65d3 f13c 06ac 0b3e f49a 0fbe 4b63 aabd
000001d0: 1616 b43d bb02 e8bd 5c34 06be 6caa e7bd
000001e0: 2c69 1e3e 0bcf 95bc 3ae1 143e 8ddb cf3d
000001f0: 7846 a53d acae f3bd 1775 ad3b aac2 1f3e
00000200: 28f9 d3bc 0c7d 85bd fe94 b03d e73f acbb
00000210: eba3 f73d 6f34 db3d 2e5e 243e f5ee fbbd
00000220: 5caa 933d 1556 c2bd 9008 eabc cc36 2ebd
00000230: 2b79 233d 6974 55be e90a c13d 5bea 603a
00000240: 78e4 2fbd 9bb2 cc3d ecca eebd 7247 19be
00000250: 739a 4e3d 88a9 393b d1f8 67bd ea7a e03d
00000260: 9886 693d 4684 523d fff6 30bd b2cd 0bbd
00000270: e5b3 5dbc 01aa db3d bc7d 9b3d ecd7 263d
00000280: 380e ab3d c195 ff3d 9b58 af3d 3b2e e4bd
00000290: 0c58 50bd 22c8 13be 6705 50bd 52ff b63c
000002a0: ec58 813d d044 2bbc 70ff 3a3d 7c51 f9bd
000002b0: 9be9 093d 217b afbd 4bc5 c2bd fc11 c6bc
000002c0: cbc9 94bc a293 6b3d 9ca9 f73c 95a1 b73c
000002d0: 78b0 9abd d97d 023e 2eed 823d 4abc 29bd
000002e0: e3cc 91bc 694c f7bd 257d c23d a627 463d
000002f0: 745f 8fbd 5191 9d3c 2896 54bd 34e9 f3bc
00000300: e68b 47bd 5f77 d43d dc06 923d d681 f13c
00000310: a510 213e ca49 3bbd 5c42 01be 5909 dcba
00000320: 1d99 06bd 6fd9 353d 7e5b c5bc 0178 cebb
00000330: f68e e5bb d77c b43b 4330 2abc deb7 023b
00000340: d3f9 c83c b9e9 bbbd 9991 46bd 157f 4bbd
00000350: 5da1 71bd b079 ba3d 118d c63d 285c ed3d
00000360: 5c2a ebbd cac9 11bd b536 b93b 3774 89bd
00000370: b423 803d 94f9 53bd c003 013e 31b6 1dbd
00000380: 2df6 e23d 5949 35bd aeb6 f23a 8ba9 17be
00000390: 4648 51bd dfcb 8bbd 3851 523d 69da 383d
000003a0: e873 b8bc a4e1 b1bd 9199 d9bd f142 a13d
000003b0: 666b 2d3d 4e80 75bd a25e dcbd 2b79 24be
000003c0: d2a2 2c3e a4df e9bc f4da ea3c 4770 263c
000003d0: d9a7 69bd 6ae8 ff3c b50a 52bd 615a 02bc
000003e0: 0c7b 533b 1aba 083e 916f 1c3d bb97 5dbd
000003f0: c3a2 dc3d 2417 b13d 0500 e9bd 6070 12bd

net.0.linear.bias f4 [256]
-0.3357999 0.17040089 0.31606773 0.34773785 -0.02494505 0.29758638 0.24567415 0.068105005
0.28442279 0.15276319 0.0818849 0.13616316 -0.16455095 -0.3458133 0.19355825 -0.03503843
-0.3720806 0.019040532 0.060115393 -0.18798588 -0.14020737 0.2380112 -0.24004222 -0.10562478
-0.12426987 -0.3536765 0.17924164 -0.34497947 0.16252829 0.38884047 -0.37255907 -0.3327235
-0.21441339 -0.25265396 0.023131656 0.115009256 0.09327031 0.29902428 0.1874353 0.06278028
-0.012398095 0.3159989 -0.22191074 -0.2972358 0.35094514 -0.15978667 -0.052069865 -0.15349825
0.09926683 -0.33490962 0.23281394 -0.3699583 -0.28055856 0.20891757 -0.13633332 -0.057900216
-0.005639464 -0.10229414 -0.13010833 0.18405578 -0.052664176 0.26177064 0.1711787 0.22142066
-0.32034883 0.38838768 0.29670992 -0.39189747 0.3772695 0.078830495 -0.00013064659 -0.31657422
-0.29118833 0.3226213 0.114539236 0.14112109 -0.0816092 -0.34712964 0.18651266 0.29972795
-0.26285568 0.28890595 -0.0502429 -0.29140678 -0.15380362 0.31860718 -0.065561526 -0.24193068
-0.083200485 -0.31786314 -0.27161187 -0.026249139 -0.22308677 0.09104486 0.15602629 -0.097228
-0.06743624 -0.12591408 0.28450194 0.29272875 0.26232257 0.11614294 -0.042325996 0.06636685
-0.24932125 0.26862502 -0.11366397 0.25480363 0.13670506 -0.379405 0.26825505 -0.12719746
0.26291832 -0.09729849 0.030836562 0.04097852 -0.034686796 0.14516139 -0.14480726 0.04201964
-0.14833945 0.101404 -0.16684781 0.21911043 0.121619806 -0.15492755 0.019550884 -0.09122158
-0.1267411 0.30498064 -0.046251602 0.3036097 0.21425748 0.34507886 0.18244559 -0.054636184
0.112845615 0.12278577 0.18129945 -0.10270052 0.23818158 0.0826511 0.36287963 -0.33359393
0.27452427 0.16838765 0.26273185 -0.3435111 0.120170265 -0.22227226 -0.08977152 -0.32887435
-0.03451519 -0.20633489 -0.19174016 0.1535861 0.02731972 -0.29358 -0.009215271 -0.25389227
-0.04405951 0.027455948 0.033096336 -0.33946946 -0.16107804 0.2437912 0.07447128 0.045208883
0.20140083 -0.15694654 -0.29354188 0.27206635 0.35099858 0.18032585 -0.27067617 -0.21752778
-0.33639848 0.3763538 -0.0035985773 -0.095812544 -0.2637658 0.2128085 0.18364748 -0.1438721
-0.042208936 0.30956888 0.3409737 -0.32562664 0.24986322 0.22736646 -0.06272124 -0.3712014
0.19056346 0.17665218 -0.20677394 0.09881798 -0.17628412 0.12917994 0.3683032 -0.10642228
-0.21189646 -0.24541385 0.25626308 0.2784662 -0.21806155 -0.23946682 0.035061445 0.07050485
0.37326857 0.24125023 0.3399289 -0.25645062 0.2714097 0.30545756 0.22936448 -0.28957376
0.30163503 -0.12407844 0.05625335 -0.12123091 0.31325534 0.2918795 0.14513071 -0.28010803
-0.16972978 -0.21647367 -0.14262077 -0.09979768 0.009899343 -0.10168345 -0.1252714 -0.056886446
0.28028518 0.057414748 0.20941785 0.010681623 -0.09784536 0.24194837 -0.28960428 -0.1769319
0.22720744 -0.35541087 -0.13326626 0.21991341 -0.004946194 -0.007999621 -0.08587044 -0.22449528
0.20866129 -0.16870975 0.023719966 -0.28841773 0.2215588 0.19411288 -0.3206473 0.26549417
00000000: f7ed abbe 927d 2e3e a1d3 a13e b20a b23e
00000010: 9059 ccbc 3e5d 983e 0192 7b3e a37a 8b3d
00000020: dd9f 913e f46d 1c3e 45b3 a73d 5b6e 0b3e
00000030: 0b80 28be 710e b1be 2234 463e 7584 0fbd
00000040: 5981 bebe e4fa 9b3c 8f3b 763d 5f7f 40be
00000050: 8592 0fbe 35b9 733e a1cd 75be ce51 d8bd
00000060: 3481 febd 1615 b5be 1f8b 373e 26a1 b0be
00000070: d16d 263e 1916 c73e 10c0 bebe bc5a aabe
00000080: 2f8f 5bbe dc5b 81be 997e bd3c f989 eb3d
00000090: 8104 bf3d b619 993e 0aef 3f3e f392 803d
000000a0: 6121 4bbc 9cca a13e 923c 63be 4a2f 98be
000000b0: 15af b33e 1e9f 23be 3647 55bd a52e 1dbe
000000c0: 684c cb3d 4679 abbe c766 6e3e 2d6b bdbe
000000d0: 5fa5 8fbe 7dee 553e f69a 0bbe c728 6dbd
000000e0: 41cb b8bb 977f d1bd 1e3b 05be 1e79 3c3e
000000f0: 64b6 57bd cd06 863e 7849 2f3e 19bc 623e
00000100: c304 a4be c0da c63e 5dea 973e c9a6 c8be
00000110: 7829 c13e e271 a13d 2dfe 08b9 0416 a2be
00000120: a316 95be 9e2e a53e 8c93 ea3d 0c82 103e
00000130: b922 a7bd faba b1be 2dfd 3e3e f175 993e
00000140: 0595 86be 7beb 933e 80cb 4dbd 4533 95be
00000150: b27e 1dbe 7b20 a33e 1f45 86bd adbc 77be
00000160: 0465 aabd f5be a2be b610 8bbe 6f08 d7bc
00000170: dc70 64be ba75 ba3d 5bc5 1f3e 791f c7bd
00000180: 031c 8abd 9fef 00be 3daa 913e 8be0 953e
00000190: 254f 863e 5adc ed3d 065e 2dbd 58eb 873d
000001a0: 124e 7fbe 3889 893e a8c8 e8bd 9f75 823e
000001b0: 69fc 0b3e 5f41 c2be ba58 893e 0d40 02be
000001c0: 3b9d 863e 6e44 c7bd f59c fc3c 18d9 273d
000001d0: be13 0ebd 30a5 143e 5b48 14be c91c 2c3d
000001e0: 4ce6 17be e6ac cf3d 27da 2abe 7c5e 603e
000001f0: ce13 f93d 54a5 1ebe 2d29 a03c 61d2 babd
00000200: 6bc8 01be 6c26 9c3e 5272 3dbd bb72 9b3e
00000210: 5066 5b3e 2dae b03e 04d3 3a3e 31ca 5fbd
00000220: 9a1b e73d 1b77 fb3d 90a6 393e a654 d2bd
00000230: dfe5 733e fb44 a93d 5ccb b93e d3cc aabe
00000240: 728e 8c3e d06d 2c3e ca84 863e b0e0 afbe
00000250: d41b f63d 579b 63be 21da b7bd 3862 a8be
00000260: cd5f 0dbd 7449 53be 8857 44be ad45 1d3e
00000270: 9bcd df3c 1e50 96be a6fb 16bc 2bfe 81be
00000280: bf77 34bd 4ceb e03c 0690 073d f1ce adbe
00000290: a4f1 24be 66a4 793e 6684 983d f32c 393d
000002a0: 053c 4e3e 98b6 20be 1f4b 96be 484c 8b3e
000002b0: 16b6 b33e 57a7 383e 1196 8abe 9abf 5ebe
000002c0: 6c3c acbe 72b1 c03e 1cd6 6bbb 5e39 c4bd
000002d0: 500c 87be 79ea 593e 160e 3c3e 3553 13be
000002e0: 47e3 2cbd d07f 9e3e 1b94 ae3e 89b8 a6be
000002f0: 25dc 7f3e c1d2 683e fe73 80bd 1c0e bebe
00000300: 1123 433e 4fe4 343e 8cbc 53be 1561 ca3d
00000310: d383 34be bf47 043e 3d92 bc3e edf3 d9bd
00000320: 63fb 58be c54d 7bbe ea34 833e 1f93 8e3e
00000330: 874b 5fbe ca36 75be 979c 0f3d d964 903d
00000340: 0f1d bf3e 4d0a 773e 290b ae3e 7f4d 83be
00000350: 36f6 8a3e ef64 9c3e 86de 6a3e 0343 94be
00000360: e86f 9a3e d61c febd ea69 663d e947 f8bd
00000370: 0163 a03e 3b71 953e 259d 143e 526a 8fbe
00000380: a5cd 2dbe 46ab 5dbe 2e0b 12be ba62 ccbd
00000390: db30 223c 6a3f d0bd 2547 00be c301 69bd
000003a0: 8a81 8f3e ba2b 6b3d a271 563e f901 2f3c
000003b0: 2663 c8bd 50c1 773e 0347 94be a32d 35be
000003c0: 11a9 683e 6af8 b5be f376 08be fb30 613e
000003d0: af13 a2bb d810 03bc d7dc afbd 17e2 65be
000003e0: 4eab 553e 40c2 2cbe 6050 c23c 7dab 93be
000003f0: 4fe0 623e 87c5 463e e22b a4be daee 873e

net.1.linear.weight f4 [256, 256]
-0.007172195 0.012073565 -0.028548608 0.025331844 0.026149828 -0.011068894 -0.006363545 -0.035357088
0.008625374 0.038717724 0.021983778 0.008853321 0.0055302163 0.011966546 -0.008825529 0.0032982265
-0.010180932 0.009968628 0.011989108 0.009185982 -0.022629553 0.0046320427 -0.009473596 -0.0019560412
0.0054268506 -0.028672947 -0.015468556 -0.026163189 0.025732487 -0.002330017 0.00453809 0.010873756
-0.00057182414 -0.013876618 0.028561514 -0.0027039065 -0.012619846 -0.009653893 -0.01460731 0.01986776
-0.0080472 -0.030758467 -0.0013238365 -0.009154109 -0.017159058 -0.000942576 -0.006250377 -0.01714054
0.01035703 0.01272186 -0.0071123983 -0.009226015 -0.0020187155 0.03104326 0.00039277112 -0.03258606
0.011868423 0.011269407 0.0070188264 0.005327885 0.0012880646 0.012072741 0.0024435795 -0.015211452
-0.008661276 -0.0028746766 -0.018477855 0.010394142 0.029674128 0.0010751294 -0.021787072 0.018935326
-0.020830136 0.03721731 0.01861968 0.021629367 -0.024972713 0.024950849 -0.015234403 0.0011663979
0.015518948 -0.02216948 0.0063464073 0.0009490679 -0.003821727 0.027592354 0.0074839275 -0.0036723455
0.004109646 -0.0046209884 0.011471078 0.040247772 0.009484199 -0.033290613 -0.011172841 -0.033414423
-0.007260626 0.016269417 0.031739436 -0.0045179906 -0.023927188 -0.03505593 0.011806249 -0.011516
0.04522899 0.022609433 0.012136105 0.01689954 0.014795565 -0.033730656 -0.0004987416 -0.018694138
-0.012722706 -0.016025085 0.005499993 -0.013918844 -0.0057325964 -0.021260448 -0.007979427 -0.00046941938
-0.00073218445 0.013325452 0.0015572509 -0.0024345722 0.010977092 -0.02787061 0.021427343 -0.018749889
0.0077983015 -0.0023347642 -0.008366155 -0.008850058 0.014172612 -0.013911989 -0.022033071 0.024361407
-0.0362785 -0.04632347 -0.009308908 -0.010258291 -0.007902825 -0.010995176 0.042074554 -0.035850376
-0.011782646 -0.01427127 -0.0036303059 0.015271155 0.0234146 0.012201673 0.015286406 0.010736129
-0.033065 -0.007201359 -0.023297401 -0.020632382 0.01681368 0.0073080915 -0.01793548 0.016307326
0.004226658 -0.016035248 -0.0005381177 0.03201077 -0.016040081 0.020657018 0.025470728 0.035155445
0.0033977653 0.0049703736 0.020697458 0.013326825 -0.019537423 0.018193722 0.022627054 0.029249266
0.0025144676 -0.026098888 0.01626795 -0.024508713 -0.035028405 -0.029623136 -0.0036930735 0.02403214
0.0046935994 0.026720785 -0.027403634 -0.019397229 0.03183323 -0.01634578 -0.012647335 0.018272089
-0.02552764 -0.0005834602 0.012951776 0.025273783 -0.015599866 -0.021171637 0.042829677 0.0032848346
0.042301275 -0.0070353635 -0.00087683933 -0.005740524 0.0037159442 0.029776657 0.004234506 0.0023137245
-0.0004315887 -0.0041767196 -0.010132113 -0.047861096 -0.0008938578 0.029631566 0.01862357 -0.005842245
1.28937e-05 -0.0036113276 -0.025997546 0.015998045 0.0107979495 -0.02229349 0.029281639 0.011573406
-0.00046257346 0.0010659302 -0.027829181 0.0031843958 0.013085901 0.031738643 0.0053056646 0.012621257
0.009240654 0.008726077 -0.021888135 0.0029485887 0.009378411 0.007945794 0.014834043 -0.03344136
-0.0005697829 0.02256492 -0.00044056014 -0.034326874 -0.0052726693 -0.0023666972 -0.019295733 -0.008872923
-0.026758803 -0.022631068 0.011606202 -0.03556168 -0.037527762 5.5032513e-05 0.0028498373 0.013035704
00000000: bb04 ebbb 34d0 453c c5de e9bc ba84 cf3c
00000010: 2a38 d63c 4e5a 35bc 4985 d0bb 98d2 10bd
00000020: 7151 0d3c 7a96 1e3d 5317 b43c 850d 113c
00000030: d136 b53b 550f 443c f498 10bc 0f27 583b
00000040: eccd 26bc 7553 233c f76d 443c cd80 163c
00000050: 9d61 b9bc 64c8 973b 2437 1bbc ed30 00bb
00000060: b9d3 b13b 87e3 eabc d46f 7dbc 2f54 d6bc
00000070: f0cc d23c 33b3 18bb 42b4 943b d727 323c
00000080: 78e6 15ba c15a 63bc d6f9 e93c 0634 31bb
00000090: 78c3 4ebc 5d2b 1ebc 8053 6fbc b6c1 a23c
000000a0: 67d8 03bc 2ef9 fbbc 9584 adba 1efb 15bc
000000b0: 2791 8cbc 3417 77ba f6cf ccbb 516a 8cbc
000000c0: 88b0 293c 596f 503c 1f0f e9bb b628 17bc
000000d0: 6d4c 04bb 6f4e fe3c d9ec cd39 f678 05bd
000000e0: c673 423c 52a3 383c 2ffe e53b 8a95 ae3b
000000f0: 47d4 a83a bfcc 453c 7624 203b 7439 79bc
00000100: 06e8 0dbc 1265 3cbb df5e 97bc 314c 2a3c
00000110: 2817 f33c 5beb 8c3a cd7a b2bc 421e 9b3c
00000120: f6a3 aabc 2e71 183d 4d88 983c 1230 b13c
00000130: 9393 ccbc b965 cc3c b899 79bc d2e1 983a
00000140: 3043 7e3c c59c b5bc 86f5 cf3b deca 783a
00000150: f075 7abb 5c09 e23c bc3b f53b bcab 70bb
00000160: 36aa 863b a96b 97bb 30f1 3b3c d9da 243d
00000170: 9d63 1b3c bd5b 08bd 4b0e 37bc 90dd 08bd
00000180: 8cea edbb 7147 853c 3601 023d a70b 94bb
00000190: f302 c4bc cf96 0fbd ff6e 413c 9bad 3cbc
000001a0: 0942 393d 6b37 b93c 84d6 463c e770 8a3c
000001b0: 1969 723c 2829 0abd fbbd 02ba 7324 99bc
000001c0: e672 50bc 0a47 83bc 4939 b43b dd0b 64bc
000001d0: 81d8 bbbb 642a aebc 25bc 02bc 671c f6b9
000001e0: 11f0 3fba ff52 5a3c ab1c cc3a 588d 1fbb
000001f0: 43d9 333c e850 e4bc 6588 af3c 5e99 99bc
00000200: e588 ff3b d802 19bb 3312 09bc d5ff 10bc
00000210: 3e34 683c 1cef 63bc b37e b4bc 9391 c73c
00000220: c498 14bd aebd 3dbd 6484 18bc 6412 28bc
00000230: da7a 01bc 1c25 34bc 5e56 2c3d d8d7 12bd
00000240: 000c 41bc 0bd2 69bc 6dea 6dbb de33 7a3c
00000250: facf bf3c 87e9 473c d573 7a3c 97e6 2f3c
00000260: 2a6f 07bd 61f9 ebbb 31da bebc 3e05 a9bc
00000270: d8bc 893c b778 ef3b 6eed 92bc f196 853c
00000280: c77f 8a3b 5a5c 83bc 7810 0dba ba1d 033d
00000290: 7d66 83bc e838 a93c fda7 d03c 28ff 0f3d
000002a0: 0bad 5e3b 84de a23b b78d a93c c158 5a3c
000002b0: f20c a0bc 000b 953c 5f5c b93c 289c ef3c
000002c0: c4c9 243b 56cd d5bc 5d44 853c 7fc6 c8bc
000002d0: f279 0fbd 38ac f2bc 7e07 72bb 0ddf c43c
000002e0: c4cc 993b 8ce5 da3c 967d e0bc f0e6 9ebc
000002f0: 9063 023d 96e7 85bc c536 4fbc 59af 953c
00000300: 571f d1bc 5af3 18ba b033 543c f70a cf3c
00000310: 9596 7fbc 2470 adbc 2c6e 2f3d 6146 573b
00000320: 1a44 2d3d e888 e6bb b1db 65ba 011b bcbb
00000330: 3387 733b 2dee f33c 9cc1 8a3b dba1 173b
00000340: db46 e2b9 dddc 88bb 2901 26bc ff09 44bd
00000350: c851 6aba e6bd f23c 7590 983c 4e70 bfbb
00000360: 0552 5837 06ac 6cbb cef8 d4bc 550e 833c
00000370: e2e9 303c d6a0 b6bc 0ce0 ef3c 629e 3d3c
00000380: 8f85 f2b9 afb6 8b3a 06fa e3bc 4cb1 503b
00000390: 3f66 563c 6100 023d 24db ad3b 64c9 4e3c
000003a0: 1d66 173c d2f7 0e3c bf4e b3bc 1c3d 413b
000003b0: e8a7 193c 132f 023c 7c0a 733c cff9 08bd
000003c0: 7c5d 15ba 11da b83c fbfa e6b9 569a 0cbd
000003d0: 5bc6 acbb 971a 1bbb 1612 9ebc bd5f 11bc
000003e0: 4735 dbbc ca64 b9bc f127 3e3c 20a9 11bd
000003f0: b6b6 19bd b6d2 6638 56c4 3a3b b593 553c

net.1.linear.bias f4 [256]
0.040256437 0.08249433 7.129324e-05 -0.0023808975 0.0819279 -0.035532832 0.009054932 -0.006905259
0.034263443 -0.02691899 -0.051190592 0.04898926 0.016825432 0.10443656 0.04326941 -0.06994662
0.093678944 0.06718667 0.07687008 -0.03263739 -0.038245175 -0.039997503 0.054680172 0.041945565
-0.03858738 -0.05111085 0.03138535 -0.023602385 -0.045032382 0.031012004 -0.0097899055 0.038623553
-0.014261937 0.012561805 0.023397526 0.04897648 0.006075497 0.07226281 0.020860236 0.051172893
-0.031332213 -0.038947977 -0.061289288 -0.030336952 0.039132774 -0.019988768 0.03403133 -0.04262075
-0.07515606 0.025415322 0.0067545297 0.010660317 -0.043056473 0.06877443 0.035193935 -0.009248298
0.039463624 0.0120634185 -0.055662088 0.02982211 -0.011827689 -0.07401131 -0.044222128 0.014114039
0.054525238 0.015406761 -0.00034268107 -0.047964167 -0.039663494 0.06511199 -0.02907872 -0.053794783
0.057560623 -0.09118884 0.048358485 -0.03900673 -0.050757695 0.066557586 0.05340608 -0.043526877
-0.086762466 -0.015004707 0.01329292 0.039704993 0.04796976 -0.04056494 -0.00044960447 -0.031083813
-0.030744229 0.034473233 -0.033971008 0.07262599 -0.014096991 0.06123546 0.046225496 0.013104623
-0.034077037 0.007215244 -0.043106213 -0.04968464 0.025990184 -0.046004683 0.06405943 -0.030768616
0.027553095 0.07991171 -0.09944844 0.044616207 -0.028518416 0.020040458 0.0018348858 0.025499318
0.045677487 0.020127762 -0.024137974 0.018309569 -0.071872815 -0.034919232 -0.05459409 0.0021201482
0.06819261 0.052208293 0.0082735615 -0.079248846 -0.08156638 -0.070525825 0.009932333 -0.029519519
-0.07457709 -0.036777843 0.07245706 0.0015745552 0.052094303 0.020047551 -0.044039086 -0.042404532
0.04679183 0.029912788 0.0070339763 -0.02793746 0.008844009 -0.019925507 -0.04960047 -0.05846379
-0.055564076 0.002610243 0.022405323 0.066143826 0.09412256 -0.00994501 0.07404956 0.039692443
0.008248378 0.09729945 -0.015597677 -0.04493304 0.01922786 -0.07144476 -0.06729753 -0.030047838
0.053709965 0.0036752264 0.06326049 0.058794927 -0.05153588 0.056000043 -0.041702706 0.064867266
-0.068472385 -0.06892947 -0.069723904 -0.07878675 0.028296685 -0.010103511 -0.019080482 0.031906325
-0.06995351 0.023887478 -0.03403872 -0.03481483 0.039361466 0.035928834 0.050569717 -0.036762506
0.06573255 0.058783032 -0.04218171 -0.003347114 0.013811821 0.011977288 -0.046849202 0.07775
0.067060255 -0.028246712 0.081071615 0.06491013 -0.006602638 0.008681671 -0.034635857 0.011533229
-0.012621481 -0.029407596 -0.020756448 -0.073159404 -0.06604142 -0.003272204 0.029069055 -0.06065818
-0.0372558 0.0071950173 -0.05621923 -0.044332255 0.08709437 0.046169426 -0.0604475 -0.045822095
-0.006152643 -0.053231545 -0.03840743 -0.029932642 -0.05091496 -0.049290027 -0.034752805 -0.040942352
0.093497775 -0.035977118 -0.005223397 0.047222182 -0.021435022 -0.0030847169 0.027462292 -0.013798831
0.03467408 -0.065007664 0.07307015 0.0670007 0.085505985 -0.07854741 0.054379098 -0.028722424
0.049596295 0.031408753 0.03939285 -0.021294627 0.011240424 0.026249697 0.044696726 -0.035609014
-0.0535729 -0.050542142 0.0063946974 -0.01219044 0.05887831 0.02888122 -0.050845433 0.09221903
00000000: efe3 243d caf2 a83d 4483 9538 d508 1cbb
00000010: d1c9 a73d e08a 11bd 235b 143c 8345 e2bb
00000020: d357 0c3d 3785 dcbc 3aad 51bd f6a8 483d
00000030: 7dd5 893c d6e2 d53d 443b 313d 2c40 8fbd
00000040: bfda bf3d 2a99 893d 0f6e 9d3d c9ae 05bd
00000050: f9a6 1cbd 6cd4 23bd 51f8 5f3d 1dcf 2b3d
00000060: cd0d 1ebd 9c59 51bd ed8d 003d ca59 c1bc
00000070: e073 38bd e30c fe3c d765 20bc bb33 1e3d
00000080: e6aa 69bc 07d0 4d3c 2bac bf3c 909b 483d
00000090: f614 c73b 86fe 933d 16e3 aa3c ab9a 513d
000000a0: 3556 00bd ea87 1fbd 7a0a 7bbd 3385 f8bc
000000b0: b049 203d 7cbf a3bc 7064 0b3d 1893 2ebd
000000c0: 6ceb 99bd cb33 d03c 1a55 dd3b 9ca8 2e3c
000000d0: fc5b 30bd 9cd9 8c3d 8427 103d 2c86 17bc
000000e0: 9ca4 213d a5a5 453c eefd 63bd 7f4d f43c
000000f0: ecc8 41bc 3e93 97bd 4322 35bd 923e 673c
00000100: db55 5f3d a46c 7c3c e0a9 b3b9 1376 44bd
00000110: 3076 22bd 6f59 853d 7f36 eebc eb57 5cbd
00000120: b0c4 6b3d 37c1 babd 8c13 463d 85c5 1fbd
00000130: 4de7 4fbd 584f 883d 55c0 5a3d 3d49 32bd
00000140: 85b0 b1bd 4dd6 75bc 8cca 593c b4a1 223d
00000150: f07b 443d 6c27 26bd e4b8 ebb9 7ba3 febc
00000160: 52db fbbc ce33 0d3d 2f25 0bbd efbc 943d
00000170: 11f7 66bc 09d2 7a3d f256 3d3d c6b4 563c
00000180: 5d94 0bbd db6d ec3b 2490 30bd 1f82 4bbd
00000190: 5ee9 d43c 686f 3cbd 9731 833d 770e fcbc
000001a0: 07b7 e13c c0a8 a33d a0ab cbbd 7cbf 363d
000001b0: 749f e9bc e32b a43c 8d80 f03a f2e3 d03c
000001c0: 5118 3b3d fae2 a43c 00bd c5bc f3fd 953c
000001d0: 0e32 93bd 7807 0fbd 0d9e 5fbd 2ff2 0a3b
000001e0: 91a8 8b3d 5dd8 553d d58d 073c 384d a2bd
000001f0: 460c a7bd d86f 90bd 39bb 223c ebd2 f1bc
00000200: e0bb 98bd 5da4 16bd 5e64 943d 4e61 ce3a
00000210: d660 553d c33a a43c 5462 34bd 60b0 2dbd
00000220: caa8 3f3d aa0b f53c 457d e63b 1add e4bc
00000230: 76e6 103c d13a a3bc dd29 4bbd ba77 6fbd
00000240: 2897 63bd 9c10 2b3b 5e8b b73c 6a76 873d
00000250: 54c3 c03d 65f0 22bc 4ca7 973d 8b94 223d
00000260: 3424 073c ef44 c73d 668d 7fbc b50b 38bd
00000270: bf83 9d3c a151 92bd 4ad3 89bd e226 f6bc
00000280: fbfe 5b3d 11dc 703b b78e 813d f3d2 703d
00000290: 4917 53bd 4d60 653d 75d0 2abd 21d9 843d
000002a0: 403b 8cbd e52a 8dbd 68cb 8ebd f35a a1bd
000002b0: 73ce e73c 3289 25bc ac4e 9cbc 35b0 023d
000002c0: c943 8fbd acaf c33c 2f6c 0bbd ff99 0ebd
000002d0: 7d39 213d 1d2a 133d 3122 4f3d 4894 16bd
000002e0: ca9e 863d 7ac6 703d bbc6 2cbd 415b 5bbb
000002f0: fa4a 623c 633c 443c f3e4 3fbd 643b 9f3d
00000300: e356 893d a665 e7bc e008 a63d 9aef 843d
00000310: f15a d8bb 913d 0e3c 54de 0dbd def5 3c3c
00000320: 54ca 4ebc 33e8 f0bc 6d09 aabc 99d4 95bd
00000330: b940 87bd 7972 56bb 3a22 ee3c b674 78bd
00000340: 8a99 18bd 2ec4 eb3b 2346 66bd bd95 35bd
00000350: 885e b23d 271c 3d3d cc97 77bd f3af 3bbd
00000360: 1c9c c9bb 5209 5abd 1c51 1dbd 4d35 f5bc
00000370: 358c 50bd 57e4 49bd f558 0ebd 2bb3 27bd
00000380: c37b bf3d be5c 13bd 0829 abbb 0c6c 413d
00000390: 8098 afbc f628 4abb 9af8 e03c 7e14 62bc
000003a0: 6806 0e3d bd22 85bd cea5 953d aa37 893d
000003b0: c31d af3d 77dd a0bd 9ebc 5e3d 4a4b ebbc
000003c0: 7c25 4b3d 77a6 003d 665a 213d 1272 aebc
000003d0: c129 383c 9b09 d73c ea13 373d c2da 11bd
000003e0: 426f 5bbd 4705 4fbd 9c8a d13b 69ba 47bc
000003f0: 622a 713d 4f98 ec3c 4d43 50bd 55dd bc3d

net.2.linear.weight f4 [256, 256]
0.0025895543 0.0024398176 0.0007922324 -0.0014046013 -0.0024087005 0.001235244 -0.0013403188 -0.0046250657
-6.0098457e-05 -0.0029857496 -0.00050485495 6.145676e-05 -0.0005951807 -0.01006801 -0.0041606524 -0.00013922763
-0.0015360754 0.0020613454 -0.0027219686 -0.002274322 0.0035516636 0.0031269847 -0.0038261346 -0.0031045987
0.0019008898 -0.0033848428 0.0028076302 0.0036665343 -0.0018476566 0.0012500352 -0.0010702674 0.0035157457
0.0019032432 0.0014856685 -0.0018852677 0.0029904344 -0.0013458058 -0.0022331614 -0.0054288832 -0.00051651424
0.0005160746 0.004475034 0.002455648 0.00064710394 -0.0063041616 0.00066506246 0.0010612354 0.00067848223
0.00298743 -0.0006915645 -0.00075870566 0.00070874445 -0.0014067612 0.006499544 0.0028809707 -0.0005548858
0.0028598798 -0.004797294 0.0062183784 0.0016245747 0.008595932 0.0030657433 -0.0028721564 0.0013988891
-0.003841993 -0.019159272 0.0035506727 0.0017039083 -0.00081874663 -0.0005362594 0.0045187166 0.00057775836
0.0025864965 -0.0030674522 -0.0024538087 0.0022756034 -0.0011620761 -0.00080019154 -0.0007863926 -0.0017534659
-0.0013744399 -0.0006121054 -0.0014214525 9.157816e-05 0.0015568265 -0.0034558026 0.0019910326 0.0011161137
0.003336658 0.0012944351 -0.002107983 0.0036949115 -0.002122196 0.0014910031 0.0038690963 -0.002698684
0.0038269712 0.0033981968 -0.0005835737 0.0006566229 -0.0013887329 0.0037667458 -0.00086741574 0.0012288986
-0.00015626967 0.0061680228 -0.0031683585 -0.0017185304 -0.0010960548 0.0055825785 -0.0039503397 -0.0010132702
0.0062264483 -0.0020278802 0.0018830887 -0.0008491486 -0.0014802135 -0.0059768953 0.0003524567 0.006002522
0.0028812895 -0.0031732162 -0.0006095088 -0.0019884044 0.009174091 0.00089219975 0.00046358447 0.004123329
-0.0002446993 0.0008068428 8.4167805e-05 -0.0024020385 -0.000996026 0.0026764371 -0.0006079612 -0.001503874
0.001215941 0.0010696711 0.0028666803 -0.0044182623 0.0016928915 0.003418723 0.004248777 0.0013406498
-0.002522325 0.0028725213 -0.008901153 -0.0022041167 -0.011070031 -0.0039787954 -0.0031186724 -0.0043058335
-0.011640347 -0.0031769339 0.0027462821 -0.0037878219 -0.0008310871 -0.0011154682 -0.0028937021 -0.0007861315
0.0021028644 -0.0016247528 -0.0009617404 0.0006900441 0.0002693247 0.0007379659 -0.00056274555 -0.00042340244
-0.0012583389 0.0017497968 5.7237547e-05 0.0058187917 -0.0032061036 0.0029413756 0.00015126944 -0.0030427277
0.0024824745 0.0012619445 -0.00035580885 -0.003690774 0.0007462508 0.001038659 0.0011390436 9.442258e-05
-0.00035746658 0.0012708816 -0.001475241 -0.0017834709 -0.000950504 0.00089432724 0.0021672803 0.0022552998
0.002694564 0.001844511 0.0002524815 0.0010983685 0.0034986683 -0.00041654392 0.0024051543 0.0003379776
-0.009589824 0.0009752945 -0.00027734222 -0.002829878 -0.00015920206 0.0008926864 -0.00096836674 0.00013443723
0.0020052367 -0.0016614075 0.00040671037 0.0017053013 0.00033342812 0.006774364 0.0012374605 -0.004326852
-0.0014014861 -0.00033620614 -0.0006587822 0.006659326 -0.00059146323 0.0028442328 -0.0022971705 0.0005276522
-0.002457133 0.0028512634 0.0010083453 -0.00012708966 -0.0028120363 -0.0016281607 -0.0005172304 -0.0043368633
-0.0018698367 0.00069204037 -0.0015740126 0.0021545584 0.001357405 0.00036921917 0.0009485496 -0.00024274031
0.0015291511 -0.0040174345 0.00063804333 -0.0023127224 0.0015393608 -0.0050189956 0.0030503876 0.0019368283
0.0014235425 0.00069948466 -0.006894117 -0.0019122135 -0.0025252153 6.709491e-05 -0.000974091 -0.0021434254
00000000: 83b5 293b 59e5 1f3b d1ad 4f3a 991a b8ba
00000010: 4adb 1dbb e9e7 a13a a3ad afba dd8d 97bb
00000020: 3a12 7cb8 91ac 43bb 3e58 04ba 59e2 8038
00000030: e705 1cba 4bf4 24bc 1556 88bb a2fd 11b9
00000040: 2356 c9ba a317 073b 0e63 32bb cb0c 15bb
00000050: 07c3 683b 19ee 4c3b e3bf 7abb 8676 4bbb
00000060: 4727 f93a 3dd4 5dbb 3800 383b 3d4a 703b
00000070: 112d f2ba 39d8 a33a 3748 8cba 6d68 663b
00000080: 3f76 f93a c3ba c23a 161b f7ba 2afb 433b
00000090: c065 b0ba 3b5a 12bb c6e4 b1bb af66 07ba
000000a0: 2e49 073a 4ea3 923b f0ee 203b 69a2 293a
000000b0: 2493 cebb 9657 2e3a 2719 8b3a 2cdc 313a
000000c0: c2c8 433b 1c4a 35ba e0e3 46ba 09cb 393a
000000d0: 1363 b8ba 20fa d43b abce 3c3b c175 11ba
000000e0: d26c 3b3b 9e32 9dbb 8ac3 cb3b aeef d43a
000000f0: f4d5 0c3c a3ea 483b ca3a 3cbb ee5a b73a
00000100: f2c9 7bbb e8f3 9cbc 67b2 683b ad55 df3a
00000110: 28a1 56ba c293 0cba be11 943b b574 173a
00000120: 3682 293b 4f07 49bb 14d0 20bb 4a22 153b
00000130: ce50 98ba f2c3 51ba ea25 4eba 8dd4 e5ba
00000140: 8d26 b4ba b375 20ba 0850 baba a60d c038
00000150: 6e0e cc3a bf7a 62bb fc7b 023b 904a 923a
00000160: d5ab 5a3b 09aa a93a 1626 0abb 5426 723b
00000170: 8a14 0bbb c36d c33a aa90 7d3b 68dc 30bb
00000180: eccd 7a3b 48b4 5e3b f8fa 18ba 3821 2c3a
00000190: 2506 b6ba 82db 763b 4963 63ba ff12 a13a
000001a0: 52dc 23b9 201d ca3b 3ca4 4fbb 5040 e1ba
000001b0: 7fa9 8fba 10ee b63b da71 81bb b5cf 84ba
000001c0: 3c07 cc3b 2fe6 04bb f9d1 f63a 6699 5eba
000001d0: b903 c2ba d5d9 c3bb f0c9 b839 ceb0 c43b
000001e0: 04d4 3c3b bcf5 4fbb 71c7 1fba e44f 02bb
000001f0: ed4e 163c 83e2 693a 410d f339 fe1c 873b
00000200: fc4a 80b9 4e82 533a 3f83 b038 856b 1dbb
00000210: 168d 82ba 2a67 2f3b 965f 1fba a31d c5ba
00000220: 3660 9f3a 3534 8c3a eade 3b3b 12c7 90bb
00000230: 03e4 dd3a a70c 603b 5339 8b3b beb8 af3a
00000240: 974d 25bb e940 3c3b 24d6 11bc f172 10bb
00000250: 135f 35bc 8e60 82bb a462 4cbb f317 8dbb
00000260: 27b7 3ebc 1b34 50bb f8fa 333b 1b3d 78bb
00000270: 50dd 59ba e734 92ba 44a4 3dbb 6414 4eba
00000280: 36d0 093b a8f5 d4ba 4e1d 7cba 13e4 343a
00000290: 2634 8d39 0e74 413a 3785 13ba 1dfc ddb9
000002a0: d9ee a4ba 7059 e53a 5912 7038 90ab be3b
000002b0: 7e1d 52bb 18c4 403b 159e 1e39 8068 47bb
000002c0: 03b1 223b d567 a53a db8b bab9 eae0 71bb
000002d0: 0ba0 433a 9d23 883a f64b 953a bd04 c638
000002e0: 5a6a bbb9 b693 a63a e05c c1ba 5ac3 e9ba
000002f0: 3e2b 79ba 4971 6a3a ee08 0e3b a7cd 133b
00000300: 4897 303b 85c3 f13a 7e5f 8439 22f7 8f3a
00000310: ea49 653b 9463 dab9 cb9f 1d3b 9632 b139
00000320: a31e 1dbc e8aa 7f3a 3e68 91b9 7975 39bb
00000330: 7aef 26b9 2c03 6a3a fed9 7dba b8f7 0c39
00000340: 4a6a 033b 96c3 d9ba be3b d539 6b84 df3a
00000350: f7cf ae39 7cfb dd3b 4932 a23a 44c8 8dbb
00000360: 12b2 b7ba d344 b0b9 20b2 2cba 7a36 da3b
00000370: 6d0c 1bba 4f66 3a3b 208c 16bb 2452 0a3a
00000380: da07 21bb 43dc 3a3b 742a 843a 5f43 05b9
00000390: 244a 38bb 0268 d5ba bf96 07ba 3f1c 8ebb
000003a0: 4f15 f5ba 0b6a 353a 194f ceba 7e33 0d3b
000003b0: f4ea b13a c293 c139 16a8 783a 1b88 7eb9
000003c0: cc6d c83a afa4 83bb 5d42 273a 0b91 17bb
000003d0: 61c4 c93a 6376 a4bb 03e9 473b 2cdd fd3a
000003e0: 2996 ba3a 9f5d 373a 0ce8 e1bb 3da3 faba
000003f0: 157e 25bb 4eb5 8c38 245a 7fba b678 0cbb

net.2.linear.bias f4 [256]
0.0024951468 0.0039173337 0.040396072 0.028770441 -0.06397832 0.04490753 0.10774172 0.017829172
0.03130644 0.0038393294 0.04595428 0.0025134813 -0.023180474 -0.047005698 -0.012122495 -0.014613822
-0.02535677 -0.088548034 -0.013080962 -0.036274243 0.020212509 -0.0073436233 -0.05077347 -0.017836163
-0.08011573 0.023757253 0.06666269 -0.013072601 0.03837152 0.07051815 0.038099006 0.01962424
0.042901468 -0.04403571 0.044841122 -0.0060579963 0.024270661 -0.047242492 0.0443385 -0.02153243
0.016879754 -0.072131254 0.0047445837 -0.012558967 0.039998397 0.04379426 -0.0200974 -0.04902729
0.1105922 -0.0106973555 -0.03656769 0.051967088 0.013027003 0.007423117 -0.043714907 0.027152434
-0.010866642 -0.0051288307 -0.021061439 0.029879903 -0.006435248 -0.02513594 -0.022877203 -0.039165907
-0.0630252 -0.09802965 0.016934428 0.018184293 -0.04853869 -0.022367144 -0.023168711 0.10402915
-0.025606066 0.06585588 -0.008313493 -0.025040435 0.064375244 -0.016192464 -0.007183588 0.014633476
0.026755003 -0.09561229 0.0030043705 0.024284082 0.05101727 -0.01814441 0.08434894 0.048473448
-0.058392156 -0.005573981 0.0041322364 -0.0049096895 -0.037799742 0.025594775 0.08893287 -0.047084734
0.057595138 0.005685961 -0.027118381 -0.075187884 0.008705535 0.011849842 -0.020008022 -0.034080543
0.1002072 -0.033510983 0.04034914 0.029396176 0.011913141 0.0052984357 -0.07381375 -0.0027752027
0.006819116 0.0019652878 -0.01452146 -0.03451452 -0.0029435784 -0.04149988 0.002158196 -0.06896052
-0.008607776 -0.049106322 -0.0014843965 0.0054335324 0.0021405278 0.024369087 0.08271571 0.021721747
-0.06079594 -0.013404264 -0.0617991 0.02925026 0.044253603 -0.008170978 0.043844026 -0.0022439682
-0.029747562 0.051472582 0.023237212 -0.058372527 -0.0029082056 -0.019710286 0.0682697 -0.037544772
0.00054397207 -0.08015545 -0.017481193 0.0037799312 0.0051391847 0.123495355 0.039432306 -0.004997381
0.033408523 0.00018546093 -0.09733314 -0.0016806157 0.03917356 0.008226594 0.094784446 0.005135311
0.013544927 0.0016711318 -0.056402575 -0.008201691 -0.0778185 -0.05548226 0.050260056 -0.0050540706
-0.056974024 0.069696315 -0.040352575 0.07229064 -0.011984839 -0.020154702 0.025229178 0.009491925
-0.031055786 -0.020354975 -0.034951296 0.021731429 0.058578666 0.014215138 -0.055909503 -0.0072292704
-0.03382118 -0.04549066 0.004049481 -0.067843154 -0.012720605 -0.0076859826 -0.028619638 -0.04020235
-0.05785921 -0.013944735 0.010010074 0.028191153 -0.025222205 -0.07743322 -0.004105487 0.047160484
-0.052804228 0.014197639 0.016236227 0.071632355 0.05536607 -0.011858237 0.06863027 0.005204519
-0.091693155 -0.0027672902 -0.042863235 0.025742637 0.017457701 0.011563209 0.08447678 0.02063965
0.05168609 0.041295916 -0.024843335 -0.01906817 0.05814905 0.05078291 -0.024777386 -0.0072124093
0.097352654 -0.0071115005 0.007310411 0.04120941 0.006314809 0.085712895 -0.0013825172 -0.05474892
-0.051372513 0.046078973 0.037083972 -0.022035329 0.008219273 0.0478889 0.011478807 0.018847782
-0.057455413 0.055134103 -0.07664484 0.0031302935 -0.02688114 -0.054991078 -0.039348874 -0.0072442675
-0.065921836 0.0068799476 -0.03952019 0.006641731 -0.0073844017 0.032957073 -0.0031713324 0.08126786
00000000: 9e85 233b fa5c 803b 5a76 253d fdaf eb3c
00000010: 1107 83bd f5f0 373d b1a7 dc3d 7c0e 923c
00000020: 2e3b 003d 429d 7b3b 8e3a 3c3d 38b9 243b
00000030: fae4 bdbc 0c89 40bd 6e9d 46bc d06e 6fbc
00000040: 00b9 cfbc ac58 b5bd 8851 56bc 4d94 14bd
00000050: b494 a53c c7a2 f0bb d8f7 4fbd 251d 92bc
00000060: b713 a4bd 929e c23c 7386 883d 762e 56bc
00000070: 742b 1d3d d26b 903d b40d 1c3d 04c3 a03c
00000080: 73b9 2f3d ca5e 34bd 53ab 373d 2882 c6bb
00000090: 44d3 c63c 5881 41bd 499c 353d c764 b0bc
000000a0: 6947 8a3c 8db9 93bd 7478 9b3b 20c4 4dbc
000000b0: 5cd5 233d 9c61 333d 4da3 a4bc d7d0 48bd
000000c0: 2a7e e23d f643 2fbc 01c8 15bd 71db 543d
000000d0: 366f 553c 9e3d f33b 670e 33bd c86e de3c
000000e0: 000a 32bc c00f a8bb 0a89 acbc b3c6 f43c
000000f0: c6de d2bb e3e9 cdbc f968 bbbc 6e6c 20bd
00000100: 5b13 81bd c5c3 c8bd 12ba 8a3c 3af7 943c
00000110: 81d0 46bd 4d3b b7bc 4fcc bdbc 3c0d d53d
00000120: d0c3 d1bc 73df 863d 5135 08bc 9921 cdbc
00000130: 2bd7 833d 0fa6 84bc 4e64 ebbb 3fc1 6f3c
00000140: 4f2d db3c 60d0 c3bd f9e4 443b 69ef c63c
00000150: 7cf7 503d 96a3 94bc 23bf ac3d 188c 463d
00000160: 9d2c 6fbd f1a5 b6bb b667 873b 76e1 a0bb
00000170: e7d3 1abd 22ac d13c 7022 b63d ecdb 40bd
00000180: e1e8 6b3d 4c51 ba3b 5e27 debc 1bfc 99bd
00000190: a9a1 0e3c d725 423c dde7 a3bc 0a98 0bbd
000001a0: 6f39 cd3d d042 09bd 2445 253d 40d0 f03c
000001b0: 562f 433c 809e ad3b aa2b 97bd 2de0 35bb
000001c0: e472 df3b 0fcc 003b 6beb 6dbc 195f 0dbd
000001d0: 0de9 40bb c7fb 29bd 8570 0d3b 2c3b 8dbd
000001e0: a107 0dbc b623 49bd 1590 c2ba c60b b23b
000001f0: 1948 0c3b aea1 c73c db66 a93d cef1 b13c
00000200: 2a05 79bd 8f9d 5bbc 0e21 7dbd 3e9e ef3c
00000210: 4443 353d 91df 05bc cb95 333d 8a0f 13bb
00000220: 29b1 f3bc ead4 523d f75b be3c 0818 6fbd
00000230: 9897 3ebb 7777 a1bc fcd0 8b3d 8cc8 19bd
00000240: 5999 0e3a 8a28 a4bd b834 8fbc b9b8 773b
00000250: 9b66 a83b 22eb fc3d c583 213d 12c1 a3bb
00000260: 60d7 083d 4a78 4239 9956 c7bd 1b48 dcba
00000270: 7474 203d d6c8 063c 591e c23d 1c46 a83b
00000280: 8beb 5d3c e109 db3a 6306 67bd 6360 06bc
00000290: 4e5f 9fbd 5e41 63bd 7ddd 4d3d 9e9c a5bb
000002a0: 985d 69bd f1bc 8e3d be48 25bd 1d0d 943d
000002b0: 0f5c 44bc 791b a5bc 6cad ce3c 0584 1b3c
000002c0: b468 febc 7abf a6bc 1729 0fbd 1c06 b23c
000002d0: 2ff0 6f3d 9ce6 683c 5d01 65bd 84e3 ecbb
000002e0: 1488 0abd 6a54 3abd 82b1 843b 5af1 8abd
000002f0: 166a 50bc b2da fbbb bb73 eabc 38ab 24bd
00000300: c7fd 6cbd 7578 64bc 4b01 243c 22f1 e63c
00000310: cc9e cebc 4f95 9ebd 5287 86bb 5a2b 413d
00000320: 3f49 58bd 379d 683c d601 853c fcb3 923d
00000330: 88c7 623d 0d49 42bc 078e 8c3d ab8a aa3b
00000340: 9fc9 bbbd 6d5b 35bb 5c91 2fbd 39e2 d23c
00000350: 7403 8f3c 9d73 3d3c 2902 ad3d 7c14 a93c
00000360: cbb4 533d e825 293d 4084 cbbc da34 9cbc
00000370: b32d 6e3d be01 503d f2f9 cabc 1356 ecbb
00000380: d460 c73d 9707 e9bb 2c8c ef3b 33cb 283d
00000390: 75ec ce3b 3e8a af3d 9435 b5ba 6740 60bd
000003a0: fc6b 52bd 4ebd 3c3d 5de5 173d 6f83 b4bc
000003b0: 21aa 063c 2727 443d 9b11 3c3c aa66 9a3c
000003c0: 5e56 6bbd 4cd4 613d f8f7 9cbd 9c25 4d3b
000003d0: d635 dcbc 533e 61bd 492c 21bd 5261 edbb
000003e0: 0702 87bd 2f71 e13b ecdf 21bd e1a2 d93b
000003f0: daf8 f1bb fffd 063d 21d6 4fbb c46f a63d

net.3.linear.weight f4 [256, 256]
0.0015229668 1.7821996e-05 -0.00051485724 -9.155447e-05 0.00012814549 -9.070647e-05 -0.00020764 -0.0068739173
0.00022601981 0.009425875 -0.00029057142 -0.00011602477 0.00022982372 -0.0010944968 0.00023819733 6.2561056e-05
0.00033156294 -0.00011257662 -0.00014676839 -0.00014770117 0.0003385035 7.879156e-05 0.00028077542 0.00025027347
-0.004844747 -0.00040485276 0.0033026559 -6.465064e-05 0.00015606539 8.8926834e-05 0.0016892382 -4.012971e-05
-0.00019014161 -0.00017375335 -0.00032853146 -0.00015644451 7.4275464e-05 0.008741052 3.99035e-06 -1.2069473e-05
4.465789e-05 -7.139468e-05 0.00018038931 0.0015048025 -3.128125e-05 6.3878e-05 -0.0039559356 -3.339476e-05
-0.000145395 0.0036719101 0.0010158842 -0.00017935457 -0.00038885445 0.00026687983 0.00033468797 0.00023283427
-0.0006114754 3.639107e-05 0.00015665224 -6.29753e-05 -0.0015241547 1.5438174e-05 -7.566459e-05 -0.007265404
-4.8403926e-06 0.00038857415 -9.7486685e-05 0.00950184 0.00026942874 -0.00015268513 1.4363851e-05 -0.00038051658
-0.00036075673 -0.00024554218 0.00018287676 4.3862467e-05 -9.3167175e-05 -0.00018343062 6.554081e-05 -3.9884486e-05
-0.0001696413 7.7923534e-05 9.219905e-05 -0.00012105028 -0.00027661806 -0.00043614593 0.0002563283 0.00018407467
-2.2968454e-05 0.00024292505 -0.00037095955 0.00026747512 1.1756105e-05 -0.0001467167 -7.670681e-05 0.0039844955
-3.776301e-05 0.00027787584 -2.2072101e-05 7.024112e-05 0.0015071966 -0.0025958035 0.0003375047 0.00024956634
0.002642718 0.00017469199 -0.00028310344 5.149184e-05 0.0015705164 0.00960059 9.4851974e-05 2.3515533e-06
0.0019739498 0.0016060139 0.00020754867 0.009259499 0.0013198998 -8.5703694e-05 -0.0013448969 -0.0021047625
-0.0005886196 1.771948e-05 0.00034513514 0.00024263082 0.00184435 0.0010562068 -2.179997e-05 -0.00032523467
7.458267e-05 0.00013220539 3.3143486e-05 -0.0010989244 -0.00044625637 -0.007562417 -1.2693873e-05 -5.6277877e-05
-0.00016680591 -1.2436235e-06 0.00021775962 -0.0028485018 -9.419579e-05 -0.0006759884 -0.00031635063 -0.00027495724
-0.0001281559 -0.00033889012 -0.00020344609 -8.8671964e-05 -0.00029839366 0.004206713 -0.00029819828 -0.009603155
-0.0004575533 6.126923e-05 -0.0020408283 -0.0008380506 0.00034311716 -0.0010524973 -0.00029782736 0.00014335045
8.5132895e-05 4.9997896e-05 4.2568347e-05 0.0049364874 -0.00014166224 0.00031548846 0.00021409748 -0.00012555339
-0.0004929965 -0.0002558648 0.00022707504 -0.0028611138 -0.00019491075 -0.00012247548 0.00014099503 8.2370716e-05
0.00020401523 -0.0016562922 -0.0021326884 -0.0062816273 0.00022717539 0.000715487 0.0049633826 -0.00015128858
0.00018024133 2.6221302e-05 0.0022401856 -0.0001107566 0.00021219563 1.2576057e-05 -0.005397185 0.0066806
0.00011772491 -0.00013030616 3.979673e-05 0.00018834196 0.00022185124 -0.0058564227 -0.0002292757 -3.3830263e-05
-0.00028313205 0.00048481856 -0.00020093753 0.0002768221 1.7489614e-05 -4.5095003e-05 0.0017654984 0.00079585577
0.00028195104 0.0027251777 -0.00011493658 9.586241e-05 1.4028311e-05 0.00015108808 0.00016295475 5.7392244e-05
7.9647405e-05 3.89662e-05 -0.0001733802 0.0064095454 -0.0004734628 -0.00096011854 -8.648011e-05 2.7571945e-05
-0.0002433513 0.000390432 0.00062425 0.0014620778 0.0011471686 0.0040661506 -0.00022438307 -0.00015400647
-1.5558267e-05 0.004259708 0.0057168836 -0.00012556718 0.0049520517 0.00011969582 -0.009329287 -0.002548415
0.00022767206 4.9196544e-05 -0.00029027535 0.00013088985 0.00032412756 0.000102762606 0.00021618397 3.753437e-05
-0.0002376099 -0.0019399908 -0.0031036623 -0.0005128537 0.00032102244 -6.950063e-05 0.0026349456 -8.5069754e-05
00000000: 499e c73a 7280 9537 7cf7 06ba ef00 c0b8
00000010: cb5e 0639 aa39 beb8 f0b9 59b9 993e e1bb
00000020: bbff 6c39 fc6e 1a3c d657 98b9 5352 f3b8
00000030: d6fc 7039 3875 8fba 9cc4 7939 3633 8338
00000040: a0d5 ad39 1d17 ecb8 d7e5 19b9 3be0 1ab9
00000050: 2c79 b139 e63c a538 0a35 9339 2337 8339
00000060: afc0 9ebb 6b42 d4b9 5f71 583b 0c95 87b8
00000070: 7ca5 2339 3b7e ba38 6e69 dd3a f350 28b8
00000080: c060 47b9 8f31 36b9 bf3e acb9 410b 24b9
00000090: 56c4 9b38 a136 0f3c d8e4 8536 fe7d 4ab7
000000a0: 0b4f 3b38 bab9 95b8 e326 3d39 cb3c c53a
000000b0: fd33 03b8 3df6 8538 cba0 81bb 5a11 0cb8
000000c0: 2c75 18b9 6ea4 703b 6b27 853a 2011 3cb9
000000d0: 29df cbb9 01ec 8b39 0f79 af39 f924 7439
000000e0: 6b4b 20ba 9da2 1838 0443 2439 9b11 84b8
000000f0: 25c6 c7ba 3a81 8137 1eae 9eb8 a012 eebb
00000100: a86a a2b6 8ab9 cb39 c471 ccb8 9bad 1b3c
00000110: 1d42 8d39 1a1a 20b9 45fc 7037 1280 c7b9
00000120: f323 bdb9 1dbc 80b9 9bc2 3f39 f7f8 3738
00000130: bf62 c3b8 4857 40b9 f472 8938 a449 27b8
00000140: bde1 31b9 e16a a338 fd5a c138 60dc fdb8
00000150: 0c07 91b9 84aa e4b9 cd63 8639 2b04 4139
00000160: 61ac c0b7 b2b9 7e39 597d c2b9 e73b 8c39
00000170: 163c 4537 f7d7 19b9 a8dd a0b8 5f90 823b
00000180: b963 1eb8 ddaf 9139 7a27 b9b7 6a4e 9338
00000190: 208d c53a 5b1e 2abb 1df3 b039 3ad8 8239
000001a0: 7331 2d3b 862d 3739 806d 94b9 f1f8 5738
000001b0: c9d9 cd3a cb4b 1d3c 44eb c638 61cf 1d36
000001c0: 625d 013b e280 d23a 6ca1 5939 27b5 173c
000001d0: 7d00 ad3a d2bb b3b8 4047 b0ba 0ef0 09bb
000001e0: 984d 1aba 4ba4 9437 41f3 b439 b76a 7e39
000001f0: 1ebe f13a 6b70 8a3a 14df b6b7 4284 aab9
00000200: 4469 9c38 9da0 0a39 8c03 0b38 c909 90ba
00000210: 84f7 e9b9 27ce f7bb c5f7 54b7 e90b 6cb8
00000220: 9fe8 2eb9 94ea a6b5 6756 6439 eead 3abb
00000230: fb8a c5b8 d034 31ba dddb a5b9 2328 90b9
00000240: 9661 06b9 10ad b1b9 2554 55b9 66f5 b9b8
00000250: b871 9cb9 77d8 893b 7f57 9cb9 8d56 1dbc
00000260: c4e3 efb9 ab7d 8038 6bbf 05bb a0b0 5bba
00000270: 68e4 b339 f3f3 89ba b625 9cb9 5850 1639
00000280: 6089 b238 d5b4 5138 6a8b 3238 42c2 a13b
00000290: 2b8b 14b9 2568 a539 5b7f 6039 fba6 03b9
000002a0: 6f3c 01ba 9825 86b9 fe1a 6e39 8681 3bbb
000002b0: f560 4cb9 c36c 00b9 11d8 1339 71be ac38
000002c0: ecec 5539 f217 d9ba 93c4 0bbb 1cd6 cdbb
000002d0: ee35 6e39 858f 3b3a dfa3 a23b 38a3 1eb9
000002e0: 2aff 3c39 d1f5 db37 14d0 123b ff45 e8b8
000002f0: d580 5e39 c1fd 5237 dfda b0bb efe8 da3b
00000300: 14e3 f638 cba2 08b9 6aeb 2638 a97d 4539
00000310: bda0 6839 3ce7 bfbb ba69 70b9 f8e4 0db8
00000320: 5771 94b9 3f2f fe39 c2b2 52b9 6f22 9139
00000330: a9b6 9237 6424 3db8 4c68 e73a faa0 503a
00000340: d4d2 9339 e598 323b 1b0a f1b8 bd09 c938
00000350: 235b 6b37 666d 1e39 d5de 2a39 74b8 7038
00000360: 6008 a738 a36f 2338 65cd 35b9 2a07 d23b
00000370: 1a3b f8b9 77b0 7bba a85c b5b8 4d4a e737
00000380: 1e2c 7fb9 e5b2 cc39 b5a4 233a 31a3 bf3a
00000390: 975c 963a 583d 853b 5f48 6bb9 cc7c 21b9
000003a0: 2083 82b7 0595 8b3b b254 bb3b afaa 03b9
000003b0: d244 a23b 3405 fb38 ded9 18bc 4f03 27bb
000003c0: 41bb 6e39 6358 4e38 1930 98b9 7a3f 0939
000003d0: aaef a939 4182 d738 71af 6239 396e 1d38
000003e0: ec26 79b9 4a47 feba d066 4bbb 0771 06ba
000003f0: e74e a839 dec0 91b8 0daf 2c3b 7a67 b2b8
