tres/log1/rrrbest_model_54999.pt (torch, 802249 bytes, 9 tensors)

net.0.linear.weight f4 [256, 7]
-0.038439382 0.12886643 0.1458002 0.074984625 -0.05662099 -0.03437664 -0.076653734 -0.00036718955
0.029006368 -0.0037416285 -0.012778122 0.07610512 -0.008883719 -0.10064525 0.10000265 0.017317388
0.0784752 -0.010765047 -0.026219333 -0.054786615 -0.05487356 -0.018562416 0.06098905 -0.007358721
0.035328954 -0.12621069 0.024751054 0.07072583 -0.0915509 0.05623258 0.14408827 -0.0013283975
0.028164087 0.03475095 -0.03233143 0.039709225 0.059860438 0.10643313 0.11819427 0.04485427
-0.060198028 -0.10788546 -0.10961476 0.10925233 -0.012812284 0.016295943 0.010850079 0.05931569
-0.048327755 0.04005098 0.03203442 -0.05239263 -0.09567739 -0.06676302 0.093462184 -0.13441214
-0.079695374 0.017669564 0.0038337247 0.13435541 -0.043139722 -0.021183016 0.00427891 0.0033565052
-0.08779477 -0.07093954 -0.10953676 0.08872435 0.039491057 -0.052154172 0.0753974 0.08372387
-0.1524824 0.045985132 0.033897713 0.13833131 0.01366343 0.005036561 -0.0036108573 -0.01951758
0.008536057 0.025863344 0.06027242 -0.1134947 0.07886497 0.08052486 -0.01609454 0.05619436
-0.092324376 -0.0485081 -0.05489966 0.078362994 -0.021771394 0.1290938 -0.078114465 -0.04986285
0.05748609 0.020779228 0.11872749 0.17647044 0.11902911 0.0071919374 0.07548287 0.054777097
-0.01863175 0.082077436 -0.066718 0.040341794 -0.013786979 -0.0039446494 -0.09945617 -0.005068559
0.034466766 0.1307318 -0.1346647 -0.07952384 0.078668915 -0.11215115 -0.12403948 -0.107413165
0.12555687 -0.030532138 0.13705887 0.09501894 0.07060821 -0.11949793 -0.0059214854 0.12906268
-0.015222711 -0.07020997 0.0774437 -0.007945609 0.12745187 0.108447075 0.15127039 -0.11690332
0.07056276 -0.092912704 -0.019744618 -0.03628847 0.034837544 -0.2018269 0.09549597 -0.0023637284
-0.028647847 0.09758871 -0.11113445 -0.11319884 0.02731199 0.006004573 -0.05618809 0.11017851
0.05644813 0.05359357 -0.042362504 -0.032770142 -0.0133166695 0.11169513 0.075718716 0.040855344
0.08182865 0.113372914 0.08634679 -0.113222584 -0.04247999 -0.12685166 -0.03281783 0.04138184
0.06397187 -0.008961218 0.048718583 -0.1261679 0.036065586 -0.08877184 -0.09777805 -0.030125484
-0.016150136 0.062352225 0.031593353 0.023469575 -0.07346122 0.12685855 0.06340378 -0.040989712
-0.01672484 -0.115301356 0.09683953 0.050364297 -0.073371835 0.01873634 -0.05021075 -0.029148566
-0.049298435 0.10467417 0.07116709 0.030069945 0.14025374 -0.023620702 -0.116226375 -0.016482957
-0.049776535 0.033331737 -0.046783432 -0.006442298 -0.007451129 0.009670208 -0.012531499 0.0025111246
0.027669761 -0.090222225 -0.045955777 -0.04877184 -0.056812566 0.09040409 0.096959725 0.115958884
-0.119142495 -0.03772682 0.00090579246 -0.069324166 0.06263645 -0.059214033 0.1270365 -0.03781266
0.117230654 -0.051065978 0.0045667356 -0.14055385 -0.042669643 -0.07526672 0.051053036 0.046422455
-0.01963744 -0.089154705 -0.10650445 0.07930476 0.034037236 -0.06745862 -0.10520537 -0.15213811
0.14638297 -0.033081513 0.021201339 -0.0031839013 -0.062234994 0.03828366 -0.05189716 -0.005126961
0.0048793852 0.13106018 0.039170597 -0.05276519 0.09151767 0.07271033 -0.10920634 -0.023204647
00000000: 9d72 1dbd 90f5 033e a64c 153e 8a91 993d
00000010: 69eb 67bd 85ce 0cbd a2fc 9cbd 5983 c0b9
00000020: c39e ed3c 1c36 75bb 545b 51bc 00dd 9b3d
00000030: 058d 11bc 191f cebd 30ce cc3d 32dd 8d3c
00000040: 9bb7 a03d e15f 30bc edc9 d6bc ee67 60bd
00000050: 19c3 60bd 3510 98bc a7cf 793d 6d21 f1bb
00000060: 18b5 103d 603d 01be b9c2 ca3c b4d8 903d
00000070: 0a7f bbbd 2254 663d e08b 133e a01d aeba
00000080: 5fb8 e63c 0357 0e3d f66d 04bd 24a6 223d
00000090: 3830 753d 9df9 d93d d60f f23d 1cb9 373d
000000a0: 3592 76bd 0df3 dcbd b47d e0bd b0bf df3d
000000b0: 9dea 51bc 127f 853c 88c4 313c 02f5 723d
000000c0: 53f3 45bd 7f0c 243d 8636 033d a899 56bd
000000d0: 82f2 c3bd 0dbb 88bd 1a69 bf3d 56a3 09be
000000e0: 5437 a3bd c3bf 903c 3a3f 7b3b 7794 093e
000000f0: 47b3 30bd 0188 adbc 1936 8c3b d0f8 5b3b
00000100: bfcd b3bd c048 91bd cf54 e0bd 1db5 b53d
00000110: 60c1 213d 9d9f 55bd f469 9a3d 6c77 ab3d
00000120: 5924 1cbe e85a 3c3d 54d8 0a3d b9a6 0d3e
00000130: 94dc 5f3c bc09 a53b 22a4 6cbb 55e3 9fbc
00000140: d1da 0b3c 5ddf d33c 37e0 763d e96f e8bd
00000150: f583 a13d 38ea a43d b2d8 83bc 0f2c 663d
00000160: 9014 bdbd 6eb0 46bd 77de 60bd c77c a03d
00000170: ec59 b2bc 2a31 043e 7afa 9fbd fd3c 4cbd
00000180: 8976 6b3d 3339 aa3c 6627 f33d abb4 343e
00000190: 89c5 f33d 58aa eb3b c396 9a3d f35d 603d
000001a0: 9da1 98bc 3718 a83d 72a3 88bd 703d 253d
000001b0: c8e2 61bc 1e42 81bb adaf cbbd 2816 a6bb
000001c0: 062d 0d3d 8fde 053e 8be5 09be 65dd a2bd
000001d0: 2b1d a13d 81af e5bd 6908 febd 6ffb dbbd
000001e0: fb91 003e 891e fabc 2959 0c3e 4a99 c23d
000001f0: 0a9b 903d 55bb f4bd 0509 c2bb 0229 043e
00000200: ad68 79bc 3fca 8fbd cd9a 9e3d 4d2e 02bc
00000210: be82 023e 8019 de3d a0e6 1a3e 026b efbd
00000220: 3583 903d 0449 bebd 77bf a1bc 38a3 14bd
00000230: d0b1 0e3d b6ab 4ebe 6493 c33d c8e8 1abb
00000240: e4ae eabc 97dc c73d 759a e3bd cbd4 e7bd
00000250: 65bd df3c 02c2 c43b 7c25 66bd 45a5 e13d
00000260: 2836 673d ee84 5b3d 4e84 2dbd fc39 06bd
00000270: 292e 5abc 6bc0 e43d 6a12 9b3d ef57 273d
00000280: c795 a73d 0f30 e83d 96d6 b03d 3ee1 e7bd
00000290: 7fff 2dbd 67e5 01be fd6b 06bd 0180 293d
000002a0: af03 833d 13d2 12bc 238d 473d 2832 01be
000002b0: 82b9 133d 03ce b5bd dc3f c8bd b8c9 f6bc
000002c0: 4a4d 84bc 0c65 7f3d 0868 013d 4443 c03c
000002d0: d672 96bd 35e7 013e d7d9 813d d4e4 27bd
000002e0: 8802 89bc 1e23 ecbd ce53 c63d cb4a 4e3d
000002f0: f943 96bd f47c 993c caa9 4dbd f9c8 eebc
00000300: 28ed 49bd 695f d63d 0dc0 913d 3f55 f63c
00000310: ad9e 0f3e 3480 c1bc 1808 eebd 4407 87bc
00000320: 7be2 4bbd dc86 083d fc9f 3fbd ea19 d3bb
00000330: 9a28 f4bb cb6f 1e3c eb50 4dbc ae91 243b
00000340: b2ab e23c 6ec6 b8bd 203c 3cbd fbc4 47bd
00000350: 4bb4 68bd c825 b93d d292 c63d da7b ed3d
00000360: fb00 f4bd 7087 1abd b472 6d3a d4f9 8dbd
00000370: 8a47 803d 6a8a 72bd db15 023e 73e1 1abd
00000380: a016 f03d 8f2a 51bd 8ea4 953b 59ed 0fbe
00000390: 5dc6 2ebd 7025 9abd fd1c 513d 7925 3e3d
000003a0: b2de a0bc be96 b6bd 011f dabd 896a a23d
000003b0: a16a 0b3d bf27 8abd ea75 d7bd 18ca 1bbe
000003c0: 6be5 153e 7b80 07bd 6eae ad3c 00a9 50bb
000003d0: 1fea 7ebd 54cf 1c3d 1e92 54bd 1100 a8bb
000003e0: 40e3 9f3b a434 063e 5971 203d 5020 58bd
000003f0: 9e6d bb3d 27e9 943d 93a7 dfbd ac17 bebc

net.0.linear.bias f4 [256]
-0.3604939 0.16641016 0.3175608 0.34873983 -0.006809057 0.2931785 0.22841366 0.06643928
0.28655338 0.15110914 0.08993785 0.13411711 -0.16866326 -0.35619825 0.20345247 -0.03771861
-0.37308627 0.012698971 0.060715467 -0.18249667 -0.13995892 0.24358314 -0.24089032 -0.09102017
-0.12537168 -0.35106674 0.17761198 -0.34421757 0.14533953 0.38763046 -0.37319157 -0.33250827
-0.2123975 -0.25906456 0.01523213 0.115369655 0.09996976 0.31212908 0.17591809 0.070671424
-0.016172944 0.31066275 -0.21706815 -0.30496275 0.35529256 -0.17426151 -0.04312336 -0.1507479
0.102747485 -0.33169314 0.2278145 -0.37359646 -0.276033 0.20755227 -0.14154604 -0.05893562
0.0036080873 -0.10771539 -0.12931314 0.18085718 -0.053858712 0.2621065 0.17052852 0.20604572
-0.32135606 0.38589644 0.3023052 -0.3964223 0.37754944 0.061110526 -0.001627679 -0.31217125
-0.29587018 0.33588862 0.11451531 0.12708314 -0.08354199 -0.34451357 0.18238084 0.2977453
-0.26747677 0.27902508 -0.051622488 -0.2798885 -0.15453254 0.3164049 -0.06901769 -0.25620678
-0.077962294 -0.3245267 -0.28418186 -0.027093032 -0.2170586 0.0906454 0.15633327 -0.10020782
-0.06372394 -0.12578909 0.28277254 0.30230743 0.27163532 0.11430899 -0.05581475 0.06914288
-0.25298947 0.26252303 -0.11149445 0.25169432 0.13728386 -0.3865671 0.2680534 -0.12912169
0.25468078 -0.09937434 0.032329272 0.047444265 -0.034361746 0.14366743 -0.13827978 0.04125854
-0.14449105 0.10092394 -0.16887508 0.20341581 0.11618243 -0.15768836 0.019705404 -0.09130832
-0.14256306 0.3128341 -0.026086938 0.30025303 0.21221785 0.34767413 0.20334235 -0.053482004
0.1104872 0.12127672 0.17734233 -0.09541967 0.23723872 0.07663135 0.35729292 -0.31779844
0.27352536 0.16987373 0.26156864 -0.34185156 0.11238753 -0.22375609 -0.07673099 -0.3291925
-0.03290404 -0.20976561 -0.19241844 0.15056334 0.027181555 -0.29359055 -0.008015018 -0.25637075
-0.043714218 0.028230373 0.019997576 -0.33562818 -0.1596611 0.25434598 0.076745644 0.048386186
0.19990961 -0.15085906 -0.29524928 0.27004892 0.36020395 0.17227817 -0.2561921 -0.22230029
-0.33995312 0.3639205 -0.008897827 -0.09726015 -0.26674467 0.21070135 0.18578753 -0.14368802
-0.0370858 0.31087905 0.34204358 -0.32488102 0.24880764 0.22808994 -0.065672316 -0.36964494
0.1877951 0.17548862 -0.2107802 0.08982059 -0.18745187 0.12892647 0.3631283 -0.10749202
-0.20301822 -0.24619144 0.25911438 0.27819884 -0.2224592 -0.24124771 0.025052618 0.07050595
0.3733473 0.24184532 0.34057596 -0.25766605 0.28007385 0.3066312 0.2341552 -0.26648906
0.32219216 -0.11866827 0.064492255 -0.11490961 0.31397557 0.29231343 0.14376287 -0.28122774
-0.16894533 -0.21657954 -0.13983622 -0.09184051 0.0051519377 -0.10134326 -0.12074293 -0.06589623
0.27880147 0.05378267 0.20434497 0.022126248 -0.083427966 0.23986836 -0.29596248 -0.17799924
0.22753812 -0.35483927 -0.13713509 0.21446757 -0.0052855723 -0.009226843 -0.08556474 -0.22693512
0.20685673 -0.16778693 0.0036532907 -0.28835827 0.23169784 0.198478 -0.312243 0.27522385
00000000: a892 b8be 6d67 2a3e 5497 a23e 078e b23e
00000010: 831e dfbb 7e1b 963e 45e5 693e 5111 883d
00000020: 20b7 923e 5bbc 1a3e 5631 b83d ff55 093e
00000030: 10b6 2cbe 9e5f b6be d855 503e d47e 1abd
00000040: 2a05 bfbe 580f 503c c8b0 783d 68e0 3abe
00000050: 6451 0fbe dc6d 793e f4ab 76be c868 babd
00000060: 6f61 00be 05bf b3be eadf 353e 493d b0be
00000070: e3d3 143e 8077 c63e f712 bfbe 863e aabe
00000080: bb7e 59be 1ca4 84be 2f90 793c ed46 ec3d
00000090: f2bc cc3d 62cf 9f3e df23 343e 2ebc 903d
000000a0: 1f7d 84bc 300f 9f3e 1d47 5ebe 1424 9cbe
000000b0: e8e8 b53e 9c71 32be 1fa2 30bd a85d 1abe
000000c0: 466d d23d afd3 a9be 3448 693e 0948 bfbe
000000d0: 3354 8dbe 9588 543e 72f1 10be 7a66 71bd
000000e0: a975 6c3b e399 dcbd aa6a 04be a032 393e
000000f0: f49a 5cbd d332 863e 079f 2e3e a6fd 523e
00000100: c888 a4be 3894 c53e bfc7 9a3e ddf7 cabe
00000110: 294e c13e 084f 7a3d d857 d5ba e9d4 9fbe
00000120: 4c7c 97be 98f9 ab3e 0187 ea3d 1522 023e
00000130: 1018 abbd 1564 b0be 0bc2 3a3e 1272 983e
00000140: b7f2 88be 60dc 8e3e 1a72 53bd 8c4d 8fbe
00000150: c73d 1ebe d3ff a13e 2659 8dbd 892d 83be
00000160: b2aa 9fbd 5d28 a6be 4980 91be 35f2 ddbc
00000170: 9c44 5ebe 4ca4 b93d d415 203e c239 cdbd
00000180: b281 82bd dbce 00be 90c7 903e 0ac8 9a3e
00000190: c913 8b3e d51a ea3d 029e 64bd c89a 8d3d
000001a0: d687 81be 6b69 863e 3457 e4bd 14de 803e
000001b0: 2494 0c3e 1fec c5be 4c3e 893e 7a38 04be
000001c0: 8565 823e c684 cbbd b36b 043d eb54 423d
000001d0: e7be 0cbd 8e1d 133e 3799 0dbe b7fe 283d
000001e0: 76f5 13be 36b1 ce3d 97ed 2cbe 3c4c 503e
000001f0: 0ef1 ed3d 0f79 21be 3a6d a13c dbff babd
00000200: 0dfc 11be cb2b a03e 46b4 d5bc c4ba 993e
00000210: a34f 593e 5802 b23e fa38 503e f20f 5bbd
00000220: 1d47 e23d ee5f f83d 3a99 353e 636b c3bd
00000230: b5ee 723e e6f0 9c3d 19ef b63e 7ab6 a2be
00000240: 840b 8c3e 61f3 2d3e 53ec 853e 2b07 afbe
00000250: 6f2b e63d 5120 65be 2325 9dbd eb8b a8be
00000260: 63c6 06bd cccc 56be 5709 45be 472d 1a3e
00000270: daab de3c 8051 96be 6c51 03bc 0743 83be
00000280: ae0d 33bd 6243 e73c f5d1 a33c 75d7 abbe
00000290: 337e 23be a339 823e d22c 9d3d 9830 463d
000002a0: 1bb5 4c3e cc7a 1abe ea2a 97be da43 8a3e
000002b0: a76c b83e b069 303e 9c2b 83be b0a2 63be
000002c0: 560e aebe ca53 ba3e 31c8 11bc 5430 c7bd
000002d0: c292 88be 18c2 573e 163f 3e3e f422 13be
000002e0: 48e7 17bd 8a2b 9f3e 5620 af3e ce56 a6be
000002f0: 6ec7 7e3e 6990 693e 357f 86bd 1a42 bdbe
00000300: 5c4d 403e 4ab3 333e c4d6 57be dcf3 b73d
00000310: 62f3 3fbe 4d05 043e f4eb b93e c724 dcbd
00000320: 02e4 4fbe 9c19 7cbe a4aa 843e 1470 8e3e
00000330: 58cc 63be a409 77be 263b cd3c 6c65 903d
00000340: 6127 bf3e 4da6 773e f95f ae3e ceec 83be
00000350: d765 8f3e c4fe 9c3e 61c6 6f3e 4171 88be
00000360: 5ff6 a43e 5a08 f3bd 8414 843d bb55 ebbd
00000370: 68c1 a03e 1baa 953e 9336 133e 15fd 8fbe
00000380: 0100 2dbe 07c7 5dbe 3a31 0fbe e116 bcbd
00000390: 96d1 a83b 0e8d cfbd 1248 f7bd 9af4 86bd
000003a0: 11bf 8e3e 384b 5c3d cf3f 513e 1b42 b53c
000003b0: 48dc aabd 0da0 753e 6588 97be 6f45 36be
000003c0: c1ff 683e 7ead b5be 246d 0cbe 639d 5b3e
000003d0: 9832 adbb 2f2c 17bc 913c afbd ae61 68be
000003e0: 40d2 533e 56d0 2bbe 0c6c 6f3b b2a3 93be
000003f0: 3342 6d3e d13d 4b3e 51de 9fbe 24ea 8c3e

net.1.linear.weight f4 [256, 256]
-0.019691195 0.014470261 -0.016310766 0.012461586 0.014666094 -0.0044346456 -0.00423032 -0.02531124
0.018539835 0.039954707 0.026375545 0.02085961 0.004588798 0.015207288 0.0047659418 0.010372534
-0.0013798025 -0.00043001218 0.010491339 0.01751523 -0.01945158 -0.0074756118 -0.0024968006 0.0033105959
0.008134202 -0.014148205 -0.007800329 -0.012872543 0.013042366 0.018799083 0.00408734 0.009921245
0.0062373444 0.0013319438 0.0137252305 -0.0035804112 -0.007678438 -0.02207162 -0.018685197 0.009374215
-0.012146979 -0.021415085 -0.010870768 -0.0065518483 -0.013694017 0.0037500747 -0.0018008135 0.0010532744
0.0046857893 0.00325775 0.0020860615 -0.005305687 -0.0011605012 0.009089265 -0.011057318 -0.032893937
0.0026071782 0.014992459 0.002316794 -0.0060710036 -0.01801514 0.012834942 -0.0038757818 -0.014753453
-0.010128007 -0.0063661807 -0.00407408 0.0056812908 0.02264902 -0.0012760095 -0.018200262 0.020980714
-0.0036029709 0.030253937 0.02062979 0.008737777 -0.0005621724 0.026431533 -0.0042820196 -0.0004546172
0.012224658 -0.004648526 0.0016756079 0.00017571196 -0.006006734 0.018453918 -0.009225057 -0.0068965447
0.0015939156 0.0055815605 0.023889579 0.026134718 0.013202673 -0.01780502 -0.009067833 -0.017730061
0.0066866325 0.0055755954 0.005410637 0.00030660283 -0.021907156 -0.009349074 0.021398544 -0.012430691
0.03786469 0.026210507 0.007958473 0.025140591 0.0121349385 -0.011232709 0.008711756 -0.02070498
-0.0014894087 -0.024941025 0.0067134183 -0.0053819846 -0.00053221826 -0.005167746 0.0035300914 0.00046594857
0.0040544295 0.017024007 -0.0020096793 -0.0048975665 0.007541473 -0.025120676 0.015187989 -0.028084693
0.010847434 0.018478505 0.013568281 -0.009866025 0.011652538 -0.005924957 -0.027181767 0.011610608
-0.022022687 -0.023483628 -0.001333491 -0.014543461 0.0019361525 -0.010017936 0.034644675 -0.011030757
-0.012029919 -0.0025322738 -0.0033748818 -0.002287371 0.023840997 -0.013578187 0.008616247 0.011076644
-0.029521972 -0.0106203705 -0.0074834423 -0.021955596 0.005414588 -0.015319521 -0.009427552 0.010792354
0.0025560898 -0.009975204 -0.0061949543 0.013507968 -0.016816964 0.018749213 0.016858848 0.016311387
-0.01091396 0.0054735313 0.0058134426 0.007090948 -0.0035979718 0.026200451 0.028217914 0.015193573
-0.0015394589 -0.015712658 0.0010166992 -0.018704476 -0.0238676 -0.01664318 0.0019522544 0.011365907
-0.0016744923 0.018311488 0.0002409337 -0.018179536 0.010057802 -0.017848222 0.01650772 0.0224265
-0.016408455 -0.012592132 -0.0043971217 0.017723475 0.0017183063 -0.008503698 0.03843588 -0.0052557425
0.031788524 -0.00702818 -0.0012572415 0.009222862 0.0011752942 0.018315101 0.008988622 0.013251039
-0.01071147 -0.0028491132 -0.005189829 -0.028738402 -0.0130678145 0.011049925 0.012596366 0.0018436013
-0.0015162363 -0.008746174 -0.018109288 0.0062502357 0.025011836 -0.0180515 0.025300372 0.008594112
-0.008553174 -0.0070916153 -0.022551453 0.0077334857 0.010064166 0.014858635 0.0067528156 0.011039458
0.013365981 0.015364333 -0.017503051 0.02043961 0.009353861 0.0035929019 0.0040623285 -0.022252914
-0.0028223838 0.035906706 0.007774107 -0.02262519 0.01267619 -0.007344719 -0.006849119 -0.0018964985
-0.016585477 -0.017432375 0.010258041 -0.040616106 -0.022235906 -0.008805989 -0.008112279 0.004194174
00000000: 6e4f a1bc ac14 6d3c 289e 85bc ae2b 4c3c
00000010: 0f4a 703c 8150 91bb 7f9e 8abb 8559 cfbc
00000020: dae0 973c 8ca7 233d 8711 d83c c6e1 aa3c
00000030: a15d 963b fd27 793c 9e2b 9c3b 90f1 293c
00000040: 7dda b4ba 4273 e1b9 dde3 2b3c 1a7c 8f3c
00000050: eb58 9fbc faf5 f4bb 5da1 23bb 95f6 583b
00000060: 5145 053c dfcd 67bc e799 ffbb 5ce7 52bc
00000070: a6af 553c 8900 9a3c 18ef 853b b88c 223c
00000080: a362 cc3b 9e94 ae3a cadf 603c 55a5 6abb
00000090: 689b fbbb 8bcf b4bc b311 99bc 4f96 193c
000000a0: 1f04 47bc b06e afbc 4e1b 32bc e3b0 d6bb
000000b0: df5c 60bc d0c3 753b 4609 ecba 060e 8a3a
000000c0: 408b 993b fa7f 553b 4eb6 083b 54db adbb
000000d0: f51b 98ba 24eb 143c c129 35bc cbbb 06bd
000000e0: 31dd 2a3b eea2 753c 5ad5 173b 45ef c6bb
000000f0: 7d94 93bc a649 523c d400 7ebb 78b8 71bc
00000100: f1ef 25bc 659b d0bb dc7f 85bb 1f2a ba3b
00000110: 708a b93c c63f a7ba b718 95bc bfdf ab3c
00000120: d21f 6cbb 1bd7 f73c ceff a83c e528 0f3c
00000130: c05e 13ba f186 d83c 2f50 8cbb b059 eeb9
00000140: ef49 483c aa52 98bb 12a0 db3a 523f 3839
00000150: 23d4 c4bb ac2c 973c b224 17bc 69fc e1bb
00000160: efea d03a 86e5 b63b 14b4 c33c 7a18 d63c
00000170: 0650 583c d5db 91bc 4091 14bc a23e 91bc
00000180: 8a1b db3b 7cb3 b63b b64b b13b 89bf a039
00000190: a376 b3bc dc2c 19bc 004c af3c 19aa 4bbc
000001a0: 0118 1b3d 6bb7 d63c 4164 023c a4f3 cd3c
000001b0: 9fd1 463c 6509 38bc c1bb 0e3c 7d9d a9bc
000001c0: 4338 c3ba 1f51 ccbc 3cfc db3b 5c5b b0bb
000001d0: 9084 0bba 3256 a9bb 1b59 673b 8f4a f439
000001e0: 05db 843b ee75 8b3c d3b4 03bb c47b a0bb
000001f0: 761e f73b e0c9 cdbc 0bd7 783c df11 e6bc
00000200: 70b9 313c 3c60 973c 7f4d 5e3c 1ca5 21bc
00000210: 49ea 3e3c 2426 c2bb 4cac debc 6b3a 3e3c
00000220: ec68 b4bc bd60 c0bc 88c8 aeba b247 6ebc
00000230: 7fc6 fd3a 4522 24bc 93e7 0d3d 59ba 34bc
00000240: 2319 45bc 81f4 25bb 1f2d 5dbb b8e7 15bb
00000250: 324e c33c 0b77 5ebc 292b 0d3c d07a 353c
00000260: 10d8 f1bc 1001 2ebc aa37 f5bb 39dc b3bc
00000270: db6c b13b bafe 7abc 0576 1abc 6ad2 303c
00000280: 1284 273b 0a6f 23bc 0bff cabb 8650 5d3c
00000290: bbc3 89bc f397 993c 911b 8a3c 759f 853c
000002a0: 77d0 32bc 4f5b b33b b17e be3b 2f5b e83b
000002b0: f3cb 6bbb 54a2 d63c 4129 e73c 77ee 783c
000002c0: abc7 c9ba d5b7 80bc c442 853a 213a 99bc
000002d0: fc85 c3bc 4757 88bc cae2 ff3a 1238 3a3c
000002e0: a37a dbba f901 963c 26a3 7c39 40ed 94bc
000002f0: 7bc9 243c 6f36 92bc 333b 873c c8b7 b73c
00000300: 066b 86bc 3b4f 4ebc bb15 90bb d230 913c
00000310: cb38 e13a 1853 0bbc f16e 1d3d 5d38 acbb
00000320: af34 023d a64c e6bb 06ca a4ba 7d1b 173c
00000330: 540c 9a3a 8d09 963c 0345 133c e31a 593c
00000340: 297f 2fbc 30b8 3abb 710f aabb cc6c ebbc
00000350: 631a 56bc bf0a 353c fd60 4e3c ffa4 f13a
00000360: 73bc c6ba 1d4c 0fbc ee59 94bc c7ce cc3b
00000370: 9fe5 cc3c bde0 93bc ba42 cf3c 51ce 0c3c
00000380: 9d22 0cbc c860 e8bb d3bd b8bc 2e69 fd3b
00000390: 2ce4 243c a271 733c b946 dd3b d8de 343c
000003a0: fdfc 5a3c afba 7b3c 8f62 8fbc f870 a73c
000003b0: f040 193c e476 6b3b 481d 853b be4b b6bc
000003c0: bef7 38bb e912 133d f0bd fe3b 7658 b9bc
000003d0: cbaf 4f3c f8ab f0bb 936e e0bb ee93 f8ba
000003e0: 44de 87bc 57ce 8ebc 5811 283c 135d 26bd
000003f0: 1328 b6bc ff46 10bc 5de9 04bc 486f 893b

net.1.linear.bias f4 [256]
0.03202329 0.06615176 0.003557032 -0.0046911496 0.07993004 -0.034512807 -0.00017045834 -0.02100885
0.03300795 -0.030214496 -0.07191619 0.06938527 0.021226767 0.10263054 0.053588968 -0.049617607
0.0865387 0.053183727 0.07507439 -0.036014896 -0.0196778 -0.040635277 0.06365049 0.0634917
-0.041165393 -0.038879834 0.04949731 -0.021499217 -0.04522555 0.02614863 -0.004810827 0.03784561
-0.012092594 0.028926458 0.026933875 0.054641977 -0.004554297 0.069020756 0.021319538 0.045493685
-0.028321706 -0.04069047 -0.06174346 -0.041712113 0.040931936 -0.016826013 0.02367058 -0.031370606
-0.07282899 0.027542522 -0.002954695 0.023265539 -0.035467986 0.06920616 0.036031865 -0.017269582
0.046813518 0.014174345 -0.056440298 0.03728325 -0.011445059 -0.05609559 -0.06709582 0.025947167
0.057499893 0.017950442 0.002676971 -0.052827377 -0.032670103 0.05339996 -0.025247617 -0.061088983
0.04041851 -0.08121425 0.044910602 -0.039578944 -0.04180864 0.045851003 0.042640254 -0.04451044
-0.08395477 -0.011464962 0.0052946536 0.031510085 0.045338295 -0.055776488 0.00193187 -0.021354565
-0.024456846 0.052778203 -0.043864433 0.05967418 -0.030080702 0.03657772 0.06076789 0.016396374
-0.023311535 -9.441773e-05 -0.04307108 -0.058379274 0.042052567 -0.03851273 0.060325578 -0.03507112
0.0409911 0.08029162 -0.09501269 0.058908664 -0.026504194 0.021770285 -0.0164346 0.020990612
0.062429257 0.014055667 -0.026698206 0.014324779 -0.06619137 -0.02910417 -0.05335186 -0.0062965984
0.053990148 0.050597407 0.014322486 -0.06682048 -0.07831629 -0.08619399 0.015336227 -0.034850325
-0.076874025 -0.044240985 0.066395886 -0.00070541387 0.05212351 0.018977446 -0.032548167 -0.053123444
0.046352107 0.022908308 0.017584004 -0.025761252 0.0024236576 -0.037207194 -0.04633722 -0.053680938
-0.04676169 0.008757008 0.022389637 0.068239644 0.08598652 0.0069520827 0.075837545 0.04888112
0.0025456597 0.09092043 -0.026771504 -0.05452316 0.0179176 -0.07153701 -0.06751155 -0.02923783
0.05945676 0.01678755 0.04550983 0.05397672 -0.04488297 0.037550908 -0.041257888 0.04682588
-0.062217828 -0.06308513 -0.06795436 -0.07551538 0.039239258 -0.012082763 -0.030571511 0.042364996
-0.076874465 0.016772568 -0.051358823 -0.04901946 0.050405417 0.061611634 0.04953076 -0.03919287
0.07583175 0.0618227 -0.05140944 -0.011079803 3.5762878e-05 0.017193293 -0.058966424 0.07287083
0.06247815 -0.024714513 0.066540554 0.06952464 0.0054655676 0.0025061385 -0.026694823 0.016637212
-0.013889786 -0.013878267 -0.008759568 -0.07516091 -0.05626375 -0.01445299 -0.009461904 -0.044910073
-0.034737505 0.011901426 -0.050684523 -0.03971582 0.081288904 0.035695523 -0.039268807 -0.046400428
-0.022405198 -0.04939393 -0.039122175 -0.029772656 -0.036622882 -0.042209387 -0.045819294 -0.032131135
0.08457338 -0.037445378 0.000557592 0.048172254 -0.015458787 -0.012421875 0.040724408 -0.014077335
0.026571425 -0.060198676 0.0691915 0.061315317 0.08245655 -0.08101283 0.049931563 -0.020042866
0.05092879 0.030571474 0.06341687 -0.02083849 0.030686198 0.043252867 0.038542446 -0.028989254
-0.04738955 -0.043366298 0.008751646 -0.03536966 0.051863458 0.028749598 -0.05374932 0.07284285
00000000: da2a 033d 937a 873d 181d 693b 37b8 99bb
00000010: 5cb2 a33d 4d5d 0dbd 10bd 32b9 c01a acbc
00000020: 5833 073d 6484 f7bc cc48 93bd dd19 8e3d
00000030: c2e3 ad3c f62f d23d 1b80 5b3d d53b 4bbd
00000040: 343b b13d 2ed7 593d 9ac0 993d 5b84 13bd
00000050: 5633 a1bc 2d71 26bd 305b 823d f007 823d
00000060: 0b9d 28bd 7640 1fbd b1bd 4a3d 201f b0bc
00000070: 6d3e 39bd a735 d63c 24a4 9dbb 0004 1b3d
00000080: 0420 46bc 2ef7 ec3c 6ea4 dc3c 44d0 5f3d
00000090: 363c 95bb c15a 8d3d 50a6 ae3c 9657 3a3d
000000a0: ec02 e8bc 0dab 26bd b6e6 7cbd 52da 2abd
000000b0: 3fa8 273d b5d6 89bc cee8 c13c 777e 00bd
000000c0: 5e27 95bd dba0 e13c 8ea3 41bb 5f97 be3c
000000d0: e146 11bd f6bb 8d3d 2696 133d f078 8dbc
000000e0: 88bf 3f3d 833b 683c f12d 67bd 52b6 183d
000000f0: 0f84 3bbc 7dc4 65bd 8969 89bd 278f d43c
00000100: 0285 6b3d ce0c 933c 1f70 2f3b 8561 58bd
00000110: 16d1 05bd ebb9 5a3d 17d4 cebc 7138 7abd
00000120: e18d 253d a853 a6bd 2ef4 373d 881d 22bd
00000130: 893f 2bbd 43ce 3b3d 8ca7 2e3d 9450 36bd
00000140: 7af0 abbd 89d7 3bbc c67e ad3b b810 013d
00000150: a6b4 393d e375 64bd cd36 fd3a c5ef aebc
00000160: b959 c8bc f52d 583d 31ab 33bd ea6c 743d
00000170: ce6b f6bc 85d2 153d c0e7 783d b051 863c
00000180: d5f7 bebc 2202 c6b8 4d6b 30bd 1b1f 6fbd
00000190: 503f 2c3d 86bf 1dbd f417 773d bca6 0fbd
000001a0: 49e6 273d ef6f a43d 0396 c2bd 364a 713d
000001b0: 531f d9bc 9957 b23c dba1 86bc 81f4 ab3c
000001c0: d2b5 7f3d be49 663c 32b6 dabc 7ab2 6a3c
000001d0: 578f 87bd de6b eebc 7b87 5abd b253 cebb
000001e0: c624 5d3d 3a3f 4f3d dca8 6a3c 2dd9 88bd
000001f0: 4b64 a0bd 7a86 b0bd cc44 7b3c 37bf 0ebd
00000200: 2170 9dbd 0936 35bd 91fa 873d 86eb 38ba
00000210: 767f 553d 9776 9b3c 3a51 05bd f897 59bd
00000220: b5db 3d3d 34aa bb3c 540c 903c 4309 d3bc
00000230: 3ad6 1e3b 9266 18bd 19cc 3dbd 8be0 5bbd
00000240: 3089 3fbd 8e79 0f3c 796a b73c 3ac1 8b3d
00000250: b319 b03d 4cce e33b b750 9b3d 9237 483d
00000260: 15d5 263b 7e34 ba3d ea4f dbbc ad53 5fbd
00000270: eec7 923c ff81 92bd 7f43 8abd 2c84 efbc
00000280: ee88 733d 0b86 893c 8468 3a3d b116 5d3d
00000290: 35d7 37bd fbce 193d 08fe 28bd 7ecc 3f3d
000002a0: 1fd8 7ebd c732 81bd a82b 8bbd cfa7 9abd
000002b0: 58b9 203d c8f6 45bc 1b71 fabc eb86 2d3d
000002c0: 5c70 9dbd a066 893c a15d 52bd a1c8 48bd
000002d0: e975 4e3d 7b5c 7c3d c4e0 4a3d b488 20bd
000002e0: ad4d 9b3d cd39 7d3d b492 52bd 1088 35bc
000002f0: 1900 1638 f3d8 8c3c c786 71bd 4d3d 953d
00000300: 17e9 7f3d 1776 cabc 6a46 883d ef62 8e3d
00000310: 8118 b33b 073e 243b 1aaf dabc c34a 883c
00000320: fc91 63bc ac61 63bc 4b84 0fbc f7ed 99bd
00000330: d174 66bd 3ccc 6cbc 1a06 1bbc a0f3 37bd
00000340: ea48 0ebd 33fe 423c 939a 4fbd 0ead 22bd
00000350: cc7a a63d 7835 123d 54d8 20bd 600e 3ebd
00000360: 1b8b b7bc 4a51 4abd 933e 20bd c9e5 f3bc
00000370: e001 16bd c0e3 2cbd 03ad 3bbd f09b 03bd
00000380: cf34 ad3d 5360 19bd 5e2b 123a 4550 453d
00000390: da46 7dbc 1f85 4bbc a3ce 263d 9fa4 66bc
000003a0: 51ac d93c e392 76bd 46b4 8d3d c525 7b3d
000003b0: fbde a83d 0eea a5bd 0a85 4c3d f030 a4bc
000003c0: b59a 503d 0771 fa3c b4e0 813d 7bb5 aabc
000003d0: 9f61 fb3c eb29 313d afde 1d3d df7a edbc
000003e0: 8b1b 42bd dca0 31bd 1063 0f3c c7df 10bd
000003f0: c76e 543d 4784 eb3c 3f28 5cbd a22e 953d

net.2.linear.weight f4 [256, 256]
0.0015143087 -0.00025823538 0.00309184 -0.0029325401 5.974422e-05 -0.0012578818 -0.00084856723 -0.006114069
-0.0037977782 0.0017577788 0.0023449634 -0.00013508854 -0.0034624222 -0.009113666 -0.00049811916 0.0012905957
-0.0006227901 0.0018441203 0.0006097695 -0.003367204 -0.0036433067 0.0035876085 -0.0024754526 0.0008007524
0.0013502125 0.0020737194 -0.0034828265 0.00870693 0.00019872353 -0.00047999213 -0.003548115 0.0014842008
-0.0009286656 -0.0016029701 -0.0004342291 -0.001046512 0.00045879552 -0.0027717638 0.00017406914 -0.0033351935
-0.0005129667 0.00023534677 0.002734282 0.0011244583 -0.0016376156 0.005551322 0.0019382002 0.0016577407
0.00080425345 -8.27476e-05 -0.002477288 0.004519995 -0.00021311722 0.0031731504 -0.0018479355 -0.0019934417
-0.0006171575 -0.0077042985 0.0027354981 0.002257805 0.009785826 -0.0019613293 -0.0019779222 0.00047908843
-0.0023444912 -0.019569207 0.0022852384 -0.0052495655 -0.0005274636 0.00015992299 0.0037668936 0.0014241093
0.0021879002 -0.0032026805 -0.0057475157 0.0009035326 -0.0009256136 -0.0036128548 -0.005365001 -0.00031718577
0.0041804006 -0.001393432 0.0038114854 -0.0018906649 -0.002266215 0.0040191384 -0.0015542888 0.0012186192
0.0012663368 0.0005370732 0.0004354612 0.0028433246 0.0015549342 -9.3249706e-05 0.002897521 0.000497689
-0.001720944 0.0031451029 -0.0008621581 -0.0024168412 -0.007381601 0.0043953434 -0.0011303645 -0.0020752996
0.0016147167 0.0045000706 3.7619455e-05 0.00016584623 -0.0069221165 0.0011197473 -0.0012132502 0.0026805091
-0.00033037234 -0.0020340653 -0.0017259715 -0.0013238876 -0.0025611797 -0.00404387 -0.00024947216 0.00021922555
0.0023078797 -0.00084956305 -0.0051131933 0.000750081 0.0028708382 -0.0030220998 0.0018679223 -0.0028440154
-0.0029699306 0.0044939453 -0.0030581495 0.0007694387 -0.0004094921 0.0007571559 -0.002039093 -0.0025347339
-4.5879875e-05 -0.0003263101 0.0024523088 -0.0022647588 -0.00039466188 0.0025886996 -0.00070391194 -0.0018989216
-0.0006605986 0.0008194306 -0.010071915 -0.0043094847 -0.0008955122 0.00083407224 -0.00075748016 0.00072548003
-0.013476728 -0.005564832 0.00046137118 -0.0028343701 0.00070478837 0.0046336013 0.004759569 -0.0027302413
-0.0008079333 -0.0024834229 0.0005160504 -0.000984392 -0.0003630465 -0.0033830612 0.001945542 0.003843846
-0.0030443147 0.0010396321 -0.0019203419 0.006542682 -0.0022197128 0.003686127 0.0022389845 0.0031039112
-0.0026560125 0.0024092183 -0.0010016195 -0.0028003347 0.0025072044 0.0023747243 -0.0013191161 -5.5376954e-06
-0.0038244347 7.991889e-05 0.003219336 -0.0007646038 0.0010786297 -0.0014897418 7.5633085e-05 0.0045560566
0.00096556445 -0.0023125259 0.00034016476 0.0043714293 -0.0016896189 0.00023258438 -0.001827813 0.0037648547
-0.00518508 -0.0003277668 0.0025217878 -0.00013743334 0.0011884097 0.0012425939 0.0005347914 0.002269102
0.0018929284 -0.0025563738 -0.0020423008 0.0032205638 0.00018471645 0.0011177975 0.0007403581 0.00071753986
-0.0033332072 -0.0028103404 0.0017562577 0.006111909 -0.00032098693 0.00043261333 0.0011501714 0.0015102738
-0.0051831845 -0.0013519668 0.000500061 -4.82958e-05 0.0004670199 -0.0037884626 -0.0005413666 -0.005765083
0.0026558593 -0.0020791097 -0.00031874413 0.0011700245 0.0046748766 0.000814623 0.0047119623 -0.0021661907
-0.0001037856 -0.004916935 0.003722861 0.00077743374 -0.002676263 -0.0030132385 0.00026726123 -0.0022478013
-0.0015711614 0.0013755725 -0.010289933 -0.0026853513 -0.0003958389 -0.00082673685 -0.0008033718 0.000663605
00000000: c57b c63a c463 87b9 78a0 4a3b dc2f 40bb
00000010: de95 7a38 82df a4ba 6272 5eba 8758 c8bb
00000020: 25e4 78bb 4565 e63a f5ad 193b 8ea6 0db9
00000030: cee9 62bb 7c51 15bc 3694 02ba 3529 a93a
00000040: bc42 23ba 69b6 f13a f0d8 1f3a 4fac 5cbb
00000050: 8bc4 6ebb 151e 6b3b 343b 22bb 95e9 513a
00000060: 9df9 b03a 3de7 073b 2240 64bb 83a7 0e3c
00000070: 7160 5039 74a7 fbb9 7e87 68bb 8489 c23a
00000080: b271 73ba c01a d2ba 3ea9 e3b9 1e2b 89ba
00000090: 7e8a f039 7ba6 35bb 5486 3639 4393 5abb
000000a0: 9d78 06ba 6bc7 7639 a431 333b 8f62 933a
000000b0: 43a5 d6ba dde7 b53b 350b fe3a 8c48 d93a
000000c0: 89d4 523a c888 adb8 ff59 22bb 771c 943b
000000d0: 3878 5fb9 a1f4 4f3b 6d36 f2ba 67a4 02bb
000000e0: bdc8 21ba 5774 fcbb 0b46 333b aff7 133b
000000f0: bb54 203c a589 00bb 07a0 01bb 292e fb39
00000100: 09a6 19bb 9a4f a0bc f0c3 153b 8c04 acbb
00000110: 7c45 0aba 00b1 2739 fddd 763b 2ea9 ba3a
00000120: e062 0f3b 10e4 51bb a855 bcbb 0cdb 6c3a
00000130: e1a4 72ba a5c5 6cbb e4cc afbb f44b a6b9
00000140: befb 883b d2a3 b6ba 1dca 793b 30d0 f7ba
00000150: c784 14bb fab2 833b 47b9 cbba 13ba 9f3a
00000160: 36fb a53a 5fca 0c3a 9d4e e439 1257 3a3b
00000170: efce cb3a 0e8f c3b8 56e4 3d3b 5877 023a
00000180: 4c91 e1ba 121e 4e3b 7302 62ba de63 1ebb
00000190: 5be1 f1bb d006 903b bd28 94ba c001 08bb
000001a0: e7a4 d33a 5475 933b 95c9 1d38 02e7 2d39
000001b0: ecd2 e2bb 7cc4 923a ec05 9fba 7bab 2f3b
000001c0: d335 adb9 f44d 05bb fe39 e2ba 4c86 adba
000001d0: 77d9 27bb 7182 84bb 96cb 82b9 e9df 6539
000001e0: cc3f 173b 36b5 5eba 938c a7bb 15a1 443a
000001f0: ac24 3c3b 6c0e 46bb 12d5 f43a a962 3abb
00000200: 2ba3 42bb f241 933b 3c6b 48bb 28b4 493a
00000210: 19b1 d6b9 df7b 463a 4ea2 05bb c71d 26bb
00000220: 246f 40b8 9a14 abb9 eab6 203b 596c 14bb
00000230: 9fea ceb9 2ca7 293b bb86 38ba 3ce5 f8ba
00000240: 062c 2dba 0fcf 563a ac04 25bc 9436 8dbb
00000250: cec0 6aba a4a5 5a3a a291 46ba 242e 3e3a
00000260: 7fcd 5cbc 3259 b6bb 31e4 f139 d7c0 39bb
00000270: 8cc1 383a 77d5 973b 29f6 9b3b d9ed 32bb
00000280: 7ccb 53ba ecc0 22bb 8e47 073a b706 81ba
00000290: 4757 beb9 59b6 5dbb 8f01 ff3a 09e9 7b3b
000002a0: 2083 47bb 4444 883a fbb3 fbba ff63 d63b
000002b0: 9a78 11bb f392 713b edbb 123b fd6a 4b3b
000002c0: 7f10 2ebb fae3 1d3b c648 83ba d285 37bb
000002d0: e94f 243b 43a1 1b3b 31e6 acba 71d0 b9b6
000002e0: 5ea3 7abb 219a a738 7ffb 523b b16f 48ba
000002f0: cf60 8d3a 7143 c3ba 349d 9e38 f94a 953b
00000300: ef1d 7d3a bf8d 17bb 2458 b239 353e 8f3b
00000310: 3476 ddba e5e1 7339 3a93 efba c8bb 763b
00000320: 9be7 a9bb 1dd8 abb9 9444 253b fb1b 10b9
00000330: 6ac4 9b3a 88de a23a 3e31 0c3a 37b5 143b
00000340: 231c f83a d688 27bb 1fd8 05bb 1810 533b
00000350: 72b0 4139 0f83 923a 9714 423a 4919 3c3a
00000360: f071 5abb b02d 38bb 3b32 e63a 6946 c83b
00000370: 234a a8b9 61d0 e239 59c1 963a 61f4 c53a
00000380: b4d7 a9bb 7a34 b1ba 8716 033a 3891 4ab8
00000390: 5ada f439 db47 78bb 7fea 0dba 05e9 bcbb
000003a0: ed0d 2e3b ac41 08bb 1d1d a7b9 825b 993a
000003b0: b52f 993b 6d8c 553a ce66 9a3b a6f6 0dbb
000003c0: 78a7 d9b8 3e1e a1bb 3efb 733b b2cc 4b3a
000003d0: 3e64 2fbb c179 45bb 321f 8c39 d94f 13bb
000003e0: 6eef cdba 8e4c b43a 1b97 28bc b8fc 2fbb
000003f0: 9988 cfb9 5fb9 58ba 5e99 52ba c7f5 2d3a

net.2.linear.bias f4 [256]
0.003533839 0.009062551 0.026382817 0.019376202 -0.05163859 0.027244212 0.09945273 0.018132688
0.019637253 0.0033602088 0.043980945 -2.2053386e-05 -0.03567866 -0.054699037 -0.008956649 -0.0063430313
-0.00857649 -0.0848473 -0.02800831 -0.0338536 -0.00037812177 0.0083839 -0.051750455 -0.0002898555
-0.07956118 0.045038197 0.052223746 -0.009497636 0.04880836 0.05347891 0.040000107 0.021551792
0.033432703 -0.036172763 0.056868084 -0.0019121349 0.010404166 -0.04951494 0.04513829 0.0018236489
0.022288358 -0.05111418 -0.0043140515 -0.01251693 0.040025346 0.03646516 -0.023456866 -0.049833287
0.08284231 -0.007724112 -0.039413095 0.037339617 0.026447574 0.0008974479 -0.04248072 0.02277103
-0.0036584733 0.0029089628 -0.033350546 0.03481652 0.001993542 -0.014037897 -0.02500541 -0.034081817
-0.06721351 -0.10091681 0.005134274 0.014278339 -0.054174967 -0.00394436 -0.03645635 0.09970593
-0.02460249 0.06708594 0.0035260133 -0.01747252 0.058276974 -0.040024374 -0.0033143982 0.0004815442
0.041444127 -0.07524615 0.010400771 0.019855717 0.041558314 -0.01734552 0.07803425 0.05048887
-0.06876162 0.005325285 -0.005689114 -0.011430849 -0.03503983 0.03525793 0.09064575 -0.04656177
0.048556525 0.012181032 -0.016564954 -0.06582558 0.007452712 0.008590211 -0.0160027 -0.02707877
0.10678332 -0.050630048 0.05332318 0.029870208 0.01259052 0.0013362962 -0.08316257 -0.0137975365
0.0035334558 0.0027093792 -0.017360521 -0.027608607 -0.0051686326 -0.033106077 0.0035442861 -0.06277551
-0.004281736 -0.045409147 -0.0032776736 -0.014302609 0.0034379363 0.018743364 0.09704525 0.027315106
-0.06030575 -0.015165088 -0.060532965 0.024243744 0.054656204 -0.0085448325 0.05873672 0.017703133
-0.010908265 0.04804534 0.016262433 -0.060442735 -0.00972864 -0.019107128 0.0719208 -0.039562527
-0.0067919707 -0.069986664 -0.033645622 -0.007137577 0.009877997 0.11785783 0.01727111 -0.0032135202
0.030450149 0.0057740905 -0.09955224 -0.0005642911 0.040166758 0.009277762 0.105452746 0.0041740155
0.020084271 0.011591429 -0.06628723 -0.0019871548 -0.060201783 -0.059001856 0.04278108 0.006795382
-0.057713304 0.048763894 -0.052077692 0.06676777 -0.0026067279 -0.00843335 -0.002201412 0.018744223
-0.024520388 -0.02067601 -0.03517336 0.018118314 0.046439484 0.0092421435 -0.036656044 -0.0049324753
-0.01836102 -0.056713115 0.0010748855 -0.061426535 -0.006859261 -0.015575463 -0.030616902 -0.04688392
-0.0471509 -0.026512166 0.008600018 0.015437712 -0.025997316 -0.07110857 -0.0016123998 0.036744226
-0.03901066 0.005516669 0.006877982 0.06763921 0.03356656 -0.020578755 0.0668981 0.0006132384
-0.08699452 -0.008648539 -0.04552045 0.016135216 0.00030270414 0.006030526 0.09041832 0.04126383
0.042032663 0.042178426 -0.02643016 -0.017778492 0.031990677 0.061426003 -0.05085243 -0.013567344
0.07906545 -0.011041111 0.0041824025 0.03897435 0.00017044712 0.080043286 -0.005827264 -0.063738786
-0.053076014 0.03665654 0.03932542 -0.0077047395 0.008174998 0.04588084 0.011956684 0.020602852
-0.057100363 0.050699748 -0.080778494 -0.00021065306 -0.033214394 -0.069981724 -0.035848852 -0.024361018
-0.083796114 0.008791286 -0.04778511 0.0051220343 -0.002707977 0.035077155 -0.01222826 0.07189078
00000000: fb97 673b 187b 143c c720 d83c d7ba 9e3c
00000010: fc82 53bd 412f df3c dfad cb3d 018b 943c
00000020: 4ede a03c f336 5c3b 5d25 343d 49ff b8b7
00000030: c923 12bd 190c 60bd e9be 12bc 34d9 cfbb
00000040: 6884 0cbc 6cc4 adbd af71 e5bc 13aa 0abd
00000050: a53e c6b9 a05c 093c 49f8 53bd bff7 97b9
00000060: f9f0 a2bd f979 383d 91e8 553d f99b 1bbc
00000070: 46eb 473d b40c 5b3d 27d7 233d 628d b03c
00000080: bbf0 083d e429 14bd 82ee 683d 9aa0 faba
00000090: 3c76 2a3c 2dd0 4abd ede2 383d 8107 ef3a
000000a0: 1396 b63c 1a5d 51bd e35c 8dbb cf13 4dbc
000000b0: 9ef1 233d 7e5c 153d 9d28 c0bc fd1d 4cbd
000000c0: 3ba9 a93d 8c1a fdbb a06f 21bd 6df1 183d
000000d0: 95a8 d83c b642 6b3a 4300 2ebd 508a ba3c
000000e0: ffc2 6fbb 4ca4 3e3b 959a 08bd c49b 0e3d
000000f0: 16a6 023b 35ff 65bc 25d8 ccbc 6099 0bbd
00000100: 3da7 89bd 79ad cebd 693d a83b b2ef 693c
00000110: 92e6 5dbd b13f 81bb 4153 15bd 9f32 cc3d
00000120: 298b c9bc 5a64 893d b014 673b 8822 8fbc
00000130: d6b3 6e3d 99f0 23bd 6036 59bb c577 fc39
00000140: 51c1 293d a71a 9abd ff67 2a3c 75a8 a23c
00000150: 0d39 2a3d 3118 8ebc 6cd0 9f3d 6bcd 4e3d
00000160: e4d2 8cbd ba7f ae3b bf6b babb 7548 3bbc
00000170: ed85 0fbd 9f6a 103d 7ba4 b93d 8eb7 3ebd
00000180: 35e3 463d f492 473c 3ab3 87bc 90cf 86bd
00000190: e135 f43b f5bd 0c3c 1818 83bc 4cd4 ddbc
000001a0: 37b1 da3d 7461 4fbd 6869 5a3d 5eb2 f43c
000001b0: 7848 4e3c a926 af3a 2351 aabd 100f 62bc
000001c0: 8d91 673b d78f 313b a737 8ebc 722b e2bc
000001d0: a25d a9bb 3d9a 07bd 4147 683b 7290 80bd
000001e0: ce4d 8cbb f1fe 39bd 3dce 56bb 7d55 6abc
000001f0: 004f 613b af8b 993c a9bf c63d eec3 df3c
00000200: 2a03 77bd fd76 78bc 6af1 77bd d19a c63c
00000210: 2fdf 5f3d a0ff 0bbc ea95 703d 2906 913c
00000220: 94b8 32bc 31cb 443d cb38 853c cd92 77bd
00000230: e064 1fbc 8d86 9cbc 364b 933d 510c 22bd
00000240: 2e8f debb 2b55 8fbd fecf 09bd 56e2 e9bb
00000250: 53d7 213c 725f f13d 257c 8d3c ec99 52bb
00000260: 9772 f93c 9534 bd3b 0be2 cbbd efec 13ba
00000270: e685 243d c101 183c 9cf7 d73d 2ec6 883b
00000280: c587 a43c fae9 3d3c 99c1 87bd ed3a 02bb
00000290: 2596 76bd eeab 71bd 373b 2f3d ccab de3b
000002a0: c964 6cbd a6bc 473d 6b4f 55bd 8abd 883d
000002b0: a3d5 2abb 092c 0abc 9145 10bb 7c8d 993c
000002c0: fbde c8bc bc60 a9bc f111 10bd dc6c 943c
000002d0: 5437 3e3d 5c6c 173c a624 16bd 9aa0 a1bb
000002e0: da69 96bc 034c 68bd 2ce3 8c3a 649a 7bbd
000002f0: a7c3 e0bb 3a30 7fbc 4cd0 fabc 5a09 40bd
00000300: 4d21 41bd 0b30 d9bc 17e7 0c3c 75ee 7c3c
00000310: 53f8 d4bc 5fa1 91bd 2957 d3ba 1d81 163d
00000320: a4c9 1fbd 2cc5 b43b b260 e13b 6d86 8a3d
00000330: 177d 093d c794 a8bc df01 893d bbc1 203a
00000340: 2f2a b2bd 9ab2 0dbc a773 3abd 002e 843c
00000350: 43b4 9e39 b89b c53b 3d2d b93d 4304 293d
00000360: 712a 2c3d 49c3 2c3d 1084 d8bc 33a4 91bc
00000370: a808 033d d599 7b3d a34a 50bd 9149 5ebc
00000380: 11ed a13d c7e5 34bc 890c 893b 91a3 1f3d
00000390: 0dba 3239 bced a33d a2f2 bebb 7b89 82bd
000003a0: 3c66 59bd 2b25 163d b113 213d 0a78 fcbb
000003b0: 6df0 053c 8ced 3b3d f8e5 433c 50c7 a83c
000003c0: 12e2 69bd 8aaa 4f3d 326f a5bd c0e2 5cb9
000003d0: d10b 08bd 9452 8fbd 3fd6 12bd c290 c7bc
000003e0: 4c9d abbd 5309 103c 52ba 43bd bdd6 a73b
000003f0: 5178 31bb 10ad 0f3d 0a59 48bc 793b 933d

net.3.linear.weight f4 [256, 256]
0.0020352155 7.48472e-05 -0.00013396393 3.04217e-05 -0.00013562839 -0.0002528004 -0.00025985623 -0.0068114977
-9.929414e-06 0.008860531 7.9460304e-05 0.001207536 0.00049068185 -0.00051611674 -0.0016876656 0.0002634253
-0.00017468935 -0.00011795599 -0.00024839892 5.3181127e-05 -0.0001328746 -7.4029216e-05 -0.00045781178 0.00011738382
-0.0043867948 0.0002642094 0.0015998922 -0.0010103041 0.00037384042 -0.00018228746 0.0012859935 -0.00035960463
0.00077249954 -4.9567847e-05 -0.0001466078 -0.0018190722 -5.296126e-05 0.01118789 -5.0084698e-05 -0.00041632983
-0.00013219699 0.0001992557 0.00012516537 0.0013213152 -0.00027484813 2.0578513e-05 -0.0036090394 9.221792e-06
4.820799e-05 0.0049704583 0.003687792 0.00038817152 -0.00037928563 0.0005546129 3.943089e-05 -3.4491823e-05
-0.0016273843 -0.00043098337 1.4477014e-06 -0.00016458532 -0.0019471549 0.0002726296 -0.00039581434 -0.005178274
0.00023793807 -0.00038007885 0.00010040832 0.008012832 0.00016612279 6.772104e-05 8.936018e-05 0.00089216494
-0.00010945317 -7.8907935e-05 -0.00067757466 0.00052192586 3.9057166e-05 0.00027607146 -0.00036352844 0.00017914792
0.0008217824 2.2964772e-05 8.5241736e-05 6.8347596e-05 3.5097808e-05 0.00039048702 0.0013858329 -0.00056661596
-0.0004791201 -1.3585976e-05 0.0002503411 0.0004447786 -1.5671556e-05 -0.00032665863 0.00053201226 0.005292509
-0.0001007595 1.9246986e-06 0.00022109608 0.0005428316 0.00084153365 -0.0013060371 -2.7892753e-05 -0.0002566547
0.004001682 0.00040414475 0.00011557389 -0.00016221403 0.0036438198 0.009924296 -1.6429682e-05 -0.0001911351
0.00041361988 -0.00029782098 -4.8993432e-05 0.0055945753 0.002566339 0.00018328863 0.00090539036 -0.002516871
-0.0009801486 9.173889e-05 0.00042483426 0.00021962546 0.002697611 0.0021271184 -0.00012722511 -0.00015899933
-8.807859e-05 -0.00024167249 0.00010430293 0.0003692058 -0.00017219753 -0.0053092963 0.00028673589 -0.00056278723
-0.00023744145 -0.00014069353 0.00023481646 -0.0026678168 8.889417e-05 0.00014825865 0.00037188642 -8.862233e-05
-9.00475e-05 6.776532e-05 0.00025623635 0.00018329025 -0.00043856615 0.0051804516 -0.0002225711 -0.009337999
2.4455943e-05 -0.000116497955 -0.0025107025 -0.00064406515 -0.00023016967 -0.0007381173 2.2658726e-06 -0.00248243
0.0003146806 -0.00056639843 0.0022738138 0.0038743329 0.00039566896 0.00037913912 0.00011842052 -0.00032164773
0.00013342893 0.00033099277 -0.0004853623 -0.003529013 -0.00045598095 0.0001580617 0.0005022954 0.00028878686
-0.00012433853 -0.0049690288 -0.0027391033 -0.0058089206 0.0002998607 0.00047396697 0.0037641996 0.0013061663
-0.00014709585 0.00011675305 0.0011597819 2.9617275e-05 0.0004326232 0.00039869695 -0.0026713205 0.0093336385
-5.128092e-05 -0.00027848623 -5.5478075e-05 -7.090733e-05 0.00032808364 -0.0047287233 0.0005723824 0.00021690007
-1.898175e-05 0.0011608701 -0.00029820614 4.181664e-05 6.701252e-05 0.000430671 -0.00071286043 0.0018656314
-0.00031322797 0.0024209053 -0.000104049686 2.2367198e-05 -0.00029966873 0.00018778592 1.3670644e-05 -0.0004619514
4.429714e-06 3.2111842e-05 -0.00017052035 0.0050123553 -0.00013850754 -0.00079316454 -0.00017793813 0.00026574824
0.000106030144 8.059309e-05 0.0006987041 0.0055342 0.0012159625 0.0014400143 0.0005325086 0.00031962976
6.0064594e-05 0.005895051 0.0053117885 0.00045452281 0.0043322546 4.72327e-05 -0.007914724 -0.0046748878
0.00025691523 -0.0002645882 0.00071563956 5.695701e-05 -0.00038607288 7.7484954e-05 0.0016952105 -0.00010498738
-0.000997056 0.0014282577 -0.00229114 -0.00061462156 0.0003708714 0.0012821218 0.0024628583 0.00062771025
00000000: 4061 053b 49f7 9c38 ab78 0cb9 1a32 ff37
00000010: 7837 0eb9 4c8a 84b9 503d 88b9 fc32 dfbb
00000020: 8296 26b7 c32b 113c eda3 a638 2f46 9e3a
00000030: 1aa1 003a 024c 07ba a934 ddba 581c 8a39
00000040: d12c 37b9 245f f7b8 8a3b 82b9 cd0e 5f38
00000050: 4154 0bb9 2240 9bb8 7506 f0b9 f52b f638
00000060: 1abf 8fbb 9685 8a39 79b3 d13a 2e6c 84ba
00000070: 0300 c439 6b24 3fb9 c88e a83a 5189 bcb9
00000080: 9181 4a3a 12e7 4fb8 bbba 19b9 ef6d eeba
00000090: b822 5eb8 694d 373c 0912 52b8 d846 dab9
000000a0: 5c9e 0ab9 4bef 5039 d33e 0339 fb2f ad3a
000000b0: 7e19 90b9 05a0 ac37 a285 6cbb 4cb7 1a37
000000c0: ef32 4a38 3adf a23b e2ae 713b 8083 cb39
000000d0: dbda c6b9 7163 113a 9962 2538 50ab 10b8
000000e0: f54d d5ba 9cf5 e1b9 a44e c235 8994 2cb9
000000f0: ad37 ffba baef 8e39 4d85 cfb9 83ae a9bb
00000100: 047f 7939 5245 c7b9 4e92 d238 4148 033c
00000110: 3f31 2e39 7505 8e38 e266 bb38 2de0 693a
00000120: 398a e5b8 607b a5b8 449f 31ba dad1 083a
00000130: 50d1 2338 afbd 9039 f697 beb9 a7d9 3b39
00000140: e26c 573a 79a4 c037 cfc3 b238 d655 8f38
00000150: fc35 1338 48ba cc39 d6a4 b53a f488 14ba
00000160: 6932 fbb9 53ef 63b7 3740 8339 2c31 e939
00000170: 6976 83b7 6143 abb9 bd76 0b3a c96c ad3b
00000180: d84e d3b8 122a 0136 07d6 6739 d04c 0e3a
00000190: 5e9a 5c3a 552f abba 3bfb e9b7 9c8f 86b9
000001a0: 8b20 833b 64e3 d339 4260 f238 ff17 2ab9
000001b0: 27cd 6e3b 8499 223c 79d2 89b7 706b 48b9
000001c0: 1fdb d839 db24 9cb9 4c7e 4db8 b352 b73b
000001d0: 0630 283b 2b31 4039 b857 6d3a 17f2 24bb
000001e0: 5478 80ba f163 c038 4abc de39 434b 6639
000001f0: 67ca 303b 2067 0b3b bb67 05b9 0fb9 26b9
00000200: d5b6 b8b8 7769 7db9 36bd da38 f791 c139
00000210: ec8f 34b9 9bf9 adbb 0a55 9639 0388 13ba
00000220: b4f9 78b9 2287 13b9 1039 7639 8ad6 2ebb
00000230: b26c ba38 e175 1b39 c0f9 c239 c0da b9b8
00000240: e2d7 bcb8 3b1d 8e38 7657 8639 9a31 4039
00000250: 5aef e5b9 c7c0 a93b fa61 69b9 68fe 18bc
00000260: bd26 cd37 5d50 f4b8 998a 24bb 7bd6 28ba
00000270: b359 71b9 377e 41ba 650f 1836 44b0 22bb
00000280: b7fb a439 5b7a 14ba 4404 153b 85e8 7d3b
00000290: ca71 cf39 31c7 c639 8858 f838 d4a2 a8b9
000002a0: 0ee9 0b39 1989 ad39 3a78 feb9 0347 67bb
000002b0: ba10 efb9 5dbd 2539 79ac 033a 5168 9739
000002c0: df60 02b9 3cd3 a2bb 8782 33bb c258 bebb
000002d0: 9f36 9d39 c57e f839 cab0 763b ab33 ab3a
000002e0: be3d 1ab9 51d9 f438 d303 983a 9d72 f837
000002f0: b4d1 e239 3308 d139 5211 2fbb 1eec 183c
00000300: 7816 57b8 ca01 92b9 21b1 68b8 15b4 94b8
00000310: a402 ac39 68f3 9abb ef0b 163a ab6f 6339
00000320: ff3a 9fb7 5628 983a 8d58 9cb9 4664 2f38
00000330: 1389 8c38 afcb e139 41df 3aba 3488 f43a
00000340: bf38 a4b9 0da8 1e3b 4035 dab8 31a1 bb37
00000350: db1c 9db9 66e8 4439 f85a 6537 1132 f2b9
00000360: f4a2 9436 d4af 0638 b5cd 32b9 af3e a43b
00000370: 563c 11b9 5fec 4fba e794 3ab9 2054 8b39
00000380: 805c de38 1604 a938 3d29 373a 3c58 b53b
00000390: ee60 9f3a ddbe bc3a 0c98 0b3a fb93 a739
000003a0: deed 7b38 462b c13b 830e ae3b 054d ee39
000003b0: 96f5 8d3b ba1b 4638 c2ac 01bc cd2f 99bb
000003c0: 94b2 8639 6db8 8ab9 c299 3b3a 20e5 6e38
000003d0: d369 cab9 6b7f a238 d331 de3a ac2c dcb8
000003e0: a6af 82ba 6034 bb3a f326 16bb 8e1e 21ba
000003f0: 8471 c239 de0c a83a e867 213b ec8c 243a
